dp_lenet_code/dp_lenet_plots/lenet_noise_0.5_gradnorm_1.1.pt (torch, 251038 bytes, 10 tensors)

_module.conv1.weight f4 [6, 1, 5, 5]
00000000: 2fbf bd3e bfbf c13e 5940 5f3e 14f0 b83e
00000010: 1f77 423d 452c ea3e 7ca7 a83e 4173 263f
00000020: c5fa 1a3f 5bf4 e53d c135 fa3e 5fe1 1e3f
00000030: 5c2a 2e3f 2d58 cd3e 8664 ba3e 5857 593e
00000040: 18ae 193f ae01 c23e 0d05 5b3d 3bf4 703e
00000050: 7789 72be 9af7 543c e1aa 3dbd 215b 3f3e
00000060: bc5e 27be 0e41 353d c8a8 3dbe 0242 e33d
00000070: 0854 d83d 0d9a 2abe e073 143e af88 6abe
00000080: d717 893e 1146 053e a7c4 5f3d 9ff9 363e
00000090: 565a dd3d 97bb 1b3f dcf7 ce3e 880f 873d
000000a0: ffee 6b3e bf29 943e 9909 0d3f 8ac5 143f
000000b0: 0752 c93e 24ff e43d 2850 8e3e dd68 433e
000000c0: c95d 5b3e 2ef1 25bd 3704 35be 5ebf 843d
000000d0: fae1 823d 1f4a b23e 8408 ed3d 0489 013e
000000e0: 5027 723e 472d 4b3e e4e0 4b3e a27e 6bbe
000000f0: 03be d83d a50c 273e 9865 593e fbb9 92bc
00000100: cdbf dabd 8491 e43d ca76 f03e f01b eb3b
00000110: 53f9 14be d78e 99be 470e c33e 3a80 843e
00000120: 0bb8 a23e 5973 83be c2ca 99be 6e21 42be
00000130: a472 83be a677 2a3e 98be c03d 7027 423e
00000140: ca4b 23be 904c 323d 26a8 603e 7a22 4c3d
00000150: 5dac 5e3e 3d20 39bc 3425 823e 6a30 d83c
00000160: 4455 a7bd d9b4 223d 1e92 fa3d c7d4 b2bd
00000170: 6a81 383e 5ace df3d 4b13 f43b 67b6 49be
00000180: bae1 383e dd14 053d a113 5abe a5c0 71be
00000190: 7801 99be 5396 d43c 5cb9 a6bd fc21 27be
000001a0: 0ac9 8bbd 517e dfbd eb28 65be 7461 99be
000001b0: cf2c fcbd 08bd 81be ee7f 8a3d 7af2 6fbc
000001c0: f210 283c 18d2 bfbd 2666 84be 2c16 8bbc
000001d0: 9761 5cbc bb5a 12be daf1 02be 8368 b0bd
000001e0: dd2c fcbc 9112 a6bd 3786 a7bd 7cc0 3abe
000001f0: 6c72 43be 084b 433d 0327 a13c b7e4 91bd
00000200: 4fcd 8e3e c7df c4bb f833 c0bc caad 963c
00000210: 96a1 a0bd 5779 a33d c32a cbbd 93aa 40bd
00000220: dfe8 51be a064 8abe edae 8b3d 80d4 efbc
00000230: 081c 3e3e 92f2 cebd 8618 ab3c 0574 2dbe
00000240: 00c5 533d e60e c2bb a4ae 0e3e 9d6c 7f3e
00000250: 213e b63e 5e1e e9bc
0.37059924 0.37841603 0.2180189 0.36120665 0.047476884 0.457369 0.3294028 0.65019614
0.60538894 0.11228248 0.48869136 0.6206264 0.68033385 0.40106335 0.36404818 0.21224725
0.6003127 0.37891906 0.053471614 0.23530667 -0.23685251 0.012998486 -0.04630554 0.18687107
-0.16344732 0.044251494 -0.18521416 0.11096574 0.10562903 -0.16660328 0.14497328 -0.22903703
0.26776 0.1301501 0.0546309 0.1786866 0.10808246 0.60833114 0.40423477 0.06594759
0.23040389 0.289381 0.5509277 0.5811392 0.39320394 0.11181477 0.2779553 0.19082971
0.21422495 -0.04051321 -0.17677389 0.06481813 0.06390758 0.34822175 0.1157389 0.12649924
0.23647809 0.1984149 0.19910008 -0.22997525 0.10583117 0.16313417 0.21230161 -0.017910948
-0.10681114 0.111605674 0.4696563 0.0071749613 -0.14548235 -0.2999179 0.3809683 0.2587908
0.3178104 -0.2567394 -0.30037504 -0.18958065 -0.256734 0.16647205 0.09411353 0.18960357
-0.1594688 0.043530047 0.21939144 0.049837567 0.21745439 -0.01129919 0.2541901 0.026390273
-0.0817056 0.03972325 0.12234901 -0.0873199 0.18018118 0.1092803 0.007448589 -0.19698487
0.18054858 0.0324906 -0.2129655 -0.23608644 -0.29883933 0.025950586 -0.08140823 -0.16321558
-0.068254545 -0.10912765 -0.2237889 -0.29957163 -0.12313234 -0.25339532 0.06762682 -0.014645213
0.010257946 -0.09366244 -0.25859183 -0.016978346 -0.013451002 -0.14292423 -0.12787572 -0.08613684
-0.030783111 -0.0810901 -0.08179896 -0.1823749 -0.19086617 0.047678977 0.019671923 -0.07123702
0.27891013 -0.0060081217 -0.02346228 0.018393416 -0.0784332 0.07982128 -0.099202655 -0.047037672
-0.2049899 -0.27029896 0.06820474 -0.029276133 0.1856538 -0.1010486 0.020885717 -0.16938789
0.051701546 -0.005922186 0.13933808 0.24943776 0.35594276 -0.028456863

_module.conv1.bias f4 [6]
00000000: 071e 733e 8f16 d83b 28f3 a73c d6d3 10be
00000010: bbd1 443e 08b8 87be
0.23741923 0.006594486 0.020501688 -0.14143309 0.19220631 -0.26507592

_module.conv2.weight f4 [16, 6, 5, 5]
00000000: 1314 b33d e1b3 313d 5829 3f3e fc73 a9bc
00000010: 3099 0c3e 551b b73d db88 1c3d c68a 03bc
00000020: 9ba7 1a3e c0d1 e9bd 9a5b fbbc 5885 053e
00000030: 3897 5e3e cdd6 e1bd 4ec1 aebd 3358 1cbd
00000040: b0a1 0b3e dd9e df3d 9ff6 abbd b4c3 9b3c
00000050: e505 48bd ae80 3f3e c6b6 2c3c b87b e6bd
00000060: dc7b 42be 1a60 103e 86b5 2b3d 9205 d53b
00000070: 05f2 b73d 7c8d 013e ca45 34bd a251 3dbd
00000080: 2ed3 563d e412 d23d 9e8e cbbd cda1 f2bd
00000090: 17dc c63d b227 543d 0960 bdbd 6c8d 09be
000000a0: cce9 d53d da2e 46bd d1d8 e73c 0206 80bc
000000b0: 989e 0ebe f5a0 8ebc c5e0 673e 89fa 4b3c
000000c0: 77b3 d3bd 2324 8dbd 330c 16be 6e28 fcbd
000000d0: 02bf 4ebc afe3 62bd 7383 153e 7fdd c73c
000000e0: 009e a4bd 965e e83c 19ca 533d 897a af3d
000000f0: 41e4 04bd e30b 843d 614c 863d a0fa bb3d
00000100: 2c93 f3bd e6c5 283e 8c8f 223e 1b52 313e
00000110: 1eaf 9dbd e94c 84bd ead0 9d3d 1053 9a3d
00000120: ff63 913c 5d98 5abd 6787 f4bc c13e 2ebb
00000130: b99b ed3d 3eaf e43d a4a1 013e 65d3 aebd
00000140: 3899 60bc 9e92 3fbd 98cd e0bd ac57 4e3c
00000150: 296b 4dbc e511 8fbd 9ce5 463d 2e7c b7bd
00000160: 1eee 30bc 129a abbd 44a8 f6bd fa93 31bc
00000170: 256e 61bd 641e 02be 8057 d7bd 1b6a 143d
00000180: c995 03bd 38c9 ccbd fc35 1ebe 9bd3 b43c
00000190: e062 473d 4e3a e13d de8e f43d 0d6c 853c
000001a0: c9ba ac3c e3da c53d e845 c33d d268 49bc
000001b0: a2c2 0b3e fdd8 7b3d b8d7 7cbd 04c3 4ebd
000001c0: 5916 e6bd c4cf 233d f24e 7d3d 848b bcbd
000001d0: 43b9 9c3b 5beb df3d 9e02 723e bc16 5dbd
000001e0: 42ee 02be ad0f 1e3c dab6 d73d e8a7 d3bd
000001f0: 60d6 32bd 5991 8abd e512 b73d a409 a9bc
00000200: 914a e2bd 9474 cabd 0eaf f4bc cffd 213e
00000210: 4d6b 9b3d bf38 d1bd 28d4 59bc 9c03 1dbd
00000220: 8628 683c 0671 59be 9737 30bc 5d22 80bd
00000230: b2fd 12bd 596f 183a c619 2bbe 89ef 01bd
00000240: 6a83 f7bd d22c f53b 6cff 653d 4c48 bdbd
00000250: c1f0 6cbc d87b b43d ee54 96bc f741 093d
00000260: 3312 5ebd 63ab 8ebc 42ff 093e 40a4 813d
00000270: 33ec 05bd 745f 8d3e c4e1 423e 882e d93d
00000280: 590e ffbc 3dc0 d43d 7eae 0f3d 114c a73b
00000290: 70a9 403d 69fa 17bd 1c55 1f3d 0346 9d3d
000002a0: cf21 babc 5307 01be 9c87 ddbd 93cf 94bd
000002b0: 0c59 f0bd 92dc ae3d 561f 16bd abbc 97bd
000002c0: 35b8 24bd 39da d1bd 4cc1 2f3e ff30 b93d
000002d0: 6705 ac3d 6d58 3f3e 23e2 063d fc7c b9ba
000002e0: c461 76bd 6f13 31be 2c1e 83bd 5b1f a9bd
000002f0: 9057 dcbd d756 83bd a4fb 8cbc 92e1 25be
00000300: c5da 04be 8a25 393d c87b 243d 3b11 0f3e
00000310: 0855 e23d bec0 eebb 69c8 99bd bade c23d
00000320: 87e3 5c3d 41fd 32bc c195 36be e0d8 753d
00000330: dd1f 0cbc 8abb 9e3c c148 393b d038 c93d
00000340: 84f3 6fbd fc85 a63d 753d 413d c5b5 d6bd
00000350: 4d3e 1bbe bb51 cd3b 6189 df3d 604f 953c
00000360: eff4 0dbe 680e 593d 06b5 ebbd 5cdb 30bd
00000370: 4bfb 713d 751c 8eba 150f 7b3c 13b2 10be
00000380: 559f 383d 410e 9cbd a6cd abbd e48a 0c3d
00000390: 60c9 783d d2ec f13d 906d e0bd e323 a5bd
000003a0: c2da 063a fead 4abd 721a bbba ae31 c0bd
000003b0: 8f60 f93d f4e8 8b3d c34a 2b3d 4199 1bbe
000003c0: 2364 c1bc a06b f9bc 9c97 0c3d bdf5 073c
000003d0: dc71 a0bd 24e9 84bc cfa9 97bd 6154 febd
000003e0: b3de c6bd d669 fabd 8db1 24be a94a 0cbe
000003f0: 253a d3bd 67d7 91bd 9d50 81bc b67f f7bc
0.08744063 0.043384437 0.18668115 -0.020685188 0.13730311 0.0894076 0.038216453 -0.008028692
0.15102999 -0.1141696 -0.030683327 0.13039148 0.21737373 -0.11027298 -0.08532964 -0.03817005
0.13635898 0.10918973 -0.083966486 0.019014217 -0.048833746 0.18701431 0.010541623 -0.11254066
-0.18992561 0.1409916 0.04192116 0.006500908 0.089817084 0.12651628 -0.04401187 -0.04622043
0.05244749 0.10257509 -0.099393114 -0.11847267 0.097099476 0.05179567 -0.09246833 -0.13432854
0.10444984 -0.048384525 0.028301628 -0.015627865 -0.13927686 -0.017410735 0.22644337 0.012449869
-0.103369646 -0.06891658 -0.14653091 -0.12312399 -0.012618782 -0.055392917 0.14600925 0.02439761
-0.080379486 0.028365415 0.051706407 0.085682936 -0.032444242 0.0644758 0.06557537 0.09178662
-0.11893305 0.16481742 0.15875071 0.17316477 -0.076994166 -0.06459982 0.07705863 0.07535374
0.017747877 -0.05336796 -0.029849721 -0.0026587697 0.11601967 0.11166237 0.12659317 -0.08536414
-0.013708405 -0.046770684 -0.10976714 0.012594145 -0.012537756 -0.06985835 0.048558816 -0.08959232
-0.010798959 -0.08378996 -0.12043813 -0.010838503 -0.055036683 -0.12706906 -0.10514736 0.036234003
-0.032125268 -0.09999317 -0.15450281 0.022073558 0.04867828 0.10997449 0.11941312 0.016286874
0.02108516 0.0966089 0.09534818 -0.0122930575 0.13648465 0.061486233 -0.061729163 -0.05047895
-0.11234731 0.039993063 0.061842866 -0.09206298 0.004782827 0.10933562 0.23633811 -0.05397676
-0.127862 0.009647292 0.10532923 -0.1033476 -0.043661475 -0.06766004 0.08939151 -0.02063448
-0.11049379 -0.09885517 -0.029868629 0.15819477 0.075888254 -0.102159016 -0.013295211 -0.03833352
0.014169818 -0.21234521 -0.010755441 -0.06256554 -0.035886474 0.0005814932 -0.1670905 -0.03172258
-0.12085612 0.0074821496 0.056151792 -0.09242305 -0.014461697 0.08812684 -0.018351045 0.033510175
-0.054216575 -0.017415708 0.1347628 0.06330156 -0.03269596 0.27611887 0.19031435 0.10604578
-0.031134771 0.10388229 0.035078518 0.0051055034 0.04703659 -0.037104044 0.038899526 0.07679369
-0.0227212 -0.1260045 -0.10816881 -0.07266154 -0.11735734 0.08538164 -0.036650978 -0.074090324
-0.040214736 -0.10246701 0.1716358 0.090425484 0.08399468 0.18686076 0.032930505 -0.0014151628
-0.06015183 -0.1729257 -0.06402239 -0.08257934 -0.10758889 -0.06413048 -0.017209835 -0.1619933
-0.12974079 0.045201816 0.04015711 0.13971417 0.11051375 -0.0072861603 -0.07508928 0.09515138
0.053927924 -0.010924638 -0.17830564 0.06002128 -0.008552519 0.019376535 0.0028272124 0.09825289
-0.058581844 0.08131024 0.04717775 -0.104838885 -0.15160485 0.0062658465 0.10914875 0.018226326
-0.13862966 0.052992254 -0.11509137 -0.043177947 0.059077542 -0.0010842221 0.01532342 -0.1413043
0.045073826 -0.07619906 -0.08388834 0.034312144 0.06073892 0.11812748 -0.109583974 -0.080634855
0.0005144292 -0.049482338 -0.0014274849 -0.09384476 0.1217662 0.06831542 0.041819345 -0.1519518
-0.02360732 -0.030446827 0.034324273 0.008298335 -0.07834217 -0.016224451 -0.07405435 -0.12418438
-0.09710445 -0.12227218 -0.16083355 -0.13700356 -0.103138246 -0.07121163 -0.01578551 -0.030212265

_module.conv2.bias f4 [16]
00000000: 72ec 233d ea76 673d 0b97 fd3c 678c 27bc
00000010: f49b 7b3d 08f5 d93d 2f57 c93d 0866 973d
00000020: 6b83 313d 2ce0 19bc 1956 8bbd a321 f23d
00000030: 306b 6e3d ba1d e33c 8c83 20be a658 be3d
0.040020414 0.05650989 0.030955812 -0.010226346 0.061428025 0.10642439 0.09831082 0.07392508
0.04333822 -0.009391826 -0.06803531 0.11822822 0.05820769 0.027724136 -0.15675181 0.09294252

_module.fc1.weight f4 [120, 400]
00000000: 3b3b 1abe 23a8 c93d 4e43 b43b f965 8d3d
00000010: 45f4 a0bd b604 04bd b747 eebd d728 85bd
00000020: 68ce 5f3d 7282 92bd b4f3 113e b7bf 0dbc
00000030: 9572 43bd 61f0 65bd e890 0bbc fd97 e43d
00000040: 7361 79ba 817d cabd 8b1c edbc d7ec 82bd
00000050: 944c 673d e1c7 0e3d 17d9 72bd 6da0 703d
00000060: 8220 09bd 092d 583d 56ab e6bc a243 a43c
00000070: fe6f 6d3c c6a7 dcbd ee2f a03d b050 eb3d
00000080: 6082 f83c 2d7d a53d 4eb9 033c caa9 51bd
00000090: 7ea2 e3bd 3e8a 0c3d 108d 0f3d 1ebc 8dbd
000000a0: 1628 d33c e6c6 4cbd 8a89 3cbe 7979 2c3e
000000b0: 82f9 b13c 8724 433d a8f2 3fbc 5705 1bbe
000000c0: 6f5c a33d be51 ea3d 82bb 25be 2f44 bf3c
000000d0: 5a71 ab3d 548c ae3d 7e7f a5bd abb9 a23d
000000e0: f6ab d03d e73c e2bb 3882 a5bc e1e3 2c3e
000000f0: 6ba1 1d3b 52d0 973d f8fe 4a3c b189 e9bd
00000100: 952f 953d d9c0 e9ba 2e0c 50bd c971 033e
00000110: d7b0 023e d650 f4bc 152e 263e 1ef0 0d3d
00000120: b2b7 663c 4c69 b63d c094 e2bc 233b a2bd
00000130: 8502 e4bb 10f9 dbbc b420 023e f849 393d
00000140: 9ab4 273d fc18 d4bd 719b b43c 8027 0abd
00000150: ffdd 753d 1c1f 29be f776 953d 69e4 b6bd
00000160: 5e9f 6ebd 636b 4fbe 81d4 c1bb 56f9 6cbd
00000170: 3ec3 cc3c 1711 a1bd 16a9 213b cbeb e2bd
00000180: 3c9f 1c3d b685 e1bc 0475 34bd c13e 123d
00000190: 239c 3f3d 4304 88bc ff26 13be 67dc 263b
000001a0: 65ac 823d 4b31 14be 6185 12bd 6221 2cbe
000001b0: dbda bf3d 7c2c b5bd 1473 673d 16dd 2a3d
000001c0: 4712 ebbc c1b7 963d e7de 6bbc 3ea5 ebbc
000001d0: 83dc fcbd 6b78 cc3d 03c7 bc3c 0864 30bd
000001e0: e92e 86bc 0688 c3bd c86a 9e3d c623 cc3c
000001f0: 905d b9bd ec17 bd3d ae10 4d3c 39ac b1bd
00000200: 0426 e3bc a3fc c53c ef99 123e 8f9b 04bd
00000210: 9ec6 903b 302c 693d 8944 b63c 60a4 073c
00000220: 6f9c 2a3d 9ce7 27bd d3a5 203d 2397 d7bc
00000230: c57f 40bd f4bf ad3c 999c 703d fe0c 84bd
00000240: c650 893d 2ae5 073d 65af a7bd 5aa1 f03d
00000250: 2ec5 aabd 2c71 543d 8a99 8bbd a3b8 a93d
00000260: 7244 253d 8758 fabd 4a29 db3d 8eba 6ebd
00000270: 72d8 fd3c 12cd cb3c 8939 ecbb 598c 443e
00000280: d0ac 09be 7157 dc3d fc06 a13d 71c5 3d3d
00000290: 608f cebc 41de 263e 0bd3 613d aea1 01bd
000002a0: b394 babc c5fa c5bc f2f8 003e f6f5 d93d
000002b0: 33dd 763c 23f2 943d f887 c9bd e5cf 063e
000002c0: 9e19 473a 40a7 1b3c 78bd bf3d 58a3 793d
000002d0: 18a2 163e c32f 06bc d338 d63d 8a61 283c
000002e0: b0db f5b9 165d 493b eda4 05bc 8c8f 23bd
000002f0: 051a 8ebb dab4 093d f1a3 613c 6757 b93d
00000300: 6708 ad3b 2ebd 123d 0c06 97bd a153 c53d
00000310: f40a 7fbd 3fa4 d83d 94b8 1fbe e004 263d
00000320: eb08 8cbd 8c5d 6ebd ae70 a7bd 0b74 033e
00000330: 2c2a 86bd 7fed 7ebc 24e0 2e3d 47d8 9d3c
00000340: 1d4f 623d 2a1f 26bd 700b 0c3e 59e4 0eba
00000350: 851a b53b 3a95 af3d 100c 17be 965c 123e
00000360: 9040 8f3d 8670 85bd 7a16 e9bd 7483 2bbc
00000370: 5883 80bc 6b31 07bd 3aeb 90bd d0ff 9f3d
00000380: 3dec 13bd 727c 32bd 2af0 8c3c ed6f 793d
00000390: c5b4 a7bd bc96 243d 96e3 133e 1bb8 c8bd
000003a0: 9ba0 5bbd 80c3 73bd 3153 e63c cb0c 16bc
000003b0: ba21 c43d 185f 3fbd 023f f63c 611b 88bd
000003c0: edec 7ebd c9b8 703d 626c 20bd 3541 edbc
000003d0: b935 ff3d 04f1 1d3c ebdf 70bc 0a22 e43d
000003e0: 3da2 3c3d 7421 a9bc bd76 a8bd 8409 8bbc
000003f0: 121d 803c 42ca df3c 19bf 003d fe5a fc3c
-0.15061657 0.09846523 0.0055011874 0.06904215 -0.07859091 -0.032231055 -0.11634772 -0.0650193
0.054640204 -0.07153787 0.14253122 -0.008651665 -0.047716696 -0.056137446 -0.008518435 0.11161802
-0.0009513117 -0.09887219 -0.028944274 -0.0639283 0.056469515 0.034858588 -0.059289064 0.058746744
-0.033478267 0.052777324 -0.028157871 0.020051781 0.014492033 -0.10774188 0.07821642 0.11489999
0.030335605 0.08080516 0.008039786 -0.051187314 -0.11114977 0.034311526 0.035046637 -0.06920646
0.02577595 -0.04999437 -0.18411842 0.16843213 0.02172542 0.047642257 -0.011715569 -0.15138756
0.07976615 0.11441372 -0.1618481 0.023347942 0.083712295 0.08522859 -0.08080958 0.079455696
0.10189049 -0.006904233 -0.020203695 0.16883804 0.0024052511 0.07412781 0.012389891 -0.11403216
0.07284466 -0.0017833962 -0.050792865 0.12836374 0.12762772 -0.029823702 0.16228516 0.03465282
0.014081882 0.089068025 -0.02765882 -0.07921436 -0.006958308 -0.02685216 0.12707788 0.045236558
0.04094372 -0.10356328 0.022046776 -0.033729076 0.060026165 -0.16515774 0.07298081 -0.089302845
-0.058257453 -0.20255809 -0.005915225 -0.057854973 0.024995442 -0.07864588 0.0024667433 -0.1108013
0.038237795 -0.027529579 -0.044056907 0.035704378 0.046779763 -0.016603595 -0.14370345 0.002546096
0.06380538 -0.14471929 -0.03577173 -0.1680961 0.09367915 -0.08846375 0.05650623 0.04171475
-0.028695239 0.07359267 -0.014396406 -0.028765317 -0.12346747 0.099839054 0.023044115 -0.043064147
-0.01637979 -0.09547429 0.07735211 0.024919402 -0.09051049 0.09233078 0.012516184 -0.08675427
-0.027728088 0.024168318 0.14316534 -0.032374915 0.0044182083 0.056926906 0.022249477 0.008278936
0.041653093 -0.040992364 0.039220642 -0.026317185 -0.04699685 0.021209694 0.058743093 -0.064477906
0.067048594 0.033177532 -0.08187751 0.11749525 -0.0833839 0.05186574 -0.068163946 0.0828717
0.040348478 -0.122239165 0.10701235 -0.05828338 0.030986998 0.024878059 -0.007209007 0.19194163
-0.13444829 0.107588656 0.0786266 0.046330873 -0.02521485 0.1629572 0.055132907 -0.03164833
-0.022775983 -0.024167428 0.12594965 0.106426165 0.015067386 0.072727464 -0.09840387 0.13165243
0.0007595065 0.009500325 0.0936231 0.060946792 0.14710271 -0.008190098 0.10460057 0.010277161
-0.0004689372 0.003072565 -0.008156997 -0.03993182 -0.004336598 0.03361974 0.013771997 0.09049874
0.0052805427 0.035824947 -0.073742 0.096350916 -0.062266305 0.105782025 -0.15597755 0.040531993
-0.068376385 -0.058194682 -0.08175789 0.12837236 -0.065510124 -0.015559553 0.042694226 0.019268168
0.05525123 -0.040557064 0.13676238 -0.00054508966 0.005526843 0.085733846 -0.14750695 0.14293131
0.06994736 -0.06515603 -0.1138124 -0.010468353 -0.01568763 -0.033006113 -0.07076116 0.07812464
-0.036113966 -0.04357571 0.017204363 0.060897756 -0.08188776 0.040182814 0.14442286 -0.0980074
-0.053619962 -0.059512615 0.02811584 -0.0091583235 0.09576745 -0.046721548 0.030059341 -0.06645847
-0.06223767 0.058769975 -0.039165862 -0.028961757 0.12461419 0.009639982 -0.014701824 0.11139305
0.04605316 -0.020645835 -0.082257725 -0.01697231 0.015638862 0.027318124 0.031432245 0.030805107

_module.fc1.bias f4 [120]
00000000: b78e 92bc 62be aeba bf81 b9bd 6538 453d
00000010: 8e76 32bd 2b16 cbbd 2512 b1bd 2acf debd
00000020: c9e6 033d ead0 0dbd 36d6 fb3c e511 243d
00000030: 87f8 413d 883b fbbc c475 a1bc 78bd 17bd
00000040: 31dc e33d 117f abbb 455e 003e f3b4 a9bd
00000050: 788f 13bd ba86 d4bc c07d 65bd 6b96 70bd
00000060: 569e f4bd b795 f83d e9f9 d03c b6da 7c3c
00000070: 1a37 8a3d a4a3 ae3d 16ab e43d 8eac f0bc
00000080: 68d1 90bd d0ab e5bc 0827 9f3c 0e5f 04bc
00000090: 1f97 53bd c00a b13d 5cdd 26be d178 233d
000000a0: 3ab0 a63c 0493 093e 475e fb3d 5ae9 263d
000000b0: 0031 47bd 081e dfbc 11b2 8cbd 02ef 3dbc
000000c0: 4037 15bd bb9c 7f3d 1bcd 21bc d4f3 793b
000000d0: df25 d4bb f396 6c3d c70c b83d 7e31 013e
000000e0: df2f 4b3d 17b6 7a3c 0550 403d 0344 383d
000000f0: 1734 243e 10c1 8dbd 7595 993b 80ed b63c
00000100: a442 863b 64fc 3dbd 1f0e dcbc 7270 8e3d
00000110: 6ebc 3c3e 0274 613d c281 70bd a0e2 07be
00000120: 294a 7cbd 2c16 a5bd 1fc8 61be 157f a3bb
00000130: 5c78 353d d49f 94bd a8cf 3cbd 344b bc3c
00000140: e86e c8bc 1ec3 c2ba a72c 553d d682 943d
00000150: 33fa 123e 8a84 78bc 3260 d03c c95b 063e
00000160: 774b c63d dfce b6bc a04e 4b3c 5067 c63c
00000170: 7246 1abe f579 c03c 4c8e 043d 5cec d9bc
00000180: d124 8bbd 0406 473d 07f7 0bbe 5dd9 d73c
00000190: d524 dfbc 5b44 993d 0067 ce3b 427f 793d
000001a0: 372b 9d3c 74fc edbb 839a 81bd d355 89bd
000001b0: 6e36 84bd a674 bb3d d25a 8bbc 6241 72bd
000001c0: e702 debc 98b5 e3bd 6687 d5bc 8d23 6fbc
000001d0: 8daf 8e3a 978b dcbc cdba 5e3c be73 09bd
-0.017890317 -0.0013331885 -0.0905795 0.048149485 -0.043570094 -0.099163376 -0.08646039 -0.10879357
0.032202516 -0.034623064 0.030741792 0.040056128 0.047356155 -0.030668035 -0.019709475 -0.037045926
0.111259826 -0.0052336534 0.12535961 -0.082864664 -0.036025494 -0.025943149 -0.056028128 -0.0587372
-0.11944263 0.12137931 0.025509791 0.015433004 0.06748791 0.08527306 0.111654446 -0.029379155
-0.07071191 -0.028036028 0.019427791 -0.008079303 -0.051657792 0.086446285 -0.1629538 0.03991014
0.020347703 0.13434988 0.12273841 0.040749885 -0.048630714 -0.027236 -0.06869901 -0.011592628
-0.036429644 0.06240533 -0.009875561 0.0038139718 -0.006474241 0.057761144 0.08986812 0.12616536
0.0496062 0.015302203 0.046951313 0.044986736 0.16035496 -0.069215894 0.004687006 0.022330046
0.0040972997 -0.046383277 -0.026862202 0.06955041 0.18431255 0.055042274 -0.058717497 -0.13270044
-0.061594162 -0.080608696 -0.22048996 -0.0049895146 0.044304237 -0.07257047 -0.046096474 0.022985078
-0.024466947 -0.0014859175 0.052044537 0.072515175 0.14353256 -0.0151683185 0.025436494 0.13120951
0.096823625 -0.02231544 0.012408882 0.024219185 -0.15065935 0.023495654 0.032362267 -0.026601963
-0.067941315 0.04858972 -0.13668452 0.026348764 -0.027239243 0.07483741 0.0062988997 0.060912378
0.019185646 -0.007262761 -0.06328299 -0.06705823 -0.06455694 0.09153108 -0.01701108 -0.059144385
-0.027100993 -0.11118621 -0.02606554 -0.014595878 0.0010886058 -0.02692203 0.013594341 -0.033557646

_module.fc2.weight f4 [84, 120]
00000000: 3760 20bd c12d 6fbd 7bea 27bd 313d 623e
00000010: b93e 823d 396a 26bd ef33 78bd bdce d03d
00000020: 515c fc3d 062d ecbd 0a96 333c f6c0 293d
00000030: a496 54bd 6441 f4bd 3bd2 213e 5d36 e83c
00000040: 9e92 7d39 88a9 85bd a5f2 abbc 2db0 c73c
00000050: 1a89 a03d d710 3fbd b972 1e3e e3d6 6abd
00000060: b2e1 5c3e a014 a6bd 4b66 a8bc 6505 8fbd
00000070: e6e0 00be 83ce e4bd d071 403e 4f65 103e
00000080: 5caa 48bc 7a62 fb3c fd7e 053d 104f acbd
00000090: ae90 6dbd 5164 273e b8cb b9bd 9c89 113e
000000a0: c04a b0bd 90f4 1fbe d3ff 103d 75e5 71bd
000000b0: b27f 13ba d5a2 033d 8516 c9bd aaf6 453d
000000c0: ccc9 ec3d a940 1d3d 4a76 1dbc d49c 2fbd
000000d0: 04d2 fdbd 9270 20be 86c9 61bd 2639 d63b
000000e0: d6e4 0cbc f6dc 5c3d 2061 a03d 3743 df3d
000000f0: aba5 9c3d b27a 23be b28d dc3d 93f9 c9bd
00000100: e2be a53c 38f8 f63d 256d 39bc 3716 613d
00000110: 5888 713d 7e1e 6c3d 45e9 a33b 2ca4 113c
00000120: 754c 00be 7456 79bd 33e8 a93d 9948 3ebd
00000130: fc4b 1bbd 87d9 2fbe 3340 d23b 6910 f63c
00000140: c684 2f3d 9302 73bd 962e db3d c9f2 ae3d
00000150: 04ba 6e3c 906e aabd b04b e13c bc1d 3f3d
00000160: abdf 34be f823 d5bc 71d0 d13d 0bfb 36be
00000170: 7b64 403e c486 aabd 67cb f4ba ce4c ee3d
00000180: d2db aebc b25e 12be 8a83 2d3d 314b 21be
00000190: 1573 12be d52f 09bd 57c1 28be 2fa4 93bd
000001a0: 0520 05bb b62c d73d ed99 993d e39a ccbd
000001b0: 4283 25bd 4461 edbd 02aa 42be a809 37be
000001c0: b624 5e3d c37b a9bb 2029 05be e9d8 15be
000001d0: 96c5 2abe 23ab debd fe2d d03d 04a9 983c
000001e0: 85fc db3a 81ec a13b 0a2a d2bd 6a52 cbbc
000001f0: 8773 d3bd 301f 17be 2d8e 223e bcc0 d13a
00000200: 368c 283d f3d8 26bc a140 14be a42d 87be
00000210: 897f 5dbe 761b 0f3c 4b24 21bb 9683 25bd
00000220: d33f ccbd 1c75 24be 86d0 d23d 254d f13d
00000230: e2bd 123d 3606 d03d 50c1 38be c5b1 e13c
00000240: 4b66 ecbd 0993 143e c607 673d f02e 47bd
00000250: 822f 2e3e c925 c6bd ad3d 533c cbc1 53be
00000260: b347 c3bc 088e 403b 0d23 233e d3b0 f2bc
00000270: ca8c b3bd 614f ee3c 3002 ad3d 85eb babd
00000280: cef4 0cbe d253 383d 07f7 293d 1229 c43c
00000290: de94 9b3d b207 f53b 66a0 e2bc 1b44 9bbd
000002a0: a22c b33d ab54 d83d e82f 823d 5d8a 0e3e
000002b0: 99de c53c ca63 da3c c8b6 67bd 2533 903d
000002c0: a056 033e e065 dd3d cd9d d1bd a7e6 bebd
000002d0: b101 823e 0fd5 c93c d97d c3bd 8e3c 1c3e
000002e0: 9ba8 353d cb1e 0c3d ac11 20be e676 d9bd
000002f0: df47 de3d f3d5 9abb 67a0 cdbc 7fcf 51be
00000300: b912 663e 3471 58be 50eb 003d 0c38 fcbc
00000310: cc35 693e fa32 e83d 6ab7 e73d e284 763c
00000320: 4e9b 41ba 0b56 393e 06f0 08be 266e 713d
00000330: 52d6 053d 19dd a9bd 0b92 0e3e b432 dcba
00000340: e976 0d3e ea26 1dbe f387 90bd cde3 a1bd
00000350: 203a b9bb 1d32 663e e1c1 acbd 08ca 083c
00000360: d19a 703c a720 85bd 437c cb3c 6ea9 0dbd
00000370: 403c 56be 1f8f afbd 6e81 ffbd d0b7 923d
00000380: b06c f1bd 9706 27bd bbd3 29bc 3ecd a83c
00000390: 2f76 093d ec18 be3d dd0b a1bd c503 ce3d
000003a0: f009 0fbc 8e14 b4bd abb1 43be 6785 f23d
000003b0: 4463 d8bc f917 923c 6839 4bbd 0841 b1bd
000003c0: ea5b d53d 402b 36bd 8ac1 30be 4ae5 c1bc
000003d0: 942e 12be 8e09 133e bd31 483d 1c9e a7bc
000003e0: 4f8e cabd 0fcb 17bc 2807 87bd 1a22 7d3c
000003f0: 4b7f b2bc 7c1a 2e3e 5416 433d 7d6d 933d
-0.039154258 -0.058393244 -0.040995102 0.22093655 0.0635962 -0.040628646 -0.060596403 0.10195682
0.123222955 -0.11532025 0.010961065 0.041443788 -0.051901475 -0.11926535 0.15802853 0.028346235
0.0002418258 -0.06526476 -0.020989725 0.024376 0.0783865 -0.04664692 0.1547345 -0.05733384
0.21570471 -0.08109403 -0.02055659 -0.06983451 -0.12585792 -0.111722015 0.18793416 0.14101146
-0.012247648 0.030686606 0.03259181 -0.084135175 -0.057999305 0.16346861 -0.090720594 0.1421265
-0.086080074 -0.15620637 0.035400223 -0.059056718 -0.0005626633 0.03213771 -0.098187484 0.04833094
0.11561927 0.038391743 -0.009610722 -0.042874172 -0.12393573 -0.15667942 -0.05512383 0.0065375743
-0.008599481 0.053921662 0.07831025 0.10901492 0.07648786 -0.15964773 0.10769214 -0.09862056
0.020232622 0.12059063 -0.011317526 0.054952826 0.05896792 0.057646267 0.005002173 0.008889239
-0.12529166 -0.060873464 0.082962416 -0.046455953 -0.03791426 -0.17172824 0.0064163445 0.030037122
0.042851232 -0.059328627 0.10702245 0.08542401 0.014570717 -0.083218694 0.02750191 0.046659216
-0.17663448 -0.026018128 0.10244835 -0.17869203 0.1878833 -0.08326486 -0.0018676341 0.11635743
-0.021345053 -0.14293936 0.042361774 -0.1575134 -0.14301713 -0.03349288 -0.16480003 -0.0720905
-0.0020313275 0.10506575 0.07500062 -0.0999048 -0.04040838 -0.115908176 -0.19010165 -0.17874777
0.05423423 -0.0051722242 -0.13003969 -0.14633526 -0.16676936 -0.108724855 0.10165022 0.01863528
0.0016783631 0.0049415235 -0.102619246 -0.024819572 -0.103247695 -0.14757991 0.15874548 0.0016002874
0.04114934 -0.010183561 -0.14477779 -0.2640201 -0.21630682 0.008734575 -0.0024588283 -0.040408693
-0.09973111 -0.16060299 0.10293679 0.11782292 0.035825618 0.10157435 -0.18042493 0.027550587
-0.11542948 0.14509214 0.056403898 -0.048628747 0.1701031 -0.09675176 0.012893123 -0.20679395
-0.0238379 0.0029381532 0.1593134 -0.029625332 -0.08767088 0.029090585 0.08447683 -0.09126953
-0.1376526 0.045001812 0.04149535 0.023945365 0.075967535 0.007477724 -0.027664375 -0.075813495
0.087487474 0.10563024 0.06356794 0.13919969 0.024153994 0.026658911 -0.0565708 0.07041005
0.12826014 0.10810447 -0.10235176 -0.09321337 0.25391915 0.024637727 -0.09545488 0.15257475
0.044350248 0.034209054 -0.15631741 -0.10618381 0.10853552 -0.0047252118 -0.0251009 -0.2048931
0.2246808 -0.21136934 0.03147441 -0.030788444 0.22774428 0.11337848 0.1131428 0.01504633
-0.0007385508 0.18099229 -0.13372812 0.058942936 0.032675095 -0.08294124 0.13922898 -0.0016799779
0.13814892 -0.15346876 -0.0705718 -0.07904778 -0.005652681 0.22480054 -0.08435417 0.008348949
0.014685349 -0.065003686 0.024839526 -0.03458541 -0.20921421 -0.0857222 -0.12475859 0.07163966
-0.117883086 -0.04077777 -0.010365422 0.02060568 0.033559974 0.09282097 -0.07863591 0.10059313
-0.008730397 -0.08792983 -0.19110744 0.11841851 -0.026414521 0.017833697 -0.049615294 -0.08654982
0.10417922 -0.04447484 -0.1726133 -0.023668904 -0.1427558 0.14359114 0.04887556 -0.020461135
-0.098904245 -0.009264722 -0.06593162 0.015450025 -0.021789214 0.1700229 0.047628716 0.071986176

_module.fc2.bias f4 [84]
00000000: c7d0 dbbd 7488 3f3d d50f ee3d b4ee a63d
00000010: 6753 a8bc c1cf 8b3d a870 ae3d 6b16 8b3d
00000020: d452 f53d 0109 f4bc a3bb cd3d 422d c0bc
00000030: 224a 233e 687a e8bb c9ff 0f3e 9fa3 343d
00000040: fab0 b1bd 17fd 073d 91de 973d bfaa 073e
00000050: 553c 433d f336 bcbb 55dc af3d 1324 473e
00000060: 0657 e5bc d975 0b3e 8b04 d8bd ed87 67bd
00000070: f98d 0bbe 3830 54bd 204f abbd c46a eb3d
00000080: c236 533e 6004 11bd 9998 5bbd 2f2e ad3d
00000090: 90fa 433e eadf 993d 5b97 33ba 177d 9ebc
000000a0: e2a2 373d 2321 123d 422f 47bd a3a8 db3c
000000b0: dc02 363c a907 2cbe 0dfc 50bd be03 013e
000000c0: 4925 ef3a a028 e73d c5c8 01bd a67a d7bd
000000d0: 31b2 153d bee3 373d f290 80bd 4910 e3bc
000000e0: 05a1 acbd 0ee6 483d facd 89bd ac38 2ebc
000000f0: db31 a23c 64dd 24bd a184 443e 670d 35be
00000100: dc4c bdbd e261 b43b 68a4 b6bd 0305 c3bc
00000110: c2ab 04bd 5aef 363d b3c6 483d a41c 193c
00000120: 8eff 21bd 3780 abbc 9f09 b63b 2ead e13d
00000130: efc4 4b3d 88c3 febc cc5b e7bd e931 a3bc
00000140: 31cf 8bbc 701d b83d f0bd e63d fe9b 883b
-0.107331805 0.04676099 0.116241135 0.08150998 -0.020547582 0.06826735 0.08517581 0.06791385
0.11978689 -0.02978945 0.100455545 -0.02345908 0.15946248 -0.00709467 0.14062418 0.044101354
-0.08676334 0.03320035 0.07415498 0.13248728 0.04766496 -0.005743855 0.08586947 0.19447355
-0.027995598 0.13619174 -0.105477415 -0.056526113 -0.13628377 -0.051803797 -0.08364701 0.11494973
0.20626357 -0.035404563 -0.053612325 0.084560744 0.19138551 0.07513411 -0.0006850862 -0.019346757
0.04483307 0.035676133 -0.048629053 0.02681381 0.01110908 -0.16799797 -0.051021624 0.12599084
0.0018245365 0.112870455 -0.03168561 -0.1052144 0.03654689 0.044894926 -0.06277646 -0.027717726
-0.084291495 0.049047522 -0.0672874 -0.010633629 0.019799164 -0.040250197 0.19191219 -0.17680894
-0.092431754 0.0055048326 -0.08918077 -0.0238061 -0.032390364 0.044661857 0.04901762 0.009345207
-0.039550357 -0.020935161 0.005555346 0.110193595 0.049748357 -0.031099096 -0.11296806 -0.01992126
-0.01706657 0.0898999 0.112666965 0.0041689863

_module.fc3.weight f4 [10, 84]
00000000: 1ac4 81bb 735e b93c 4ad7 42bd a309 73bd
00000010: 3883 083d a114 78be aa84 f23d 0ba2 0fbe
00000020: 8ebb 013e b615 b03d 6692 c1bd cae2 323e
00000030: f9e9 2bbe 11a4 d0bd e1d6 bdbd 0244 09be
00000040: 8065 fc3d 6eec cebd f6d0 8939 369f 453e
00000050: c4c6 64be ba2c 0fbc 6d47 403e 5b6f bdbe
00000060: 3631 7f3d 07dc d13c 419e f13b e3f8 973e
00000070: 950b 57bd 098f f6bd 982f 53bd 1f0a e43d
00000080: dce8 383e c5b0 fcbd 325c 78bd ce53 66bc
00000090: 750f dc3d fb01 e93c 513c b23d f7d3 d4bd
000000a0: b9fc 03be 92ea 423e 8759 b4bd b27c 3e3e
000000b0: 9d4d 28bd 4134 f13c d187 ad3d a6de d3bd
000000c0: 31f8 fa3b 423e 44be 477b 53bd 177f 0d3d
000000d0: c828 ce3d 4f8d cabd ab8d 873c 83fa 903d
000000e0: fa10 c6bd e9bc 65bb b931 6bbe f8a3 de3c
000000f0: c6a7 033e a056 7fbc 3ba6 2cbe 7d63 babc
00000100: ba48 0e3e 9f2b 11be 5840 383c 084f 883d
00000110: 2df6 12be 01c3 1f3d d020 603d 6947 493d
00000120: 57e4 0a3d a06e a7bd 7ac6 9cbe ac2c 5cbe
00000130: c91f 0c3e 8975 87bd 9b6e c23d 0260 19be
00000140: 83ec b43d a615 19bc fd41 cdbd 943c f1bc
00000150: 2b80 693b 420c 8ebe 5619 613d b6c2 af3d
00000160: ee71 243e a00f 9ebd bebb 32bd 0227 8a3d
00000170: ec53 fcbc ed22 0ebe 9b27 d23c 85d2 243e
00000180: ce04 973e 7751 003e 00b4 c4bc 00be 0fbd
00000190: 4339 f43d dc28 05bd fb39 5d3e fdeb d43c
000001a0: d001 83bd 3dfa ac3d fa68 19be 3f10 d6bd
000001b0: 0e9d df3d 28a6 d33c c112 24be 241a 33bd
000001c0: 8f3b 613e 21f6 5f3e 8bdc 97bc 3242 ecbd
000001d0: 073b c9bc 4c80 b63d 4e76 05be 5a65 15bd
000001e0: 1f5f debd 067d 52be 06f2 f9bd 5e7c 663b
000001f0: 4ffc d7bd 0c56 8d3d ac2c f23d bf11 953c
00000200: 45b9 3b3d d36c 18be 7a25 583d 2d88 083d
00000210: 0089 563d edab 4d3e d12f 20bd ea75 b3bd
00000220: 56e4 9c3d 5cdf 32be 779b dabd e324 c73c
00000230: eec7 a43d 2a48 573e d4e7 ebbd f57a eb3d
00000240: a82e 70be c6f0 30bb 53a6 86bc 7131 70be
00000250: 0c05 68bd 0e21 47bd eacb 96bd b45d e63c
00000260: fdc5 e5bd 35f9 1dbd e911 00be c4fc 1f3e
00000270: b99f 86bc 35e0 4ebc 4656 8d3e 89ca 2b3e
00000280: ae0e 03bd 6169 0f3d 12ea 633d 9df5 1f3e
00000290: 4d46 13bd 506a 2b3e 65cd 8fbd c109 0d3e
000002a0: fe67 aebd 9a27 34be 23c2 663e 04d1 953b
000002b0: 8ad0 0a3c 7a45 aebd f4e6 48bc 1c54 e13d
000002c0: bf44 703e 83b1 24bb f3d2 08be f5ea 183d
000002d0: d6ec 54bb 4b9d febc c542 0dbe c8ed 713d
000002e0: 9f10 b8bd 35d1 00be 78b5 7c3e 9f2a 323e
000002f0: 89a0 473e 5bac 93bc b057 26bd a9a9 74bd
00000300: 9778 09bd d7b1 58be 3116 1d3d ce37 debb
00000310: f7b5 edbc 582a 87bb 58b9 6b3d fdec 4abd
00000320: f6e2 b33d 5fbb e13d 00f8 943e 8ad2 093e
00000330: 660e 2c3d 3e03 f33d 8a78 e5bd 4523 af3e
00000340: 4c21 303e e717 1d3e 5220 15be 05ac 8f3d
00000350: e2ca f2bc b52f 4dbe 41f0 dbbd 6fad 5fbe
00000360: 30d3 15bd d3f8 d43d aa2f 053c ed07 f5bd
00000370: 432b d63b c526 c4bd d915 a6bc aaac 54ba
00000380: 2e8c 823d 29af 663c 2ee8 8e3d e962 eebd
00000390: 3d56 d2bc 9947 a03d dfdc 1eba 6d25 5bbe
000003a0: 03e6 e5bd b9ac 333e 8e74 df3c 01bd 2c3e
000003b0: 94fd 953d ac6c ca3d dd21 5dbd 05cb 1bbd
000003c0: 7fbd 21bd af5d dcbd 72d3 18be 6d77 13bd
000003d0: 04e7 d9bc a4b4 8bbc 1324 993d 67db 60be
000003e0: 37a2 3abe 22fb adbc e216 8f3e 0f5f c33d
000003f0: 4fa6 133e c92c 7cbe eef9 1dbe 5aa6 353e
-0.0039601447 0.022628045 -0.047568597 -0.059335362 0.033328265 -0.2422662 0.1184171 -0.14026658
0.12669203 0.08597891 -0.094517514 0.17469326 -0.16788472 -0.10187543 -0.092695005 -0.13404849
0.12324047 -0.10103689 0.00026286364 0.19299015 -0.22341448 -0.008738691 0.18777247 -0.3699902
0.06230279 0.025617613 0.0073736017 0.29682073 -0.05250128 -0.120390005 -0.05155906 0.11134743
0.18057579 -0.123384036 -0.0606348 -0.0140580665 0.10745136 0.028443327 0.08702911 -0.103919916
-0.12889375 0.19034794 -0.088061385 0.18602255 -0.041089643 0.029443862 0.084731705 -0.10345201
0.0076589813 -0.19164374 -0.05163124 0.03454503 0.10066372 -0.09890234 0.016547045 0.07079031
-0.09671207 -0.0035055226 -0.22968186 0.027177796 0.12856969 -0.015584618 -0.16860287 -0.022752518
0.1389493 -0.14176796 0.0112458095 0.06655699 -0.14351721 0.03900433 0.054718792 0.049140368
0.033909168 -0.08175397 -0.30620176 -0.21501416 0.13684 -0.06614215 0.094937526 -0.1497803
0.088341735 -0.00934354 -0.10022352 -0.029447831 0.0035629373 -0.27743727 0.054955803 0.0858206
0.16059086 -0.07717824 -0.043636076 0.067457214 -0.030801736 -0.1388051 0.025653651 0.16095932
0.29495853 0.12531076 -0.024011612 -0.035093307 0.11924984 -0.03250967 0.21604149 0.025991434
-0.0639683 0.08446167 -0.14981452 -0.104523174 0.10918628 0.025836065 -0.16022779 -0.0437261
0.21995376 0.21871234 -0.01853778 -0.11536063 -0.02456428 0.089111894 -0.13033411 -0.03647361
-0.10857987 -0.20555505 -0.122043654 0.0035169343 -0.10546171 0.06901178 0.11824927 0.018196939
0.045830984 -0.14885263 0.052770115 0.033332992 0.052376747 0.20085116 -0.0391081 -0.08762725
0.07660739 -0.17468017 -0.10674184 0.024309581 0.08045946 0.21023622 -0.11518827 0.114980616
-0.23455298 -0.002699898 -0.016436731 -0.2345636 -0.056645438 -0.048615508 -0.07363112 0.028120853
-0.11219404 -0.03856774 -0.12506832 0.15623766 -0.016433584 -0.012626697 0.27604884 0.1677648
-0.03199642 0.035012607 0.05564315 0.15621038 -0.035955716 0.16739774 -0.07021598 0.13773252
-0.08515929 -0.17593232 0.22534995 0.0045720357 0.008472571 -0.08509345 -0.012262095 0.11002371
0.23463725 -0.002513022 -0.1336172 0.037333447 -0.0032489798 -0.031080863 -0.13795002 0.059064656
-0.08987545 -0.12579806 0.246786 0.17399071 0.19494833 -0.018026521 -0.04061097 -0.059732113
-0.03356227 -0.2116159 0.03835124 -0.006781555 -0.029017432 -0.004124921 0.057549804 -0.049542416
0.08783524 0.11022066 0.2909546 0.1345922 0.04200592 0.11865853 -0.112046316 0.34206596
0.17200202 0.1534115 -0.1456311 0.07015232 -0.029637758 -0.2003773 -0.10739184 -0.21843503
-0.036578357 0.10399022 0.00812904 -0.11964402 0.006535919 -0.09577707 -0.02027409 -0.0008112887
0.063743934 0.014079847 0.069778785 -0.11639959 -0.025675887 0.07826156 -0.0006060134 -0.21400996
-0.11225512 0.17546357 0.027277257 0.16868974 0.07323757 0.09884009 -0.053987373 -0.03803541
-0.03948736 -0.10760056 -0.1492441 -0.036002565 -0.026599415 -0.01705391 0.07477584 -0.21958695
-0.18225943 -0.021237914 0.27947146 0.09539615 0.1441891 -0.24626459 -0.15427372 0.1773924

_module.fc3.bias f4 [10]
00000000: edd9 eebc 9142 5b3d 2056 5dbd 0562 28bd
00000010: ab89 4c3c 70b0 37bd 9301 85be 036b 3dbd
00000020: c730 153d 4c29 b9bd
-0.02915665 0.05353028 -0.054037213 -0.041109104 0.0124839945 -0.044846 -0.25977764 -0.046244632
0.03642347 -0.0904108
