dp_lenet_code/dp_lenet_plots/lenet_noise_0.75_gradnorm_1.1.pt (torch, 251052 bytes, 10 tensors)

_module.conv1.weight f4 [6, 1, 5, 5]
00000000: 5adf c03e 86c5 9b3e 6c72 283e d404 a43e
00000010: 35a1 0e3d e737 003f f95d 6b3e 2b51 0c3f
00000020: b1c2 0e3f 7bcc d83d dc10 e63e cc3c 123f
00000030: d5e5 183f 5136 b73e 6ec5 ad3e f525 733e
00000040: 1b47 273f 833f c93e 689d e13c e2b9 793e
00000050: 716d 92be aca8 103d 2d1a 29bd 5f56 513e
00000060: c8ef 34be b8e0 e33d 7cde 7cbe 529e 3f3e
00000070: d43f da3d 9c78 21be 80c3 d83d f4a2 91be
00000080: 50bd 753e 424d db3d 344a af3d 809c 053e
00000090: b472 373c 25f7 1d3f 39ad d33e 63aa e03c
000000a0: b896 523e 700b 883e c566 073f 2b40 143f
000000b0: 2a11 d33e 433b 113e 6fd5 773e cc22 203e
000000c0: 9d51 4c3e e6b9 ffbc beac 30be 61b1 6b3d
000000d0: 83f2 883d 779d bc3e 659b 003e fc9d f63d
000000e0: 6f1c 573e bf89 3b3e 4aaa 353e e720 7dbe
000000f0: b064 a83d 83e6 233e f620 333e c3fa e93b
00000100: 9d53 fabd e348 bf3d 6436 f23e 8681 81bc
00000110: e67c 06be 6fe9 a3be 06a1 c53e 1bf9 5f3e
00000120: 9e87 a03e 3bca 8cbe cf99 98be 805c 38be
00000130: 767d 96be 3c8b 433e 694d 743d 7f0f 163e
00000140: dc03 38be 94a1 e53d 8382 593e ef36 613d
00000150: b889 5b3e 041c 9cbc d2d8 8b3e 78f1 783d
00000160: 2c51 d3bd 8398 653c a3d7 013e 4ce8 11be
00000170: b699 383e 55d9 b23d 68f8 ca3d efd6 84be
00000180: bdce 2b3e d270 a43d 9bb4 8bbe 3cbb 73be
00000190: 5eba c8be 305c 1b3d 1cab a3bd 9299 19be
000001a0: 983a 98bd 693c b0bd 0465 69be 6570 bebe
000001b0: f922 9dbd ea09 94be e8f5 db3c 6fca 52bc
000001c0: 7c78 263c b771 c0bc 9acc 97be bd2b b23c
000001d0: 730e 86bc 5e4a d8bd 4fd2 02be 605f 3abd
000001e0: 6104 51bd 303b 95bd 69a6 c3bd aa01 36be
000001f0: 14f9 40be 633d f73d 7201 6e3d ceda d7bc
00000200: dee5 ad3e 95dd 693c 362a 0dbe cdba 29ba
00000210: 6c73 8ebc 18ea 8e3d d00a dabd 7f63 56bd
00000220: cc61 5dbe 5816 8fbe 0654 d43d 3d1c ebba
00000230: 6c88 593e ef43 88bd 712d 01bd 983d 30be
00000240: 38bb b93d 0f5a 87bd 4d79 f43d 66d9 773e
00000250: 91f7 c83e deb3 9f3b
0.37670404 0.30424136 0.16449898 0.32034934 0.034821708 0.500853 0.22985066 0.5481135
0.55765826 0.105858766 0.44934738 0.5712402 0.59725696 0.35783628 0.3393969 0.23744948
0.65342873 0.39306268 0.027540877 0.24387315 -0.28599122 0.035317108 -0.04128473 0.20443104
-0.17669594 0.11126846 -0.24694246 0.18712738 0.106567055 -0.15768665 0.10584164 -0.28444636
0.23997998 0.10708095 0.08559075 0.13047981 0.011196781 0.6170524 0.41343096 0.027424997
0.20565307 0.26571226 0.5289119 0.5791041 0.41224033 0.14182763 0.24202512 0.15638274
0.19953008 -0.031216573 -0.17253396 0.05754221 0.066868804 0.36838886 0.12559278 0.12041852
0.2100694 0.18314265 0.17740741 -0.24719582 0.082223296 0.16005902 0.17493042 0.007140489
-0.12222979 0.09340074 0.47307122 -0.015808832 -0.13133582 -0.32014033 0.38599414 0.2187237
0.31353468 -0.2749804 -0.29804847 -0.18004036 -0.29392594 0.19096082 0.059644137 0.14654349
-0.17970222 0.11212459 0.21241193 0.05498403 0.21439254 -0.019056328 0.27313858 0.060777158
-0.10318217 0.014013412 0.12679915 -0.1424877 0.18027386 0.08732859 0.09910661 -0.2594523
0.16778083 0.08029331 -0.2728623 -0.23801893 -0.39204687 0.037929714 -0.07991621 -0.14999989
-0.07433051 -0.08605272 -0.2279244 -0.37195125 -0.07672686 -0.28913814 0.026850656 -0.012865647
0.010160562 -0.023491723 -0.29648286 0.021749372 -0.016364312 -0.105610594 -0.12775539 -0.045501113
-0.051029567 -0.0728668 -0.095532246 -0.17774072 -0.18845016 0.120722555 0.058106847 -0.026349451
0.33964437 0.014274021 -0.13785633 -0.0006474674 -0.017389022 0.069782436 -0.106465936 -0.05234098
-0.21619338 -0.27946734 0.10367589 -0.0017937493 0.21243447 -0.06653582 -0.031537477 -0.17210996
0.09068912 -0.06608974 0.11937199 0.24204025 0.39251378 0.0048737368

_module.conv1.bias f4 [6]
00000000: 0088 2e3e 3a5d 50bd 970e 823c e141 32be
00000010: e420 1e3e 84df b4be
0.17044067 -0.050870158 0.015876098 -0.17407943 0.15442234 -0.3532678

_module.conv2.weight f4 [16, 6, 5, 5]
00000000: add8 c43d 3437 303c 114d 5f3e e004 4fbd
00000010: 3f5d 0b3e ae7e af3d 18ad 043b 4e4d 27bd
00000020: 145b 3e3e 7b20 23be a544 9abc 53d6 f53d
00000030: 53c7 813e 6e8f 15be 404f 92bd 6dc0 38bd
00000040: 2e9a 023e b417 e63d 05bb a6bd d366 a93d
00000050: d43c 6bbd 6539 543e f773 52bd 346f bdbd
00000060: 5dc3 8dbe b1b6 1d3e 2845 813c 13ec 7ebc
00000070: 7206 b23d f223 253e 2519 abbd bf5a bcbd
00000080: b7f3 613d e5d7 193e b001 edbd 459f 1fbe
00000090: a12e a63d b4f5 0c3c c91b f8bd d433 26be
000000a0: e68a 153e ae0d e9bd 3d49 583c bd96 18bc
000000b0: 56e6 20be 05ea f0bc 1371 8d3e c576 363c
000000c0: 39b7 02be 8e87 9cbd 5dee 36be f924 18be
000000d0: 9beb b1bc 1acd e9bd 1abf 433e d9fb fd3c
000000e0: 9f3f aabd c0ef 1f3d cd80 753d c517 c23d
000000f0: 9e9a d9bc 3766 c23d 7857 353d eaa2 0f3e
00000100: bc1d 0cbe 2960 6a3e 73c4 5f3e a5fc 6b3e
00000110: 35d1 8cbd f251 d5bd a9c1 953d be5b 683d
00000120: f3b8 1e3d b497 ccbc 9d1a 273b 9c85 bfbc
00000130: f27a 213e 6657 033e 955a 263e b3ca 0dbe
00000140: 82e2 66bc cefe 12bd 7eb2 07be b5d1 643d
00000150: 5ed8 fabc 174f 8ebd 1e7f 9c3d f997 eebd
00000160: 20a5 533a 01df abbd ff56 1cbe 8b79 4ebd
00000170: bf2c 96bd be5a 4fbe 3b26 08be d33f 913d
00000180: 1b06 6fbd c452 03be c60f 5bbe 7ada 983d
00000190: 4a8b 223d ea54 3b3e 29a5 143e 4d9b f8bb
000001a0: d633 38bc 0a10 2a3e 7c1a d93d 02cd 48bc
000001b0: c7cc 2d3e 31ba 163d 68e3 ccbd faf4 b2bd
000001c0: df25 34be 7970 923d 3293 5c3d f5f9 d9bd
000001d0: 79d3 e4bc dcd9 fa3d 6476 983e 8f3f aebd
000001e0: 149c 23be cf86 573b 8286 013e da49 07be
000001f0: bcce 86bd 345c 9dbd 6d2c 0c3e f97c 12bc
00000200: 5748 11be bbe5 febd 8738 b2b9 920a 513e
00000210: 8a5c b03d 8392 0bbe 2d8a b5bb b213 13bd
00000220: a61e 793d 6b6f 89be ae81 abbc c83a 86bd
00000230: dc24 cdbc 3e22 2f3c 2bdc 67be 5843 d5bc
00000240: b2c0 33be 4e5e 993c ed66 d23d 5f0c e5bd
00000250: ce08 993c a563 d23d 976b d43b 44e4 4e3d
00000260: 3231 85bd 00dc 0dbd 8be1 183e 679a 7a3d
00000270: f0ce 5cbd 48a3 b13e 502e 453e 8f88 eb3d
00000280: 0957 d2bd 6ea0 a33d e143 b83c 112a a1bc
00000290: c96c b83d f031 0ebd 837d 5c3d bce8 093e
000002a0: d608 0f3d e239 0bbe dc2b edbd c8f4 29bd
000002b0: 25d2 e4bd 5aeb 293e 01ac 87bd 9f85 efbd
000002c0: 2cda 2bbd 7833 10be 44c4 563e 3e38 1c3e
000002d0: fb83 d43d 2f1d 5f3e e5a1 f23c 2ceb d2bc
000002e0: 5000 cebd 3bc0 80be 8dc8 8fbd 8f10 8ebd
000002f0: 987b e4bd 0740 8abd 8336 5bbd 76c4 4dbe
00000300: c95a 07be 36b1 a43d 9a4d 6c3d e23f 483e
00000310: caa5 133e c2b7 b4bc f075 8cbd 304f 0e3e
00000320: 5487 673d 112a 03bc 1b31 75be a6a0 373d
00000330: f172 8abc d548 673d 1dda 283d 0d95 0f3e
00000340: 66a8 f7bd e602 d43d abf6 7b3d a935 06be
00000350: 0837 48be 0eba 263c ea19 053e e038 3f3c
00000360: 80fd 33be 6aa3 be3d c3e5 0abe 4040 30bd
00000370: f55d b33d a68d 94bc 57e7 13bb 3a06 2cbe
00000380: cab5 263d 2447 b2bd a25f 10be 4505 9f3c
00000390: 06ce b43d 5a56 0d3e a835 06be f046 e4bd
000003a0: 0099 04bd 6f7d 97bd 174d d23b 0465 06be
000003b0: 99f1 143e 465c 9e3d bbb9 4f3d c15b 51be
000003c0: ef5b 45ba c0f7 33bd 7d24 3f3d a25f 0f3d
000003d0: a16e dabd e2a5 3ebd 18d2 d9bd bfe4 38be
000003e0: b605 06be 1b20 15be f86e 49be d568 33be
000003f0: 5637 01be 30ab eabd 4cce 5dbc c7ac 94bc
0.0961164 0.010755349 0.21806742 -0.05054176 0.1360979 0.08569084 0.0020244773 -0.040845208
0.18589431 -0.15930359 -0.01883156 0.1200377 0.25347385 -0.14605495 -0.07144022 -0.045105387
0.12754127 0.1123499 -0.0814114 0.08271565 -0.057431057 0.2072502 -0.051380124 -0.09249726
-0.27688113 0.15401722 0.015780047 -0.015559214 0.086926356 0.16126993 -0.08354405 -0.09196996
0.055164065 0.15023763 -0.115725875 -0.155881 0.081143625 0.008603502 -0.121146746 -0.16230708
0.14603767 -0.11379562 0.013201055 -0.009313283 -0.15712866 -0.029408464 0.2762533 0.011136715
-0.12765206 -0.076430425 -0.17864366 -0.14857854 -0.02171879 -0.11416073 0.19115868 0.03100388
-0.08312916 0.039047003 0.059937287 0.0947719 -0.026562985 0.09492152 0.04427287 0.1402699
-0.13683218 0.22888245 0.21852283 0.23045595 -0.068758406 -0.104160205 0.07312328 0.056728117
0.0387506 -0.024974681 0.002549804 -0.02337914 0.15769556 0.12826309 0.16245492 -0.13846855
-0.01409209 -0.035887532 -0.13251683 0.055864055 -0.03062075 -0.06948679 0.07641433 -0.1165008
0.0008073617 -0.08392144 -0.15267561 -0.05040888 -0.073327534 -0.20249459 -0.13295834 0.07092252
-0.058355432 -0.12824541 -0.21392736 0.07463546 0.039683618 0.18294111 0.14516129 -0.0075868727
-0.011242827 0.16607681 0.106007546 -0.012255909 0.16972648 0.03679866 -0.10004312 -0.08738132
-0.17592572 0.07150359 0.053851314 -0.10643379 -0.02793287 0.12248585 0.29777825 -0.085082166
-0.15977508 0.0032886749 0.12648967 -0.13211766 -0.065824 -0.07683602 0.13688822 -0.008940929
-0.14187752 -0.12446161 -0.00033992922 0.20414189 0.086114004 -0.13630109 -0.0055401535 -0.035907455
0.060820244 -0.26842818 -0.02093586 -0.065541804 -0.02504199 0.010689316 -0.22642581 -0.026033089
-0.17553976 0.018721726 0.10273538 -0.11184 0.018680956 0.10272912 0.0064825523 0.05051066
-0.06503524 -0.034633636 0.14929788 0.061182406 -0.05390829 0.34694886 0.19255948 0.11500656
-0.10270507 0.07989584 0.022493305 -0.01967338 0.09005124 -0.034715593 0.053830635 0.13467687
0.034920536 -0.135963 -0.11580631 -0.041493207 -0.111728944 0.16593686 -0.06624604 -0.11695408
-0.04195611 -0.14082134 0.20973307 0.1525583 0.10376736 0.21788476 0.029618213 -0.025746904
-0.10058653 -0.2514666 -0.07020674 -0.06936752 -0.11156386 -0.067504935 -0.053518783 -0.20094475
-0.13218226 0.08041613 0.057691194 0.1955562 0.14418712 -0.022060279 -0.06858432 0.13897395
0.056525543 -0.008005635 -0.23944513 0.04483094 -0.016900511 0.056465942 0.041223634 0.14021702
-0.12092666 0.10352115 0.061514538 -0.13106407 -0.19552243 0.010176195 0.12998167 0.011671275
-0.17577171 0.093085125 -0.1356421 -0.043030024 0.08758155 -0.01813395 -0.002256831 -0.1679925
0.04070071 -0.08704975 -0.14098981 0.019411692 0.08828358 0.13802472 -0.13106406 -0.11146343
-0.032372475 -0.073969714 0.006417881 -0.13124472 0.14545287 0.077324435 0.050714236 -0.20445158
-0.0007528653 -0.043937445 0.046665657 0.035003312 -0.10665632 -0.046544917 -0.10635775 -0.1805601
-0.13088116 -0.14563029 -0.19671237 -0.17520459 -0.12618765 -0.11458433 -0.013537955 -0.018148793

_module.conv2.bias f4 [16]
00000000: 3b5c 563d c248 933d ad67 413c a451 aebc
00000010: f5ab d83d 1b94 fa3d 3a40 f33d e514 cc3d
00000020: f384 a43d f0d3 9cbc 2e47 e1bd 2dbb 003e
00000030: e0ed 993d 60e1 bd3c fdd2 75be b741 ea3d
0.05233405 0.07191612 0.011804503 -0.021279164 0.10579673 0.1223528 0.118774846 0.09964923
0.080331706 -0.019144028 -0.109999046 0.12571402 0.07516074 0.023178756 -0.24006267 0.11438315

_module.fc1.weight f4 [120, 400]
00000000: 4c83 66be 56eb 013e fa67 29bc 0bb3 ea3d
00000010: 97c9 f0bd 8337 cdbc e68f 21be 373f cebd
00000020: f763 933d 1a30 d4bd 1ce9 473e fb8e 303c
00000030: 0802 61bd 91a2 9dbd 9827 5cbc d40f 333e
00000040: bf27 54bc de1d 08be d4ff 10bd e491 d1bd
00000050: 5739 853d f07e 193d 48f5 dabd 55de a23d
00000060: 0318 95bd 3d1a 843d fa54 74bd 3fdb ed3c
00000070: b682 1d3d 0984 1bbe 3b96 e33d 9014 1d3e
00000080: 3db9 603d 6023 d33d 40ff ec3b 2c85 a0bd
00000090: 2222 2dbe 129f 5b3d abdb e93c 8dc1 d6bd
000000a0: a452 a33c d109 67bd d3df 86be ec04 833e
000000b0: e45c 833c a28e 5f3d 0cfe eabc 05f5 51be
000000c0: 1aec f43d 653b 403e 7781 5ebe 6c43 dc3c
000000d0: 63ba 033e 7b02 b83d 0fbb efbd 9d06 de3d
000000e0: 34b7 083e cfab 483c 8ac8 9fbc beb2 8a3e
000000f0: 5434 abbb b75c b83d 881f 8c3c 38d0 2cbe
00000100: a547 c43d 3441 90bc 7f20 b5bd d3ad 2c3e
00000110: 9d5e 493e 6929 61bd aaac 4a3e 8ebb e23c
00000120: 0caf e93c e687 f53d 7f7a e0bc 6c39 d3bd
00000130: 2bf0 d9bc 0711 17bd bfcb 533e 8f3a 8d3d
00000140: ab83 723d 9063 13be 6d47 4c3d 54e0 70bc
00000150: c0e8 b43d 69be 69be 0529 df3d 969b f8bd
00000160: 7d12 8cbd 331c 91be eea8 833c b939 95bd
00000170: 5586 103d 0de8 d3bd 55ab ec3c a9b8 38be
00000180: dba5 833d 0696 08bd 14fa 95bd a442 013d
00000190: 5483 ba3d 2a80 60bc 8d01 49be b635 2e3c
000001a0: c489 c43d 1652 47be b860 92bd 5ccc 67be
000001b0: 6eea f83d 5a33 eabd 8564 c93d 9ae7 863d
000001c0: b9fc bcbc b428 b13d 9641 c8bb 0841 1dbd
000001d0: 9916 25be b2bd 153e b352 6f3c ec1a b3bd
000001e0: 989c 27bd 16ba 13be 903f ae3d 30bc 0b3d
000001f0: a2c6 1abe b49b 1a3e b281 023d 3e12 dcbd
00000200: 8fbf 84bd 9855 053d f68c 6e3e d444 50bd
00000210: a5ab 663c f97c b23d b23d fa3c 06ed c43c
00000220: d887 753d bf70 3abd fba2 433d 56cd 6abc
00000230: 45c6 98bd 787a 003c 8b42 883d 0d63 d9bd
00000240: 1fbc a33d a193 de3c 5519 03be e45c 273e
00000250: 321b 07be 6cad 5a3d 2c27 fcbd a5e0 043e
00000260: 6b9d 5f3d c8b4 38be 9d5d 1b3e 756d 84bd
00000270: d43f 2f3d e70c 433d 4a0a 76bc 6729 943e
00000280: 3eb5 3dbe 6e35 233e afff e63d dc4e ab3d
00000290: 7716 8fbd cbae 5f3e 4d00 853d 753c 3bbd
000002a0: ea8f 37bd 7390 fabc aa22 383e 200e 093e
000002b0: f4c8 923b a4a6 c23d f436 02be bbd2 363e
000002c0: f02e 653c 5201 2cbc f4e3 ec3d 86e8 a63d
000002d0: 77db 4c3e ebb8 e5bc e281 0d3e a7d4 9e3c
000002e0: 3c55 bbbc d0f4 46b9 e86a a2bc 586a 3fbd
000002f0: 52b8 55bc 2866 043d a418 283d 537e 013e
00000300: 72a4 2c3d 16bd 993d 0e16 b5bd e764 063e
00000310: 94ec a0bd 1ee0 2b3e ef32 66be 20fd 4d3d
00000320: 2da8 9dbd 8aff 9bbd 122a 01be 254d 413e
00000330: b517 abbd 00da edbc ddde a53d d965 4b3d
00000340: d7ec ba3d ca6e 36bd 4fe3 463e 6871 a73c
00000350: d891 1f3c f348 ee3d 5dfd 47be c6d0 463e
00000360: c216 e93d c9e0 bdbd ea85 24be 19b0 23bc
00000370: 2a71 8fbc 38ec e9bc 8963 efbd 6448 f33d
00000380: e9e3 9fbd d4c7 a7bd a1ca cf3b 58cb af3d
00000390: f7cf 09be c8bf 1d3d 770e 4a3e 4954 fdbd
000003a0: dd08 8ebd 0ef0 8dbd eb8c 2c3d a322 8abb
000003b0: da72 003e 78a3 90bd 7a3d 403d e72b b1bd
000003c0: dd8e 95bd 56d8 be3d 695f 16bd ecd0 c9bc
000003d0: 2888 253e e6f2 e03c 1627 513a 126e 223e
000003e0: 5364 6f3d bfc5 91bc b2b3 05be 9c12 16bd
000003f0: 4464 333d 3553 083d 9e36 2d3d 3e25 513d
-0.22511023 0.1268743 -0.010339731 0.11459931 -0.117572 -0.025050884 -0.15777549 -0.10070651
0.07196801 -0.10360737 0.19522518 0.010776277 -0.054933578 -0.07697023 -0.013437174 0.17486507
-0.012948929 -0.13292643 -0.035400227 -0.102329046 0.06505077 0.037474573 -0.10691315 0.07952563
-0.072799705 0.06450317 -0.059651352 0.029035209 0.038454734 -0.15187086 0.111126386 0.15339875
0.054864157 0.103094816 0.0072325766 -0.078379005 -0.16907552 0.0536185 0.028547129 -0.10486136
0.019936867 -0.056405846 -0.2634264 0.25589693 0.016035505 0.054579385 -0.028685592 -0.20503624
0.11959095 0.18772657 -0.21729074 0.026887618 0.1286407 0.08984848 -0.117056005 0.10841105
0.13351136 0.012247994 -0.019504804 0.27089494 -0.005224744 0.09002059 0.017104879 -0.16876304
0.095839776 -0.017609216 -0.08844089 0.16863184 0.19664998 -0.054971132 0.19792429 0.027677324
0.028525852 0.11988811 -0.02740216 -0.10313687 -0.026603779 -0.036881473 0.20683192 0.06895935
0.0592076 -0.14393449 0.049872804 -0.0147019215 0.08833456 -0.22826542 0.10896496 -0.12139051
-0.06839464 -0.28341827 0.016071763 -0.072864 0.03528436 -0.103469945 0.028890291 -0.18039192
0.06428119 -0.0333462 -0.07323089 0.031557694 0.0910708 -0.013702432 -0.19629498 0.010632923
0.09596589 -0.19464907 -0.07147354 -0.2263655 0.12154089 -0.11435576 0.09833626 0.06587143
-0.023069726 0.08650342 -0.006111334 -0.038392097 -0.16121902 0.14623144 0.014607119 -0.08745369
-0.040920824 -0.14426455 0.08508217 0.034115016 -0.15114835 0.15098459 0.03186197 -0.10745667
-0.064818494 0.03255233 0.2329596 -0.05084689 0.014079009 0.08715243 0.030546997 0.024038803
0.059944004 -0.04551768 0.047762852 -0.014331182 -0.07459692 0.007841699 0.06653317 -0.106145956
0.079948656 0.027170004 -0.12802632 0.16344029 -0.13193968 0.053388044 -0.12312159 0.1297632
0.054593485 -0.18037713 0.1517243 -0.0646619 0.04278548 0.047619727 -0.015017102 0.28937837
-0.1852617 0.1593835 0.112792365 0.083646506 -0.06986707 0.21844022 0.06494198 -0.045711953
-0.04481498 -0.030586457 0.17981973 0.13384295 0.004479522 0.095044404 -0.12716275 0.17853825
0.013988242 -0.010498362 0.11566916 0.08149819 0.20005594 -0.028042277 0.13819078 0.01938851
-0.022867791 -0.00018973951 -0.019826367 -0.046732277 -0.013044434 0.032323986 0.041039124 0.12645845
0.042149015 0.075067684 -0.08842097 0.13124429 -0.07857624 0.16784713 -0.22480367 0.050290227
-0.076980926 -0.076170996 -0.12613705 0.18877085 -0.08354131 -0.029034615 0.080991484 0.049657676
0.09127205 -0.04453925 0.19422649 0.020439819 0.009739362 0.11635008 -0.19530244 0.19415578
0.11381294 -0.0927139 -0.16066709 -0.009990715 -0.017510016 -0.02855502 -0.11688907 0.11879042
-0.07807142 -0.08192411 0.006341294 0.085837066 -0.13458239 0.038512975 0.1973208 -0.12369592
-0.06935284 -0.069305524 0.042126577 -0.004215555 0.12543812 -0.07062429 0.04693363 -0.08650952
-0.0730264 0.093186066 -0.036712084 -0.024635755 0.1616522 0.027459573 0.00079785415 0.15862301
0.058445286 -0.017794488 -0.1305683 -0.03663884 0.043796793 0.033282477 0.042288415 0.051060908

_module.fc1.bias f4 [120]
00000000: 608c 3abc 03eb dbbb 30e4 04be c37d 6c3d
00000010: 8b8f 9dbd 48c8 29be fa0a 03be 08cf 1cbe
00000020: 9d02 373d 774a 39bd 32a2 163d 977e 7b3d
00000030: bf8c 983d d77d 93bd 7ae0 ffbb a176 99bd
00000040: 9d3c 213e 334b c33b 0bad 293e c8f9 edbd
00000050: 843c 1abd 6849 07bd 5ad6 b6bd 78a8 84bd
00000060: fa68 39be e453 2a3e 9002 753d e467 193c
00000070: 5ffa bb3d e76f cf3d 7042 123e e247 24bd
00000080: 9523 c6bd 29a9 a1bc 9e46 083d 6807 90bc
00000090: 5283 bbbd f897 e23d 0faa 82be a53e 7f3d
000000a0: 8b27 c43c 1059 403e 4cdc 293e 702c 343d
000000b0: 5152 71bd 7fe9 f6bc b980 cebd dff4 9fbc
000000c0: 2a09 0cbd 5e0f 9d3d 2062 f4bc ed38 a3bc
000000d0: a1df c0bc f9a3 773d e37f 083e e287 443e
000000e0: d0c0 913d 8fd6 7f3c f2fc 813d 108f 863d
000000f0: 3bce 763e 5a88 aebd 648a ea3b a0ad 803c
00000100: 7a44 653b 7e80 3cbd 6c9d 1abd 73de e63d
00000110: 94ff 833e 4b70 8a3d 693e 9abd daae 54be
00000120: a335 d3bd 8b06 d3bd f5f4 a4be 861f 3bbc
00000130: b144 533d af37 c9bd 1631 9ebd 9a2b d83c
00000140: eddf 86bc e1db 113b 14dd 923d 70c2 bd3d
00000150: 9c3d 563e 043e 8cbc 5ed6 393d a585 3f3e
00000160: 933f 043e e258 f8bc 8a5f edbb bf5d 023d
00000170: c053 52be d55c 113d 8eec 4b3d 54d3 11bd
00000180: 6ccd d7bd cba3 a03d 3f8d 45be 6450 c43c
00000190: be8b 79bd 9315 013e 65b9 163b ca57 a73d
000001a0: cad8 013d f216 7cbc 26f4 b2bd a022 cabd
000001b0: d25b 9ebd 6163 e73d f958 4bbd 67ae d0bd
000001c0: a0c4 ffbc 410d 23be 4938 3cbd 2441 1cbd
000001d0: ab76 613b fccb 20bd fb2a 203d 9fc5 07bd
-0.011386007 -0.006711365 -0.12977672 0.057737123 -0.07693394 -0.16580307 -0.12797156 -0.15313351
0.044680227 -0.04523703 0.036775775 0.061400022 0.0744872 -0.072017364 -0.007808742 -0.0749333
0.15745778 0.005959892 0.16569917 -0.116199076 -0.03765537 -0.03302899 -0.08927603 -0.06477445
-0.18106452 0.16633564 0.059816897 0.009363148 0.09178614 0.101287656 0.14283156 -0.040107615
-0.096747555 -0.019733982 0.03327047 -0.017581657 -0.09155907 0.11064142 -0.2552037 0.0623156
0.023944637 0.18783975 0.16587943 0.04398769 -0.058916394 -0.030140636 -0.10083146 -0.019525943
-0.034188427 0.07668947 -0.029831946 -0.019924605 -0.023544135 0.06045911 0.13330035 0.1919246
0.07116854 0.01561512 0.063470736 0.06570256 0.24102108 -0.08522101 0.0071576107 0.01570779
0.0034983442 -0.046020977 -0.037747785 0.112728976 0.25780928 0.067596994 -0.07531435 -0.20769826
-0.10312965 -0.10303982 -0.32218137 -0.01142109 0.05157918 -0.09825074 -0.07724206 0.026387978
-0.016464198 0.0022256302 0.071710736 0.09265602 0.2092194 -0.017119415 0.045370452 0.18703325
0.12914877 -0.03031582 -0.007244055 0.031827684 -0.2053976 0.035488922 0.049786143 -0.03560193
-0.10537228 0.07843741 -0.19292162 0.023964114 -0.060924284 0.12605886 0.0022998687 0.08171041
0.031700887 -0.01538633 -0.08737974 -0.098698854 -0.07732357 0.11298252 -0.049645398 -0.101895146
-0.031221688 -0.15923025 -0.045952115 -0.03814806 0.0034403007 -0.039257035 0.03910349 -0.03314745

_module.fc2.weight f4 [84, 120]
00000000: e1d0 86bd a069 afbd 4e45 77bd d1ea 963e
00000010: 3b80 a43d 748c e5bc 453e 54bd 4b74 163e
00000020: 2a9b 223e 7095 01be c37b b4bb 826e a93d
00000030: 6e2a c8bd 632b 1ebe baeb 4a3e 21d1 49bb
00000040: 125f cc3c ffbc 6abd 25f7 4bbd 398c 74bb
00000050: 6a85 c93d a09d 50bd aef2 4e3e b638 27bd
00000060: 2536 923e 084c d5bd c343 06bd 999c d6bd
00000070: b59b 2ebe 15e7 19be 270e 883e 0f6c 4a3e
00000080: 97d2 c2bc d050 363b 398a 813d 248d bcbd
00000090: 6d61 3fbd d5e5 573e 094e cbbd 242a 413e
000000a0: ffef d1bd d649 52be e0a8 3a3d 2ffd fbbd
000000b0: 6b1e 253d e372 973c ba23 cfbd 9cc6 a23d
000000c0: 25fd 373e 0dd7 aa3d 6728 9c3c 678b 2fbd
000000d0: 5c49 15be 3219 73be 30ee 50bd 7649 163d
000000e0: bfc3 213c 0538 8e3d ceaa 043e d8a6 103e
000000f0: d2cf aa3d 2a98 57be 7e0b 2b3e 668a c9bd
00000100: b9f5 153c c06a 433e 12b8 12bd cba4 8d3d
00000110: e692 373d 0761 bc3d 75d1 983c 16f5 ffbc
00000120: 04a2 38be 5b38 c2bd 2927 f23d 873e 30bd
00000130: 0888 a7bd 1c26 62be b2a7 4cbc 4285 b73c
00000140: 18b6 073d 3b1c 7fbd 98cd 023e b383 a93d
00000150: 5e8a c73c a48f 9dbd 706f 373d 1c9a 913d
00000160: 1857 63be 9a71 0cbd fafe 293e fc3e 67be
00000170: d91e 813e 1307 07be e3d3 dd3c bf2c 073e
00000180: 7897 debc 70b3 5bbe 7925 6c3d 6653 4bbe
00000190: ec13 49be b87b 45bd a47e 6bbe 59be 03be
000001a0: 5abc 06bc df54 1e3e bb08 933d f9b8 05be
000001b0: dc2b 64bd b51c 15be fc37 7cbe 8d62 8ebe
000001c0: eed7 4b3d ad86 bebc 863a 1fbe f407 80be
000001d0: a81d 5abe 31ab 05be 9144 e93d 1283 3e3d
000001e0: 7337 063d ad19 df3c 2842 fabd 5c9d 43bd
000001f0: c3e6 05be 9d12 32be dec5 563e 2153 12bd
00000200: 7e18 733d 9681 92bc 3193 1fbe d972 c5be
00000210: 5777 8bbe 9d77 0e3c 9dc7 873c 6545 53bd
00000220: 2f4a fbbd 6b98 4bbe 9eb1 b13d c9d1 223e
00000230: f21c 813d bc56 013e f740 84be 0ef5 033d
00000240: 1fb7 f4bd ff73 2f3e 6b0e 293d da2f 63bd
00000250: 91d3 273e 71fc 06be 9e48 493d 37ea 93be
00000260: 2991 18bc adbd b53b b6f6 4a3e 94dc 16bd
00000270: e66a d9bd 756e 3d3d ca2c 1d3e a02f ddbd
00000280: 80d1 3abe fdd6 c33d 97ee b03d c19d a93c
00000290: 1842 053e 8276 7e3c 385c a7bd 44a0 cbbd
000002a0: a911 9e3d 1459 e83d 1617 db3d b948 1d3e
000002b0: f3d1 86bc c521 b43d 13ac 81bd 9da6 023d
000002c0: 650a 333e b1b5 183e 7846 2fbe 7fad bebd
000002d0: 05ee a13e 8859 483d 197b 17be 53a6 203e
000002e0: 8277 373d 7e17 4e3d 8c90 59be e575 07be
000002f0: 98a8 0e3e 98c8 03bd d471 78bc 0eb3 82be
00000300: 5f03 843e 7c4c 89be b67f 2b3c 95eb 3bbd
00000310: 87e7 8c3e 43d0 0e3e a1a3 2c3e 655e 7b3d
00000320: 5f4c 923c 47f6 6c3e f951 35be 5f05 8c3d
00000330: 4ed7 5e3d 9a24 b1bd 9115 743e 940d 633d
00000340: 3657 2d3e 7e75 51be 8b9d 12be 8565 e8bd
00000350: ddac 04bd 33aa 8b3e bbe1 7ebd 5abc 553d
00000360: 1ca9 c4bc b2c2 adbd d3eb a33d 4dd7 d1bc
00000370: 398d 62be 2d0f aebd 9418 2ebe bc73 513d
00000380: bc3c 36be 58b6 80bd 3d8e dcbc 120b 6f3d
00000390: 0046 0f3d 9e9c da3d 974e dabd 5026 de3d
000003a0: 15f5 7ebd 9214 0cbe fc36 5abe c5ef ce3d
000003b0: bdba 1dbd 905e c43c a4c4 87bd 3525 fdbd
000003c0: b82d 223e 45cd c2bd 031d 64be a766 babc
000003d0: 4179 2dbe aa38 4b3e b28b e23d 6aac c9bc
000003e0: ac81 3fbe 3068 1ebc 204c cdbd 3dbd ab3b
000003f0: 6a86 3ebd c178 6c3e 6f1f 8b3d b33c c33d
-0.06582809 -0.08565068 -0.06036883 0.29476026 0.080322705 -0.028021075 -0.051817197 0.146928
0.15879503 -0.12654662 -0.0055079176 0.08273031 -0.09773718 -0.15446238 0.19816485 -0.0030794817
0.024947677 -0.057309147 -0.049796242 -0.0037315025 0.098399 -0.050931573 0.20209762 -0.04082557
0.28556934 -0.104148924 -0.032779466 -0.104790874 -0.17051585 -0.15029557 0.26573297 0.19767784
-0.023782058 0.0027819164 0.06325192 -0.09206608 -0.04672377 0.21083768 -0.099269934 0.18863732
-0.10250854 -0.20535979 0.045571208 -0.1230415 0.040312212 0.0184874 -0.10114236 0.07948038
0.1796766 0.08341799 0.019062234 -0.042857554 -0.14578766 -0.2374008 -0.051008403 0.03669115
0.00987333 0.06944279 0.12955782 0.14126146 0.0834042 -0.2105414 0.16703603 -0.098408505
0.009152823 0.1908369 -0.035820074 0.069161974 0.044817828 0.09198194 0.018654564 -0.031244796
-0.18030554 -0.09483405 0.118238755 -0.04302838 -0.08180243 -0.2208485 -0.012491154 0.02240241
0.033132643 -0.062282782 0.1277374 0.08277073 0.02435797 -0.07693413 0.04478401 0.07109472
-0.22201192 -0.034288026 0.16601172 -0.2258262 0.25218847 -0.13186292 0.027078575 0.13200663
-0.027171835 -0.21455169 0.057652924 -0.19856033 -0.19636506 -0.04821369 -0.22997528 -0.1286558
-0.008223617 0.15462063 0.071793996 -0.13058843 -0.05570589 -0.14561732 -0.24630731 -0.27809563
0.049766473 -0.023257578 -0.15549669 -0.25006068 -0.21300375 -0.13053586 0.11390031 0.046511717
0.032767724 0.027233923 -0.122196496 -0.04775749 -0.1307631 -0.17389913 0.20973918 -0.03572381
0.05934953 -0.017884057 -0.15583493 -0.38564184 -0.27239487 0.00869551 0.016574675 -0.05157985
-0.12270009 -0.19882362 0.08676456 0.15900339 0.06304349 0.12630743 -0.25830814 0.032216124
-0.1194899 0.17134093 0.041273516 -0.055465557 0.163893 -0.13182236 0.04914152 -0.2888963
-0.009311953 0.0055462928 0.19820675 -0.036831453 -0.106160924 0.04624792 0.15349117 -0.108000994
-0.1824398 0.0956249 0.086392574 0.020705106 0.13013494 0.015531184 -0.08171886 -0.099426776
0.07718212 0.11345115 0.10697763 0.15359773 -0.016457533 0.087955035 -0.06331649 0.031897176
0.17484434 0.1491306 -0.17116725 -0.093104355 0.31626907 0.04891351 -0.14793052 0.15688448
0.044791706 0.050315373 -0.21246547 -0.13228567 0.13931501 -0.032173723 -0.0151638575 -0.25527233
0.25783822 -0.26816165 0.01046746 -0.045878965 0.2752039 0.13946633 0.16859294 0.06136932
0.017858682 0.23140822 -0.17707051 0.06836962 0.05440455 -0.08649559 0.23836352 0.05543287
0.169278 -0.20454976 -0.1431791 -0.11347488 -0.032391418 0.2727829 -0.062226992 0.05218158
-0.024006419 -0.08484401 0.08003964 -0.025615359 -0.22124185 -0.08498988 -0.17001563 0.051135764
-0.17796606 -0.06284779 -0.026923293 0.058360167 0.034978867 0.106744036 -0.10659521 0.10847151
-0.062245447 -0.13679722 -0.21310037 0.10104326 -0.038508166 0.023970872 -0.06629303 -0.12360612
0.15837753 -0.09511808 -0.22276692 -0.022754027 -0.16940786 0.19845834 0.11061801 -0.024618346
-0.1870181 -0.009668395 -0.10024285 0.005241065 -0.046514906 0.23092939 0.06793105 0.09533062

_module.fc2.bias f4 [84]
00000000: 6b5b ecbd 08ae ef3c 3f76 0e3e 3603 d33d
00000010: 21be 13bd c106 c53d 91f8 fb3d e582 893d
00000020: 310d 223e c0dd b8bc 2a30 033e 66f6 d0bc
00000030: f0b0 4c3e de98 283c 3ea2 3a3e 80c7 5b3d
00000040: 96d7 0ebe 5bfe 143d 15e3 ab3d 89a6 173e
00000050: f416 973c 2ed0 753a fa61 b93d f29e 813e
00000060: 84e3 b5bd 3659 363e 59ef e7bd 087e 0dbd
00000070: 68fb 39be 16f1 50bd 6354 a7bd 2513 2a3e
00000080: 9eac 873e 7023 25bd 9626 d8bd f1d3 ec3d
00000090: c43b 8c3e 07dc e33d 4024 e7bc 02c6 28bd
000000a0: 15e7 6e3d 8487 053d fdbf f8bc 8747 a73d
000000b0: f0a8 ccbb 937a 55be 9bd2 b2bd 1107 293e
000000c0: a9a2 1b3d 0411 093e c646 7cbc a98e 01be
000000d0: 58b6 0c3d 748c ef3c 6f61 b4bd 659c e4bc
000000e0: 54c1 07be 7789 d13d 2d14 87bd dcce e03b
000000f0: c902 053d 73fd 25bd 9037 733e 904b 95be
00000100: 8e86 14be 9300 b4bc 7031 e1bd 9adb 6fbd
00000110: b74f c9bc 7bfd e33d 9c8c 793d e183 843b
00000120: 673b 55bd 4746 67bd 2b88 8ebb f25f 0c3e
00000130: 69b2 983d a1f8 c2bb d93f febd 2346 f4bc
00000140: a26e 15bd ecf2 263e 06f4 1a3e b649 a13c
-0.11540874 0.02925779 0.13912295 0.10303347 -0.036069993 0.09620429 0.1230327 0.06714419
0.15825345 -0.022566676 0.12811342 -0.025508117 0.19989371 0.010290353 0.18225953 0.053657055
-0.13949427 0.036375385 0.08392922 0.14809622 0.018443562 0.00093770295 0.09051891 0.25316578
-0.08881286 0.17807469 -0.11324949 -0.03454402 -0.1816231 -0.051011167 -0.08170392 0.16608866
0.26498884 -0.040317 -0.10554235 0.11563862 0.27389348 0.11125951 -0.028215528 -0.04120446
0.058325846 0.03259994 -0.030364985 0.0816794 -0.006245725 -0.2084754 -0.08731576 0.16506602
0.03799692 0.13385397 -0.015397733 -0.12652077 0.034353584 0.029241778 -0.088076465 -0.027906606
-0.13257343 0.102312975 -0.06595645 0.006860597 0.03247336 -0.04052491 0.23751664 -0.29159212
-0.14504454 -0.02197293 -0.109957576 -0.058559038 -0.024574144 0.11132332 0.06092511 0.0040440415
-0.052058604 -0.056463506 -0.0043497286 0.13708475 0.07455904 -0.005950049 -0.12414522 -0.0298186
-0.03648246 0.16303605 0.1513215 0.019688468

_module.fc3.weight f4 [10, 84]
00000000: a83b 943b 3f6d 553b d1e0 b7bd 68f9 46bd
00000010: e0a8 2e3d bbbe 81be 1d55 b23d 49e5 19be
00000020: fa2b 113e 2fd6 c63d 0be6 d9bd 17d9 2c3e
00000030: 647f 24be 188f e8bd 8757 b7bd 8b77 2abe
00000040: b87c bc3d fadd d8bd 6f34 15bd 82e8 833e
00000050: d299 8ebe c434 473d 35fe 563e 02fe d6be
00000060: bab0 ca3d 3cc1 3a3c a28e 4e3d 14e3 b73e
00000070: d106 d3bd 5c62 c0bd cd4d 93bd 59de 303e
00000080: 5548 393e 7461 07be 3b1c 1dbe e626 08bd
00000090: bccf d93d f10b e83b e39d 9f3d 05c8 d3bd
000000a0: 8883 3abe 2b1b 7d3e fa7b a8bd 3d25 383e
000000b0: 5135 89bb 2374 ae3c 2b66 953d 02c5 e6bd
000000c0: c3c2 9a3b efba 71be 23b3 c3bc 9697 ac3d
000000d0: 24c8 113e ac17 0abe a06f 6a3b 479f 9f3d
000000e0: 2ffb 9abd ffe4 20bd e284 8fbe e9d8 983c
000000f0: 3dcb 113e d1a2 e8bb 7118 63be 9bc0 7cbc
00000100: 2c2a 483e ddd3 35be 88db 18bb 958f c43d
00000110: a296 07be 0509 7a3d 951c 843d fb36 893c
00000120: e2f0 d03c 41a8 f4bd a22c c4be a756 4dbe
00000130: d25c 283e af1e dabd 121f 043e 98d5 20be
00000140: 7e7d f53d b208 54bb 77d8 95bd e91b 5ebc
00000150: 8846 4cbb 4e25 9fbe 5323 febb 4d4f 993d
00000160: 2f6a 4f3e 772e bebd 291b b1bd 3f45 b13d
00000170: bdfa bcbc 0a1b 11be 528c b33d 0027 3b3e
00000180: 26e5 ad3e 3c18 033e c71c d5bc a375 d2bc
00000190: 9eea fa3d d85a 39bd 6249 7a3e 52ab 723d
000001a0: 95f6 05be e0a3 893d ccd1 3abe 87bd 01be
000001b0: 5699 0a3e c5a6 5d3d 39b7 57be f044 cabd
000001c0: 2551 613e 2eed 753e e80a b8bc a07d 0ebe
000001d0: 0b9a bbbc 731a b33d 4994 27be 251a b0bc
000001e0: b020 d5bd bb06 89be 7f0a 03be d683 123d
000001f0: ec7d 2fbe f4b7 8f3d 5b20 263e d49d df3b
00000200: 782f 653d 4b89 33be 04a0 5d3d e07a 35bc
00000210: c544 c13c 825a 3f3e b507 bfbc 7883 e2bd
00000220: 6f2a 583d 74b3 3bbe 8413 b8bd 2aa4 bb3c
00000230: 791f ca3d ccba a13e 4fe6 12be fab6 173e
00000240: 026d 89be 7051 39bd 72fb 04bd 9127 77be
00000250: 7620 2e3d 7d8d d5bc 1e7f 88bd 1af7 3e3d
00000260: af45 1ebe f74a 2cbd 6e9f 0bbe aa42 503e
00000270: 9d7a a3bc a63d d1bc c7dd 993e 00ed 5f3e
00000280: fc26 a6bd 8656 683d 960e 403d 9931 df3d
00000290: aef3 b1bc 8fe9 0d3e 125b acbd 16fa 2b3e
000002a0: 9b26 cebd dea9 18be 0c71 843e c4ce da3c
000002b0: 1797 f03c b420 c2bd 3c93 c1bc fc8d 933d
000002c0: 45d5 463e 97ad 0c3b b6f0 f5bd f985 863d
000002d0: 1818 7ebc 1c8d 73bd 2425 54be a625 543d
000002e0: fe6d b7bd 1e37 5dbe 1501 9f3e 103f 403e
000002f0: d71b 633e ffda 58bd 8f93 b9bb 228e c5bd
00000300: 53f1 78bd c167 66be 0796 073c ea96 e4bc
00000310: a62c 49bc de2f f4bc 714e ce3d 7599 f5bc
00000320: 0211 0e3e 6392 2f3e 41a3 983e 1452 343e
00000330: d3cd b33c 4745 ad3d 2761 f9bd 9356 ca3e
00000340: b0f3 593e 3135 fa3d 28f0 32be c534 a03d
00000350: 7a52 a9bc 3242 54be 9bf5 0abe 30ee 81be
00000360: 3ea0 dcba 2e26 a23d 14d6 1fbd 73fd 38be
00000370: 2321 173d 025a 80bd 1f8e 23bb df4a 21bd
00000380: 9eb3 f33d 73b7 743d 4c10 6d3d c4f2 33be
00000390: 24d3 663a bf0b 863d aa27 023d 360e 6fbe
000003a0: de4d efbd 352e 563e cac1 c33b e4e2 673e
000003b0: f1bf ab3d eede f03d 92c9 54bd 833c dc3b
000003c0: beaf 78bd 93bf 17be 8d8b 0ebe f3d0 24bc
000003d0: 35e4 c2bc e3c0 0fbc 790c 1e3e d7fc 8dbe
000003e0: 9571 26be 7d44 1fbc 10ef b43e 8a68 113e
000003f0: c4e3 383e 0b20 a9be eab6 2fbe b5af 623e
0.004523713 0.0032566336 -0.08978427 -0.048577696 0.04264152 -0.25340828 0.0870764 -0.15028872
0.14176932 0.09708821 -0.1063958 0.16879688 -0.1606422 -0.11355418 -0.089522414 -0.16647165
0.09203476 -0.10589214 -0.036426958 0.25763327 -0.2785173 0.048634306 0.2099541 -0.41990668
0.09896989 0.01139861 0.050428994 0.35915434 -0.103040345 -0.093937606 -0.07192574 0.17272319
0.18093999 -0.13220769 -0.153428 -0.03324022 0.10635325 0.0070815017 0.077937864 -0.10340885
-0.18214238 0.24717395 -0.08226772 0.17982955 -0.004187264 0.021295613 0.072948776 -0.11268045
0.0047229244 -0.23606466 -0.02388913 0.0842735 0.14236504 -0.13485593 0.00357721 0.077940516
-0.07567441 -0.039280888 -0.2803107 0.018658118 0.14237686 -0.0070994874 -0.22177292 -0.01542678
0.19547337 -0.177566 -0.002332421 0.095976986 -0.13241056 0.061043758 0.06450764 0.01674985
0.025505487 -0.119461544 -0.38315302 -0.20052586 0.16441658 -0.10650384 0.12902477 -0.1570648
0.11986826 -0.0032353816 -0.07316678 -0.013556459 -0.003116997 -0.3108315 -0.007755676 0.074858285
0.2025535 -0.09286206 -0.086477585 0.08655786 -0.02306878 -0.14170471 0.08766998 0.18276596
0.3396389 0.12802213 -0.026014699 -0.02569086 0.12251781 -0.04525265 0.24442056 0.059245415
-0.13082345 0.0672071 -0.18244094 -0.12669955 0.13535056 0.054114122 -0.21065988 -0.0987643
0.2200361 0.24016258 -0.022466138 -0.1391511 -0.022900602 0.08745279 -0.1636516 -0.021496842
-0.10406625 -0.26762947 -0.12796973 0.03577026 -0.17137879 0.07017508 0.1622328 0.0068242345
0.055953473 -0.17532842 0.05410768 -0.011076659 0.023592362 0.1868687 -0.023319105 -0.11060232
0.052774843 -0.18330175 -0.08988097 0.022905428 0.09869284 0.31587827 -0.14345668 0.14815894
-0.2684098 -0.04524368 -0.03246636 -0.24136187 0.042511426 -0.026068443 -0.06664871 0.046622373
-0.1545627 -0.04206368 -0.13635036 0.2033793 -0.019955928 -0.025542092 0.30052015 0.21867752
-0.081129044 0.05672314 0.04688891 0.10898132 -0.02172264 0.13858627 -0.08415808 0.16794619
-0.10065957 -0.14908549 0.25867498 0.026709922 0.02936892 -0.09478894 -0.023629777 0.07204816
0.19417293 0.0021465772 -0.120088026 0.06568522 -0.015508674 -0.059460744 -0.20717293 0.051793717
-0.08956526 -0.21603057 0.31055513 0.18774056 0.22178589 -0.052943226 -0.0056633423 -0.0964625
-0.06077702 -0.22500516 0.008275515 -0.027903993 -0.012278711 -0.029807981 0.10073555 -0.0299804
0.13873675 0.17145686 0.29812053 0.17609435 0.02194873 0.08460479 -0.121767335 0.39519176
0.21284366 0.12217177 -0.17474425 0.07822565 -0.02066921 -0.20728377 -0.13570254 -0.25377035
-0.0016832424 0.079174384 -0.03902252 -0.18065433 0.036896836 -0.06267168 -0.0024956537 -0.039378043
0.11899494 0.059745263 0.05787687 -0.17573076 0.0008805266 0.06545209 0.031776108 -0.23345265
-0.11684774 0.20916064 0.005974029 0.22645146 0.08386219 0.117612705 -0.051950045 0.0067210807
-0.060714476 -0.14819174 -0.13920422 -0.010059583 -0.023790458 -0.008774015 0.15434445 -0.27731964
-0.16254266 -0.009720919 0.3533864 0.14200035 0.18055636 -0.3303226 -0.1715962 0.2213734

_module.fc3.bias f4 [10]
00000000: a903 84bd 40a5 c33d 097d 24bd e4a0 79bd
00000010: 6d43 56bc 5c7a 61bd 3932 b4be 7eb2 a0bd
00000020: eedf 9f3d 0aa1 36be
-0.064460106 0.09553003 -0.040158305 -0.060944453 -0.013077599 -0.05504833 -0.35194567 -0.07846545
0.07806383 -0.17834869
