dp_lenet_code/dp_lenet_plots/lenet_noise_1.0_gradnorm_1.1.pt (torch, 251038 bytes, 10 tensors)

_module.conv1.weight f4 [6, 1, 5, 5]
000000 88 97 be 3e 35 ee 5f 3e b4 4d b7 3d 31 09 82 3e
       0.37224984 0.21868213 0.089503676 0.25397637
000010 76 39 a9 3c b1 07 05 3f c4 2c cb 3d 89 3d d2 3e
       0.020657282 0.5196486 0.09920648 0.41062573
000020 9c b0 f6 3e fc fa c4 3d a2 62 c6 3e a5 e8 fa 3e
       0.48181617 0.09618184 0.38747126 0.4900562
000030 b6 7b f6 3e 9c 7f 9b 3e f2 ba a2 3e 0d fc 7d 3e
       0.4814126 0.30370796 0.31783253 0.24803181
000040 1f 0a 2e 3f 10 73 c9 3e 20 73 0f 3c 90 7a 86 3e
       0.67984194 0.39345598 0.008755475 0.26265383
000050 47 bf b2 be 8f bf 17 3d f6 d0 32 bd e0 43 67 3e
       -0.34911558 0.03704792 -0.043656312 0.22584486
000060 c5 07 3a be a9 7c 41 3e a7 57 99 be 09 68 89 3e
       -0.18167026 0.1889521 -0.29949686 0.26837185
000070 09 8d c2 3d d6 7e 2b be ff c7 aa 3d c7 2b a9 be
       0.094995566 -0.16747603 0.083389275 -0.33041212
000080 ca c1 54 3e b7 70 7f 3d a9 2a c4 3d be e0 cb 3d
       0.2077705 0.062363353 0.09578449 0.099549755
000090 8c 22 a4 bd 3e 27 1b 3f 75 98 ca 3e e5 b8 e7 bc
       -0.08014402 0.60606754 0.3956944 -0.028286407
0000a0 3d 22 46 3e e9 4a 74 3e 2f 52 f6 3e fa 06 0e 3f
       0.19348998 0.23856701 0.48109576 0.55479395
0000b0 e6 38 d8 3e 60 ec 33 3e 57 73 47 3e 1d 9f c9 3d
       0.4223091 0.17570639 0.19477592 0.098448016
0000c0 f3 05 35 3e 6b 7d 8c bc b6 df 2a be 71 a0 60 3d
       0.1767805 -0.017149648 -0.16686901 0.05484051
0000d0 ab c2 91 3d 4f cc c2 3e 69 3c fb 3d 13 9f 00 3e
       0.07117208 0.380465 0.12267382 0.12560682
0000e0 fd 56 45 3e 3b c1 29 3e d0 ae 15 3e 4a 56 8c be
       0.19271465 0.16577618 0.14617467 -0.27409583
0000f0 75 99 85 3d 43 b9 21 3e e7 bf 06 3e 30 1a c4 3c
       0.0652341 0.15793328 0.13159142 0.023938268
000100 11 dc 0f be ce 53 89 3d e1 8c ed 3e 26 21 43 bd
       -0.14048792 0.067054376 0.46396545 -0.047639035
000110 33 64 f1 bd 7e 6a ab be 02 62 bf 3e b4 82 2a 3e
       -0.117866896 -0.33479685 0.37379462 0.16651422
000120 87 e5 99 3e f2 4d 94 be d8 6d 95 be f8 66 29 be
       0.30057928 -0.28965718 -0.29185367 -0.16543186
000130 c0 0d aa be e6 d9 4c 3e 13 5f 4d 3c 78 44 cf 3d
       -0.33213615 0.20004997 0.0125348745 0.10120481
000140 5d e5 4f be 98 5d 2d 3e 49 c1 47 3e 79 3a 69 3d
       -0.20302339 0.16930234 0.19507326 0.05694053
000150 c7 20 5d 3e ff b6 12 bd 29 d4 8e 3e de 5b c1 3d
       0.21594535 -0.03581905 0.2789624 0.094413504
000160 4d e1 e6 bd 6a 4b 8d 39 cb 91 04 3e a6 4d 4a be
       -0.112734415 0.00026949804 0.1294624 -0.19756183
000170 e3 31 3a 3e c2 54 98 3d 88 01 48 3e d7 1b a1 be
       0.18183093 0.07438041 0.19531834 -0.31466553
000180 65 fc 1d 3e ca d0 fc 3d d5 89 a9 be b2 c4 75 be
       0.15428312 0.12344511 -0.3311297 -0.24000815
000190 5f ea f7 be de 63 50 3d 0a 0a 9b bd 7f a6 06 be
       -0.48420998 0.05087649 -0.07570274 -0.1314945
0001a0 ae ec 9a bd 46 2b 83 bd e2 ed 6b be 9c 54 e1 be
       -0.07564674 -0.06404738 -0.23039964 -0.44009864
0001b0 27 3d d6 bc 0d 7f a4 be fe 7c 67 bc da 84 ee bb
       -0.026152207 -0.32128182 -0.014128922 -0.0072790207
0001c0 17 b3 6d 3c 3c 3e 49 3d ff 4c a9 be 1a 7c 85 3d
       0.01450803 0.049131617 -0.33066556 0.06517811
0001d0 1f d4 2f bc 26 f7 75 bd 36 40 fa bd d4 96 2a 3b
       -0.010731726 -0.060050152 -0.122192785 0.0026029842
0001e0 ea 9c 9a bd c8 e4 73 bd a6 34 d4 bd 0c f5 2b be
       -0.0754946 -0.059544355 -0.103616044 -0.16792697
0001f0 a0 ef 37 be 4b 8b 3d 3e 45 f7 b8 3d 0e 48 67 3c
       -0.17962503 0.18510167 0.09031538 0.0141163
000200 69 6e c9 3e 21 8a 04 3d 7c da 82 be 79 88 c5 bc
       0.3934205 0.032358292 -0.25557315 -0.024112927
000210 9f 49 1e 3d 34 ef 55 3d 89 04 f2 bd 04 5b 8d bd
       0.03864443 0.052230075 -0.11817271 -0.069021255
000220 15 0a 6e be 08 83 92 be 55 04 12 3e 4d fb e0 3c
       -0.23246033 -0.28615594 0.14259465 0.02746358
000230 45 07 68 3e 62 e4 17 bd 3a d2 a4 bd b5 8e 37 be
       0.22659023 -0.037083037 -0.0804791 -0.17925532
000240 93 20 fc 3d 99 ec 0d be 7e 7c b6 3d 0f 56 68 3e
       0.123109005 -0.13859786 0.08910464 0.22689079
000250 fe a7 d4 3e e5 88 ea 3c
       0.41534418 0.02862973

_module.conv1.bias f4 [6]
000000 b8 9d c9 3d c5 6f e2 bd 38 ce 27 3c 84 ef 59 be
       0.098445356 -0.110564746 0.0102420375 -0.21282774
000010 b3 d7 d8 3d dc 82 e6 be
       0.10588016 -0.45021713

_module.conv2.weight f4 [16, 6, 5, 5]
000000 ff ba af 3d c8 da 42 bd 55 6b 6c 3e 2c 14 b3 bd
       0.085805885 -0.047571927 0.23087819 -0.08744082
000010 89 dd 02 3e 90 a6 9a 3d 90 9f 3a bd bb 4d 8c bd
       0.12779821 0.075513005 -0.045562327 -0.068507634
000020 fb 51 6d 3e 96 fa 54 be 2a b2 95 bc ce 21 e3 3d
       0.23175804 -0.20798716 -0.018273432 0.11090432
000030 59 2a 9b 3e f6 1a 35 be a3 80 86 bd d6 25 29 bd
       0.30305746 -0.17686066 -0.06567504 -0.04129585
000040 91 e3 0b 3e 63 0e 03 3e 88 6b 89 bd ad 61 24 3e
       0.13661028 0.12798457 -0.06709963 0.16052885
000050 1c 79 64 bd 86 1a 79 3e f9 2d db bd cf 38 78 bd
       -0.05577956 0.24326524 -0.10702128 -0.060601052
000060 e0 bb ad be 4d 4b 22 3e da f4 a5 bc f1 b9 21 bd
       -0.339324 0.15849037 -0.020258356 -0.03948397
000070 47 b3 b5 3d 7e 4b 44 3e 44 c4 0a be 6b ec 0c be
       0.08872085 0.19169423 -0.13551432 -0.13762061
000080 3a d9 85 3d 27 42 4c 3e 08 d3 12 be bb 31 4a be
       0.06535573 0.1994711 -0.14338315 -0.19745533
000090 03 9b 8b 3d a9 25 d1 bc 15 7a 12 be 4e bf 42 be
       0.068166755 -0.025530653 -0.14304383 -0.1901829
0000a0 3f ff 49 3e bb 34 2c be 21 99 3a 3b 0b ca 29 3c
       0.19726275 -0.1681699 0.002847262 0.010363112
0000b0 97 ec 22 be 0c 29 3f bd 20 5f a4 3e 0a 78 00 3c
       -0.15910564 -0.046670005 0.32103825 0.00784112
0000c0 96 4f 0e be 26 c0 8a bd 8f 21 5b be e6 51 3f be
       -0.13897547 -0.06774931 -0.2139952 -0.18683586
0000d0 9d ca 14 bd 86 dd 2e be cd 9d 72 3e 44 e9 00 3d
       -0.03632604 -0.17076692 0.23693009 0.03147246
0000e0 27 6a be bd 95 ce 63 3d 18 6b a3 3d 0f 9e d5 3d
       -0.09297591 0.055616934 0.07979411 0.10430538
0000f0 33 1e c4 bc cc 8d 09 3e b0 a3 0e 3d f1 ec 45 3e
       -0.023940181 0.13432997 0.034824073 0.19328667
000100 85 67 1c be 4f 6c 97 3e 32 bd 92 3e 73 95 93 3e
       -0.15273865 0.2957482 0.2865997 0.28824958
000110 ca 0e 7b bd cd 7c 0e be 2d 57 8e 3d 6c cb 1b 3d
       -0.0612934 -0.13914795 0.06950221 0.038035795
000120 1c af 5c 3d 5a 5b 7a 3b e7 3d 31 3d 95 a6 41 bd
       0.053877935 0.0038201422 0.043271925 -0.047278006
000130 91 50 47 3e fa 98 12 3e 3f 48 4a 3e 08 bd 42 be
       0.19464327 0.14316168 0.19754122 -0.19017422
000140 30 79 98 bc c4 8f dd bc 7c 69 1c be ca 37 d1 3d
       -0.018612474 -0.027046092 -0.15274614 0.10215719
000150 c7 6e 4a bd 6d 9f 96 bd 79 18 df 3d 16 ae 0b be
       -0.04942205 -0.07354627 0.1089334 -0.13640627
000160 a6 40 47 3c 00 cd b0 bd 73 d1 3a be 79 b5 a8 bd
       0.0121614095 -0.08632851 -0.18243961 -0.08237738
000170 1d db b5 bd 4e f7 8d be b2 68 23 be 29 2c de 3d
       -0.08879683 -0.2772774 -0.15957907 0.10848267
000180 fc 41 ac bd 4a e1 22 be 8c 98 8b be f7 eb 05 3e
       -0.08411023 -0.15906253 -0.27264822 0.13078295
000190 05 ec ff 3c c2 50 82 3e 3c 89 2d 3e 65 7a 08 bd
       0.031240473 0.25452238 0.16946882 -0.03331985
0001a0 5d c6 34 bd 24 2c 72 3e a3 74 e9 3d 52 3f 8c bc
       -0.044134486 0.23649651 0.113992 -0.017120037
0001b0 ab 86 4b 3e 6b 67 29 3c f5 af 0e be 74 4e 03 be
       0.1987559 0.010339598 -0.1393431 -0.12822896
0001c0 44 23 7c be f9 6b c6 3d c3 e2 31 3d a0 50 fc bd
       -0.24622828 0.09688563 0.043429147 -0.123200655
0001d0 db 0e 83 bd 5e c0 04 3e 3f 53 b5 3e 14 8b f5 bd
       -0.06399318 0.12964007 0.35415074 -0.11989418
0001e0 63 c8 46 be b1 ce c5 bb 60 88 14 3e 63 5b 29 be
       -0.19412379 -0.0060366024 0.14505148 -0.16538768
0001f0 55 7e bb bd 26 0e b6 bd c7 73 40 3e 49 d0 ec 3b
       -0.09154955 -0.08889417 0.18794166 0.007226978
000200 81 3b 30 be 97 fa 1b be 49 ce c1 3c 7a 95 7f 3e
       -0.17210199 -0.15232311 0.023657935 0.24959365
000210 48 13 c2 3d 26 a6 30 be 06 e0 c0 ba 3d 1b 00 bd
       0.09476334 -0.1725088 -0.0014715202 -0.031275976
000220 08 3d de 3d c4 3b a6 be 25 fc fe bc 1d 91 8a bd
       0.108514845 -0.32467473 -0.031126091 -0.067659594
000230 a7 df 82 bc 52 12 8e 3c 12 ad 92 be 4e 01 91 bc
       -0.015975786 0.01734272 -0.28647667 -0.017700817
000240 4c 28 69 be 0c 85 e2 3c 2a 4e 15 3e 0c af 04 be
       -0.22769278 0.027651332 0.14580598 -0.129574
000250 8b a9 5c 3d 79 23 f2 3d 05 0b 6c 3c 70 3b 81 3d
       0.053872626 0.11823172 0.014406924 0.06310165
000260 f2 58 84 bd 81 a5 35 bd c2 c3 26 3e 06 16 78 3d
       -0.064622775 -0.04434729 0.16285613 0.06056788
000270 a3 5b 89 bd 12 1b da 3e be e4 4f 3e f0 07 fc 3d
       -0.067069314 0.42598778 0.20302102 0.123062015
000280 ff 01 22 be 49 df 8d 3d 80 e5 cc 3c e2 af 0a bd
       -0.15821074 0.06927354 0.025011778 -0.03385914
000290 13 38 16 3e dd a5 e3 bc 47 63 8c 3d 5c e3 3d 3e
       0.14669828 -0.02778905 0.06854873 0.18543762
0002a0 c8 86 b8 3d b1 3e 06 be 62 15 0a be da 3f c5 bc
       0.090100825 -0.13109852 -0.1348472 -0.024078298
0002b0 53 a7 f1 bd 99 d0 7a 3e 38 af b7 bd f8 2b 29 be
       -0.11799493 0.24493636 -0.08968967 -0.16520679
0002c0 02 05 33 bd 93 4a 33 be de 45 80 3e db ec 59 3e
       -0.043705948 -0.17508917 0.25053304 0.2128176
0002d0 92 09 09 3e 5d bb 86 3e 70 ab 23 3d c4 ab 31 bd
       0.13382557 0.26314822 0.039958417 -0.0433767
0002e0 5d 92 09 be 70 22 a5 be 45 39 8e bd 82 7f 5f bd
       -0.1343474 -0.32252836 -0.06944517 -0.05456496
0002f0 4a 76 f1 bd 2d bb 73 bd 19 ea bc bd aa 30 7a be
       -0.1179014 -0.059504677 -0.09224338 -0.24432626
000300 76 df 0a be 3a 46 f2 3d f5 40 ae 3d 25 a7 76 3e
       -0.13561806 0.11829801 0.08508483 0.24087198
000310 fc 32 2f 3e b1 e7 1d bd 7f d0 89 bd 73 6f 35 3e
       0.17109293 -0.038551036 -0.067292206 0.17718296
000320 8b ba 53 3d 97 92 fc bb bc f8 98 be d5 6f cd 3c
       0.051691573 -0.0077079046 -0.2987727 0.02507774
000330 f8 85 e3 bc 1d 21 b4 3d f6 95 a3 3d e6 1d 3a 3e
       -0.027773842 0.08795378 0.07987587 0.18175468
000340 02 fa 3e be 16 f4 fe 3d 62 fc 9c 3d 9e 31 20 be
       -0.18650058 0.124488994 0.07665326 -0.15643927
000350 1a aa 72 be ee ff 33 3c 04 1f 1b 3e a2 9c 30 3b
       -0.23697701 0.010986311 0.1514855 0.002694883
000360 92 f7 5e be e8 36 00 3e 14 11 27 be 1c c9 1a bd
       -0.21774128 0.12520945 -0.16315109 -0.03778945
000370 7f 2a db 3d fc 89 2e bd 9f ac c0 bc 98 46 46 be
       0.10701465 -0.04261206 -0.023519812 -0.19362867
000380 e6 fe 35 3d a1 b8 d3 bd ee 44 4a be e0 e6 b7 3b
       0.044432543 -0.103379495 -0.19752857 0.0056122392
000390 1b 98 e6 3d d1 61 20 3e 29 fd 1e be 87 5e 10 be
       0.112594806 0.15662314 -0.1552626 -0.1409856
0003a0 31 df 82 bd af 77 c7 bd ad 41 8b 3c fe b5 2a be
       -0.06390227 -0.09739625 0.01699909 -0.16670987
0003b0 84 59 2f 3e f6 f6 b8 3d 34 6f 7e 3d 0b dc 82 be
       0.17123991 0.09031479 0.06211777 -0.25558504
0003c0 9b 62 c1 3c 9e c9 6a bd b4 d3 70 3d f2 75 7a 3d
       0.023606589 -0.057321183 0.058795646 0.061147638
0003d0 ce ae 05 be 28 1f a0 bd 99 1e 11 be 9c a9 72 be
       -0.13054964 -0.078184426 -0.14171828 -0.23697513
0003e0 49 14 24 be d2 01 25 be d9 32 6f be 29 e3 5d be
       -0.16023363 -0.16113976 -0.2335924 -0.21668686
0003f0 6e 33 1c be b8 d8 25 be c9 89 3e bc 80 e8 20 bc
       -0.15253994 -0.16195953 -0.01162953 -0.009821057

_module.conv2.bias f4 [16]
000000 e7 9e 81 3d 31 e0 ad 3d 55 05 12 bc a9 2e 09 bd
       0.06329136 0.08490027 -0.008912404 -0.033491764
000010 48 a0 17 3e 86 66 0e 3e a2 9a 0f 3e 94 e9 fc 3d
       0.14807236 0.13906297 0.14023831 0.12349239
000020 48 02 ec 3d bf 42 e9 bc 72 e9 18 be 23 ff 08 3e
       0.115238726 -0.02847421 -0.14932802 0.13378577
000030 75 c1 b5 3d ea cc 9d 3c 3d 29 a6 be 4d a9 08 3e
       0.088747896 0.01926275 -0.32453337 0.13345833

_module.fc1.weight f4 [120, 400]
000000 14 ec 98 be 24 0d 20 3e fb d5 af bc b4 82 30 3e
       -0.29867613 0.15630013 -0.021464339 0.1723736
000010 12 0b 20 be 7c 16 92 bc ce 8f 4c be 46 9f 07 be
       -0.15629223 -0.017832987 -0.19976732 -0.13244352
000020 da 62 c3 3d 6f a6 0e be 1f e1 7e 3e 60 6c 0c 3d
       0.09540339 -0.13930677 0.24890564 0.034283042
000030 ba 4b 78 bd dd d7 c6 bd dd a0 a6 bc e7 03 73 3e
       -0.060619093 -0.097091414 -0.020340377 0.23731957
000040 ef 5e ca bc 74 66 25 be bf f7 10 bd ba 61 11 be
       -0.024703471 -0.16152364 -0.03539252 -0.14197436
000050 de ef 92 3d f3 4b 2f 3d 0a 7f 14 be ef 0c d1 3d
       0.07174657 0.04279704 -0.14501587 0.10207545
000060 73 4e eb bd 45 c2 9d 3d 9d d8 b8 bd da 1f 20 3d
       -0.114895724 0.077030696 -0.09025691 0.039092876
000070 b1 f4 81 3d 7d ff 48 be e2 48 11 3e f9 80 41 3e
       0.06345499 -0.19628711 0.14187959 0.18896855
000080 c6 8f a2 3d 13 02 fb 3d d9 08 80 3b 9d 41 d8 bd
       0.07937579 0.12256255 0.0039073047 -0.1055939
000090 e0 75 66 be ec 6a 99 3d ab 67 a1 3c 47 d0 11 be
       -0.22505903 0.07491097 0.019702753 -0.14239608
0000a0 28 1d 9a 3c a2 6e 78 bd 08 23 ae be 85 ae af 3e
       0.01881273 -0.060652383 -0.34011102 0.34312835
0000b0 95 2f 30 3c 83 c3 76 3d bd 0a 33 bd cd da 82 be
       0.010753532 0.06024505 -0.043711413 -0.25557557
0000c0 d0 55 22 3e d0 a9 86 3e cf 98 8d be 30 0c a5 3c
       0.15853047 0.26301432 -0.27655646 0.020147413
0000d0 c2 e7 28 3e 07 56 b6 3d dc c2 1b be 3f 15 08 3e
       0.16494659 0.08903127 -0.15211052 0.13289355
0000e0 22 a6 22 3e 20 e6 dc 3c 7e 5b f1 bc 00 c1 b9 3e
       0.15883687 0.0269652 -0.029462572 0.3628006
0000f0 d3 d0 43 bc ca 99 d5 3d 5d 4e f9 3c 2d 5a 5c be
       -0.011951643 0.104297236 0.030432874 -0.21518774
000100 1a b4 fa 3d 2f 64 2d bd 82 34 08 be c4 8b 55 3e
       0.12241383 -0.04233187 -0.1330128 0.20854098
000110 73 e9 8b 3e 82 27 99 bd 72 a2 6d 3e b0 a1 b0 3c
       0.27326545 -0.07478239 0.23206499 0.021561474
000120 af 81 35 3d 4f fa 19 3e d2 ca 04 bd 48 56 01 be
       0.04431313 0.15036891 -0.032419987 -0.1263057
000130 48 00 31 bd 62 a8 22 bd 61 bf 92 3e f9 9e bd 3d
       -0.04321316 -0.039711364 0.28661636 0.09258837
000140 04 82 a4 3d 00 3f 37 be 8c ff bf 3d 0e 6b 6b 3b
       0.08032611 -0.17895126 0.093749136 0.0035921964
000150 b6 5e ea 3d c9 23 94 be 3e ff 1c 3e a9 48 13 be
       0.11443846 -0.28933552 0.15331742 -0.14383186
000160 99 5e a6 bd b5 50 bc be 2c cf 22 3d 03 af a7 bd
       -0.08123512 -0.36780325 0.039748356 -0.08187678
000170 86 3a 3f 3d 25 7d 02 be 3b 05 65 3d a4 d8 7d be
       0.04668667 -0.12743051 0.05591319 -0.24789673
000180 34 eb c2 3d 55 55 1c bd 81 d3 d3 bd 89 09 e2 3c
       0.09517518 -0.038167316 -0.103430755 0.027592437
000190 a3 43 09 3e 94 48 7b bb b8 2f 75 be 4a 81 8f 3c
       0.13404708 -0.003834282 -0.23943985 0.017517705
0001a0 e4 aa 03 3e 46 20 7b be 3b 2d cd bd c4 24 8f be
       0.12858158 -0.2452403 -0.10018393 -0.27957737
0001b0 3a 5f 19 3e 48 3e 0d be 33 42 0f 3e 96 4b c3 3d
       0.14977732 -0.1379329 0.13990097 0.09535901
0001c0 87 fd a0 bc 9f a0 ca 3d 45 d1 c3 3b 09 60 42 bd
       -0.019652141 0.09893917 0.0059758746 -0.047454868
0001d0 6b 4c 48 be bf 28 45 3e 6e 76 8a 3b 3e c7 06 be
       -0.19560401 0.19253825 0.0042255437 -0.13161942
0001e0 e4 01 80 bd a5 26 43 be e0 2d c1 3d 1e bc 2d 3d
       -0.062503606 -0.1905771 0.09432578 0.04241573
0001f0 b3 29 59 be b9 22 57 3e af 62 50 3d 15 f6 02 be
       -0.21207313 0.2100934 0.050875362 -0.12789185
000200 5c aa d2 bd bb c6 27 3d 26 3e a5 3e c4 e2 8e bd
       -0.102864 0.04096101 0.32273978 -0.06976846
000210 cb 21 d5 3c 91 e8 f2 3d 77 07 0c 3d e1 bf 23 3d
       0.02601709 0.11860765 0.034186807 0.03997791
000220 ee fb 9b 3d 93 cb 47 bd a7 cc 7a 3d 81 37 8f bb
       0.07616411 -0.048778128 0.061230328 -0.0043706303
000230 16 3b cf bd 71 84 b0 bb da 25 9b 3d 50 d9 14 be
       -0.101186916 -0.005386882 0.07575579 -0.14536023
000240 9c 22 bf 3d ab 79 ae 3c 08 83 32 be 14 64 58 3e
       0.09332773 0.02129825 -0.17432797 0.21131927
000250 d9 8a 38 be 67 e8 63 3d 5c be 37 be db d0 33 3e
       -0.18021716 0.055641558 -0.1794371 0.17560141
000260 ef 60 99 3d 9a a8 6e be 16 df 44 3e 05 57 97 bd
       0.07489192 -0.23306504 0.19225726 -0.073896445
000270 e2 df 60 3d 7b 1f 8e 3d 90 be ae bc ca 87 c2 3e
       0.05490101 0.06939598 -0.021331102 0.37994224
000280 91 c9 74 be 62 4f 59 3e 44 55 19 3e a5 9f 01 3e
       -0.23905016 0.21221688 0.14973933 0.12658556
000290 7b 87 e3 bd 1e 99 89 3e e5 1d 98 3d c4 70 71 bd
       -0.11109825 0.26874632 0.07427577 -0.058945432
0002a0 19 5b 7f bd f1 1f 13 bd 2e 78 6d 3e ab 50 25 3e
       -0.062342737 -0.035919134 0.23190376 0.16144054
0002b0 74 e8 41 bb b5 30 e8 3d 3a 57 23 be b2 e4 67 3e
       -0.0029588016 0.11337415 -0.15951243 0.22645834
0002c0 bd db eb 3c b0 3c f6 bc 71 44 17 3e 63 1a d9 3d
       0.028791303 -0.030058235 0.14772202 0.10600736
0002d0 c5 30 80 3e 0d cd 5b bd 93 c2 34 3e 8c ec 0c 3d
       0.25037208 -0.05366235 0.17652349 0.034405276
0002e0 7d c9 33 bd fb d9 e7 bb 6f c7 07 bd 04 94 53 bd
       -0.043893326 -0.007075546 -0.03314918 -0.05165483
0002f0 7e f7 9b bc ab 8c e2 3c b1 0b 8f 3d 1d 54 25 3e
       -0.019038912 0.027654966 0.06984652 0.16145368
000300 98 21 ac 3d e4 c0 f7 3d cb e1 ce bd 58 20 26 3e
       0.08404845 0.12097338 -0.1010166 0.16223276
000310 4b b2 c7 bd bd 8b 71 3e 9c ea 92 be 20 a7 70 3d
       -0.097508036 0.23588462 -0.28694618 0.058753133
000320 de 97 b1 bd 35 ea bf bd 81 57 2c be 7d 59 7d 3e
       -0.086715445 -0.09370843 -0.16830255 0.24741168
000330 8b a5 d5 bd 83 3b 2b bd 12 25 fb 3d 81 fc b0 3d
       -0.104319654 -0.0418048 0.1226293 0.08641911
000340 fe 51 fd 3d 78 73 44 bd 96 78 81 3e af e1 31 3d
       0.123691544 -0.047961682 0.25287312 0.04342812
000350 27 38 7b 3c f3 38 17 3e 79 68 77 be d8 7a 7b 3e
       0.015333212 0.14767818 -0.24160947 0.2455858
000360 e0 34 21 3e 53 44 f8 bd 8e 08 54 be ea c7 0d bc
       0.15742826 -0.12122407 -0.20706388 -0.00865362
000370 dc 4b 8e bc 18 06 aa bc e2 d7 26 be 93 17 22 3e
       -0.017370157 -0.020754859 -0.1629329 0.15829305
000380 9f 0b f6 bd 7b 53 f6 bd 42 09 bb bb 80 b4 da 3d
       -0.12013935 -0.120276414 -0.0057078907 0.10678959
000390 bc 5b 3a be ec 8a 20 3d 8d 3d 80 3e 51 d1 18 be
       -0.18199056 0.039194986 0.2504696 -0.14923598
0003a0 5d f6 a6 bd 08 7f 87 bd 76 bb 79 3d 57 a5 5a 3a
       -0.08152459 -0.06616026 0.060969792 0.00083406776
0003b0 59 37 1b 3e cd 5d ad bd d0 93 99 3d a3 91 cc bd
       0.15157832 -0.08465157 0.07498896 -0.099887155
0003c0 87 85 ae bd 96 04 f9 3d 88 05 09 bd ef b4 88 bc
       -0.08521562 0.12159078 -0.03345254 -0.016687838
0003d0 61 96 53 3e 60 b8 36 3d 72 23 67 3c d8 e7 57 3e
       0.20662834 0.044609427 0.014107572 0.21084535
0003e0 0b 2d 9a 3d f7 2b 81 bc 1c d7 35 be aa c1 60 bd
       0.075281225 -0.015768034 -0.17757839 -0.054872192
0003f0 32 39 a1 3d 9f 12 4a 3d 33 9a 4a 3d fa f9 92 3d
       0.07872237 0.049334165 0.049463462 0.071765855

_module.fc1.bias f4 [120]
000000 87 e0 a1 bb 30 4d 44 bc 90 eb 2c be 3e fb 89 3d
       -0.004940096 -0.011981294 -0.16886735 0.06737374
000010 e6 e0 e1 bd a4 2f 6d be d4 8b 2d be c0 e3 4a be
       -0.11029224 -0.23162705 -0.16947871 -0.19813442
000020 68 ca 68 3d 9c b3 62 bd 0f 70 2e 3d b0 57 aa 3d
       0.056833655 -0.05534707 0.042587336 0.08317506
000030 8e 8a d0 3d 2a fa e7 bd e7 28 a1 3b d1 2f eb bd
       0.10182677 -0.11327012 0.004918206 -0.1148373
000040 cb 28 50 3e 76 8e 90 3c 04 c8 53 3e f9 f8 18 be
       0.20328061 0.017646056 0.20681769 -0.14938726
000050 f2 80 1e bd 59 ca 21 bd fe 6c fb bd 5e 22 91 bd
       -0.03869719 -0.039499614 -0.12276648 -0.07086633
000060 5e a7 78 be f6 15 58 3e 83 42 c2 3d 40 31 49 3b
       -0.24282596 0.21102127 0.09485342 0.0030699521
000070 66 8c ec 3d fc 98 ef 3d f9 5c 32 3e 80 19 51 bd
       0.115502164 0.11699101 0.17418279 -0.05104971
000080 fb 98 fc bd 44 8b 39 bc ed 69 42 3d 09 ac e3 bc
       -0.12333866 -0.011324707 0.0474643 -0.027791994
000090 4f 95 06 be 70 43 0b 3e e6 5e b2 be ef 58 ae 3d
       -0.13142894 0.13599944 -0.34838027 0.085130565
0000a0 29 06 e1 3c 77 ae 76 3e e0 f3 55 3e 6e d4 41 3d
       0.027468758 0.2408999 0.20893812 0.04732173
0000b0 f4 89 8d bd 31 f8 07 bd b9 0c 07 be 73 0c dc bc
       -0.06911078 -0.03319568 -0.13188447 -0.026861405
0000c0 81 1e 08 bd cd 62 b8 3d d8 71 51 bd 40 b3 2e bd
       -0.033232216 0.0900322 -0.05113396 -0.042651415
0000d0 8f c3 25 bd 8b 72 82 3d 07 2d 35 3e 2d bb 83 3e
       -0.040469702 0.063695036 0.17692958 0.2572874
0000e0 19 60 bd 3d 79 da 84 3c 22 4d a3 3d 44 11 b0 3d
       0.09246845 0.016217457 0.07973696 0.08597043
0000f0 54 3d a4 3e 3a 9b ce bd ce b4 25 3c 8d b9 1d 3c
       0.3207804 -0.10088201 0.010113908 0.009626758
000100 e6 49 3f 3b a4 78 37 bd 3d 99 44 bd 9b 50 1f 3e
       0.0029188334 -0.044792786 -0.047997702 0.15558092
000110 71 8a a9 3e 98 d5 a3 3d 08 db bb bd b7 53 91 be
       0.33113435 0.07999724 -0.09172636 -0.28384182
000120 63 3a 14 be 74 fb 00 be 35 1b d9 be 0e a3 93 bc
       -0.14475398 -0.12595922 -0.4240357 -0.018022086
000130 5d 75 73 3d 0e 01 fe bd a3 b2 dc bd 2f d9 f1 3c
       0.0594381 -0.12402545 -0.1077626 0.029522507
000140 dc d7 0d bc 96 25 b7 3b 91 57 bb 3d ea ad e6 3d
       -0.008657422 0.0055891974 0.09147561 0.1126364
000150 0b 96 8c 3e 4d b1 98 bc fa 84 87 3d e5 d3 77 3e
       0.27458224 -0.018639231 0.0661716 0.24201925
000160 da c1 25 3e 47 7c 1e bd 35 fc d8 bc 97 23 21 3d
       0.1618723 -0.03869274 -0.02648745 0.03934058
000170 ad 2d 85 be 88 de 42 3d 1f 5f 88 3d 6f f4 33 bd
       -0.2601141 0.047575504 0.06658768 -0.043934282
000180 71 13 12 be 46 d1 db 3d 08 3a 7f be c3 62 b1 3c
       -0.14265229 0.10733275 -0.24924481 0.021653539
000190 de 6f c1 bd 12 3f 35 3e 7f 06 dd ba b9 cf d3 3d
       -0.09445165 0.1769984 -0.0016862898 0.10342354
0001a0 66 df 38 3d 29 4c ca bc 09 b4 e5 bd 6c 2c 05 be
       0.045134924 -0.02469452 -0.112159796 -0.13005227
0001b0 5a 86 b8 bd 47 35 0a 3e ea f3 a8 bd 64 62 14 be
       -0.090100005 0.13496886 -0.08249648 -0.14490658
0001c0 e2 52 12 bd f5 2e 54 be 52 bc 86 bd a7 91 7c bd
       -0.035723574 -0.20721038 -0.06578888 -0.061662342
0001d0 3c 00 ce 3b 73 23 53 bd b2 50 86 3d 2c 4c 06 bd
       0.006286649 -0.05154748 0.0655836 -0.032787487

_module.fc2.weight f4 [84, 120]
000000 bb 6c b2 bd 43 7a e7 bd 1f 80 a8 bd ae fe bb 3e
       -0.08712145 -0.113026164 -0.08227562 0.36717743
000010 a8 37 c7 3d 80 c1 49 bc 9a 28 3c bd ac fc 40 3e
       0.097274125 -0.0123142 -0.04593716 0.18846387
000020 33 35 43 3e 45 eb 10 be 88 cb 98 bc d3 10 ff 3d
       0.19063263 -0.14152248 -0.018651739 0.12454381
000030 a3 65 10 be e2 35 41 be 5f 79 72 3e 47 70 e0 bc
       -0.14101271 -0.18868211 0.23679112 -0.027397288
000040 dd 6f 7c 3d b8 3e 47 bd 08 9d 99 bd ee 6d dc bc
       0.06163012 -0.048643798 -0.075006545 -0.026907887
000050 8f a4 f9 3d bb f8 56 bd aa 77 7b 3e 88 31 c7 bc
       0.1218959 -0.0524833 0.24557367 -0.02431561
000060 8a c1 b4 3e a1 a3 fe bd dc 7c 34 bd 67 0e 10 be
       0.3530391 -0.124335535 -0.044064388 -0.14067994
000070 82 a0 62 be 10 50 45 be f6 54 b2 3e b8 e3 84 3e
       -0.22131541 -0.19268823 0.34830445 0.25954986
000080 89 9f 10 bd 8e 04 f9 bc 65 9e ab 3d c1 ed da bd
       -0.035308395 -0.03039768 0.08379821 -0.10689879
000090 33 66 04 bd 19 44 84 3e 4e 30 dd bd 1a 21 73 3e
       -0.032324027 0.25833204 -0.10800229 0.23743096
0000a0 e1 aa f3 bd ad 1d 81 be ca 66 68 3d 56 3f 40 be
       -0.11897827 -0.25217953 0.056738652 -0.1877416
0000b0 02 d8 a5 3d f0 21 12 3c 95 fd d1 bd b0 7a ea 3d
       0.08097841 0.008919224 -0.10253445 0.11449182
0000c0 88 96 81 3e 93 b0 12 3e b7 f5 37 3d 1f d2 2f bd
       0.2531016 0.1432517 0.044912066 -0.042924996
0000d0 e3 88 2c be 86 1f a1 be e4 92 3a bd 89 64 7b 3d
       -0.16849093 -0.31469363 -0.045550242 0.061375175
0000e0 f9 92 e8 3c df 1b b2 3d 86 5e 39 3e e6 aa 30 3e
       0.028390395 0.08696722 0.18102464 0.17252693
0000f0 92 da c6 3d 20 1e 84 be f3 0b 67 3e 9b 42 c7 bd
       0.09709658 -0.25804234 0.22563152 -0.09729501
000100 3b e7 fb ba 02 0e 84 3e 1c 72 63 bd 00 e3 ab 3d
       -0.0019218692 0.25791937 -0.055528745 0.08392906
000110 b4 f7 09 3d ad 35 01 3e 68 f0 0d 3d b0 8a 92 bd
       0.033683494 0.12618132 0.034653097 -0.07155359
000120 35 4b 76 be 4b 56 05 be e7 db 1c 3e 3d fb 25 bd
       -0.24052127 -0.130212 0.15318261 -0.040522803
000130 cc 22 fd bd 1f 6e 8a be 0d 6b f4 bc 34 a0 56 3c
       -0.123601526 -0.2703714 -0.029836202 0.013099719
000140 7d 0d dd 3c c0 59 78 bd 26 ff 11 3e e4 d3 a6 3d
       0.02698397 -0.060632467 0.14257488 0.08145884
000150 36 c9 fd 3c bb 1b 95 bd 14 71 80 3d 41 63 c3 3d
       0.030979734 -0.0728068 0.06271568 0.095404156
000160 3e 88 8a be 54 52 34 bd 51 a1 6e 3e b4 60 8c be
       -0.2705707 -0.044023827 0.23303725 -0.2741753
000170 85 09 a2 3e ec 10 3e be c9 e2 49 3d 51 ce 18 3e
       0.31647888 -0.18561143 0.049288545 0.14922453
000180 25 be 12 bd ea de 94 be c3 82 95 3d 23 5c 75 be
       -0.035825867 -0.2907632 0.073003314 -0.23960929
000190 bc 5f 7d be 80 db 80 bd ec 5d 96 be fd e6 3d be
       -0.24743551 -0.06291866 -0.29368532 -0.18545146
0001a0 6a 87 1e bc 5e 62 4f 3e e1 2a 88 3d ce 46 25 be
       -0.00967584 0.20252368 0.066488035 -0.16140291
0001b0 02 25 90 bd 67 81 34 be b6 43 9a be 72 a8 c1 be
       -0.07038309 -0.17627488 -0.30129784 -0.37823826
0001c0 5a 4d 40 3d 94 34 29 bd 15 af 3c be 90 04 b5 be
       0.04694877 -0.041309908 -0.18426163 -0.35355043
0001d0 a7 ee 81 be 1a a4 1b be ca f7 f3 3d 98 38 9c 3d
       -0.2537739 -0.15199319 0.119124964 0.07627982
0001e0 ba 8e a8 3d 1b cb 38 3d 3b 9f 12 be ba 32 81 bd
       0.08230348 0.04511557 -0.14318554 -0.063085034
0001f0 73 b8 22 be 1f e2 4e be b5 ad 89 3e 75 ec 8e bd
       -0.15890674 -0.20203446 0.2689034 -0.06978694
000200 0b 08 96 3d cf b5 0d bd 77 6c 1e be dd b8 01 bf
       0.07325753 -0.034597214 -0.15471064 -0.50672704
000210 3b f8 a6 be e7 e4 29 3c 05 0f 2f 3d fd eb 8c bd
       -0.3261126 0.010369516 0.042738933 -0.06880949
000220 45 f2 11 be ca 8b 71 be 3f 65 92 3d 4a 5b 3d 3e
       -0.14252575 -0.23588482 0.071482174 0.18491855
000230 ea 55 b5 3d 03 63 15 3e fa ea a9 be 49 0f 17 3d
       0.088542774 0.14588551 -0.33187085 0.03687981
000240 ff 98 fe bd 18 9d 4c 3e be 33 ec 3c e0 38 69 bd
       -0.124315254 0.19981802 0.028833266 -0.056939006
000250 ec 89 30 3e 3e 38 31 be 8a d5 87 3d e3 c2 c1 be
       0.17240113 -0.17306611 0.06632526 -0.37844
000260 e7 73 67 3c 7e 10 02 3c fb 22 74 3e f9 e1 4d bd
       0.014126754 0.007938502 0.23841469 -0.050264332
000270 e9 df 04 be 69 d3 6d 3d 6a 89 5d 3e 47 1e fb bd
       -0.1297604 0.058062945 0.2163445 -0.12261634
000280 0d 4d 6a be 9f 64 19 3e f5 7f eb 3d 88 b0 b2 3c
       -0.22880955 0.1497979 0.11499015 0.021812692
000290 b8 75 3a 3e d6 fa 7a 3c bf 7e 04 be 5c bb 01 be
       0.18208969 0.015318593 -0.12938975 -0.12669128
0002a0 2a 90 6c 3d e9 c2 ed 3d e2 4b 10 3e b7 7b 38 3e
       0.057754673 0.11609442 0.14091447 0.18015943
0002b0 42 91 83 bd 19 54 19 3e c5 be 89 bd db 27 05 bd
       -0.0642419 0.14973487 -0.067258395 -0.032508712
0002c0 be ff 60 3e 68 a0 34 3e 53 f6 80 be 82 96 bb bd
       0.21972558 0.17639315 -0.2518793 -0.091595665
0002d0 f2 aa c0 3e 3f 6a 82 3d 51 9f 3e be 38 b6 31 3e
       0.3763042 0.06367921 -0.18615462 0.17354667
0002e0 0f a3 3d 3d fc ba 06 3d 23 76 89 be f4 06 2c be
       0.046298083 0.032893166 -0.26847944 -0.16799527
0002f0 61 4e 37 3e 3a cc 6c bd a9 fb 7d bc f5 dd 9c be
       0.17900993 -0.057811953 -0.015501895 -0.3063809
000300 8a 85 95 3e 78 e6 a6 be ab 56 8b 3b 2c b4 34 bd
       0.29203445 -0.3259771 0.004252275 -0.044117138
000310 23 25 a1 3e 25 22 28 3e d8 48 65 3e 93 31 c7 3d
       0.31473646 0.16419275 0.22391069 0.097262524
000320 ad 48 fe 3c 63 65 8c 3e a0 75 58 be bf a3 ab 3d
       0.031040514 0.27421102 -0.2113862 0.083808415
000330 f8 dd 9d 3d cd 3f ad bd 22 75 a6 3e c4 60 c5 3d
       0.07708353 -0.08459435 0.3251124 0.09637597
000340 ca bc 59 3e 38 d5 78 be de 34 5d be 16 0f 10 be
       0.21263424 -0.24300086 -0.21602198 -0.14068255
000350 3d c1 71 bd e6 e2 a0 3e d4 f5 76 bd a2 44 bb 3d
       -0.059022177 0.3142311 -0.060293034 0.0914395
000360 05 e1 82 bd 74 3a c5 bd e9 46 07 3e 81 a1 87 bc
       -0.06390575 -0.0963029 0.13210644 -0.016556503
000370 ae 12 70 be bf 43 c0 bd 0c eb 5d be 0e e9 17 3d
       -0.23444626 -0.093879215 -0.21671695 0.037087493
000380 d5 30 82 be c2 d3 c7 bd f6 37 18 bd b6 59 c2 3d
       -0.2542788 -0.097571865 -0.037162744 0.09489767
000390 09 89 e9 3c a7 a8 ee 3d f6 92 00 be cf d8 f2 3d
       0.028507726 0.11653262 -0.12556061 0.11857759
0003a0 9b fb fd bd d6 5a 3e be 79 81 63 be ca ee a3 3d
       -0.124015056 -0.18589339 -0.22217359 0.0800453
0003b0 ca 9a 38 bd 37 35 0b 3d 62 5c a2 bd dd bc 17 be
       -0.045069493 0.033986297 -0.07927777 -0.1481814
0003c0 d2 2f 7e 3e 44 53 15 be cc 1d 8e be 77 29 80 bd
       0.2482293 -0.14582545 -0.27757108 -0.06257909
0003d0 f4 89 46 be 26 90 7e 3e 4a 5c 44 3e 2c f0 fb bc
       -0.19388562 0.24859676 0.1917583 -0.030754171
0003e0 25 b3 8a be e7 ba d2 bc 37 d0 08 be 93 8b 85 bc
       -0.270898 -0.025723888 -0.13360678 -0.016301906
0003f0 b7 07 93 bd 90 9a 89 3e c5 48 b3 3d a5 b9 10 3e
       -0.07179206 0.26875734 0.08754114 0.14133318

_module.fc2.bias f4 [84]
000000 87 83 fd bd 6a cc 40 3c 1b d3 25 3e 40 36 fe 3d
       -0.123786025 0.011767486 0.16193812 0.12412691
000010 42 c0 53 bd 2e 52 fe 3d b4 b0 24 3e 7f 0b 88 3d
       -0.051697023 0.12418018 0.16083032 0.06642818
000020 58 47 49 3e 45 31 71 bc 3b a4 1f 3e 79 fc e4 bc
       0.19656122 -0.014721219 0.15589993 -0.02795242
000030 d7 ab 76 3e 4f 88 e8 3c e3 52 65 3e 1d 7a 81 3d
       0.24088989 0.02838531 0.223949 0.063221194
000040 f0 37 45 be e9 06 20 3d 35 4b bf 3d ed 1b 28 3e
       -0.1925962 0.03906909 0.093405165 0.16416903
000050 ef 8d 43 bc ee fd 09 3c c2 88 c3 3d 3a 2c 9f 3e
       -0.011935695 0.008422358 0.09547569 0.3108843
000060 3d bd 19 be d3 52 62 3e 58 ef f7 bd ec 6e 08 bc
       -0.15013595 0.22101907 -0.12106198 -0.008327227
000070 e3 3f 68 be ed 97 4e bd f2 0a a3 bd da 61 5e 3e
       -0.22680621 -0.050437856 -0.07961072 0.21717015
000080 c0 75 a5 3e 3b ed 38 bd c5 c5 21 be c9 06 16 3e
       0.323164 -0.045148116 -0.157981 0.14651026
000090 89 41 b6 3e 42 52 16 3e b0 6d 65 bd df 70 82 bd
       0.35596874 0.14679816 -0.05601281 -0.06369185
0000a0 0e 54 93 3d 5c 11 ef 3c 98 10 3c bc 59 27 0c 3e
       0.071937665 0.029183082 -0.011478566 0.13686885
0000b0 ce 1e b8 bc 25 2b 7f be b4 30 fc bd c4 54 51 3e
       -0.022475626 -0.24918802 -0.12313977 0.20442492
0000c0 cc 63 98 3d cc c3 1f 3e 6c 67 73 3a 8f 13 17 be
       0.0744091 0.15602034 0.00092851254 -0.14753555
0000d0 0b bb 04 3d 08 33 5d 3c 91 8d e6 bd 4b 87 e4 bc
       0.03240494 0.013500936 -0.112574704 -0.027896544
0000e0 9a 76 38 be 0c f7 1e 3e 48 4b 83 bd bb 03 c8 3c
       -0.18013993 0.15523928 -0.06410843 0.024415841
0000f0 b5 ac 4b 3d 21 ff 25 bd de 3c 91 3e 8c 30 d0 be
       0.049725253 -0.040526513 0.2836675 -0.40662038
000100 e6 0f 4a be d3 0a 50 bd b2 e5 05 be 4e 4c be bd
       -0.19732627 -0.050791573 -0.13075903 -0.09291898
000110 1b 2a 83 bc 22 6c 37 3e 71 bb 91 3d 02 f8 84 ba
       -0.016011288 0.17912343 0.0711583 -0.0010144713
000120 4b c7 83 bd 4f 4e be bd 43 3c 5e bc 64 ea 27 3e
       -0.064344965 -0.0929228 -0.013564172 0.16398007
000130 1c 6b cb 3d ac 07 97 3c 24 82 0a be 6f c0 22 bd
       0.09932539 0.018436275 -0.13526207 -0.0397343
000140 af d8 62 bd 2e 5d 71 3e 0f a7 46 3e 33 f0 0f 3d
       -0.055382427 0.23570701 0.19399665 0.03514118

_module.fc3.weight f4 [10, 84]
000000 19 f4 85 3c 68 2b ab bc ef 08 fd bd 46 ce 18 bd
       0.016351746 -0.020894721 -0.123552196 -0.037306093
000010 83 45 5f 3d cd 97 8b be a6 64 30 3d 59 8c 25 be
       0.05450965 -0.27264252 0.043064736 -0.1616682
000020 d0 2e 0a 3e 93 87 da 3d b6 05 05 be c5 35 21 3e
       0.1349442 0.1067039 -0.1299046 0.15743168
000030 cc 09 1a be 23 5e 0b be f3 d6 b0 bd 27 ab 4b be
       -0.150428 -0.13610129 -0.08634748 -0.19889508
000040 be 8b 4c 3d 77 93 d3 bd 96 74 75 bd 1a 62 9f 3e
       0.049937956 -0.10330861 -0.05992564 0.31129533
000050 f2 db a8 be 4f 9c f2 3d 10 f0 60 3e 84 9d f9 be
       -0.32980305 0.1184622 0.21966577 -0.48752987
000060 f4 f9 18 3e 7e ba a5 bc 2f 19 b0 3d 56 d6 d2 3e
       0.149391 -0.020230528 0.085985534 0.4117915
000070 71 d1 27 be ac 36 85 bd 42 bd c0 bd 9c 15 68 3e
       -0.1638849 -0.065045685 -0.09411098 0.22664493
000080 31 83 43 3e b9 50 1d be 41 04 6e be 89 80 56 bd
       0.19093014 -0.15362824 -0.2324381 -0.052368674
000090 24 df a0 3d 6a 57 b5 bc f0 9c 82 3d 20 38 e8 bd
       0.07855061 -0.022136409 0.0637759 -0.1133883
0000a0 f4 de 72 be 3e 8c a2 3e df 56 9d bd 76 af 32 3e
       -0.23717862 0.3174762 -0.07682585 0.17449746
0000b0 59 8d c7 3c 77 ca 8b 3c b8 2e 8c 3d 64 db f8 bd
       0.024359392 0.017064316 0.068448484 -0.121512204
0000c0 97 40 6e 3b be 04 8c be 01 06 b5 3b db a5 0a 3e
       0.0036354417 -0.27347368 0.0055243974 0.13539831
0000d0 ba ad 3e 3e 14 cb 3a be d3 76 0c 3c e1 44 b1 3d
       0.18620959 -0.1824153 0.008573252 0.08655716
0000e0 29 96 37 bd 83 ae 85 bd 29 bf a3 be 15 b6 0c 3c
       -0.04482094 -0.06527426 -0.3198178 0.008588334
0000f0 1b 59 31 3e d0 35 20 bc 5b 66 89 be 55 b1 02 bc
       0.17319147 -0.009778455 -0.26835904 -0.00797685
000100 bd 7e 7a 3e 16 ff 69 be 1e fc 76 bc a5 09 00 3e
       0.2446241 -0.22851214 -0.015074758 0.12503679
000110 fb 8d f4 bd 96 0a ba 3d 09 dc 98 3d 11 a4 79 bc
       -0.11941143 0.0908405 0.074638434 -0.01523687
000120 7c d5 5f 3c a0 56 2b be 18 86 e3 be dc 0b 39 be
       0.0136617385 -0.16732264 -0.44438243 -0.1807093
000130 2b 7b 44 3e 1c 01 0e be e2 90 28 3e 9d 6d 21 be
       0.1918761 -0.1386761 0.16461518 -0.1576447
000140 e7 a0 14 3e 41 6e 01 3c b1 d1 58 bd ee 37 bb 3a
       0.14514504 0.007899822 -0.052934352 0.0014283636
000150 9a 7a 63 bc b2 63 aa be 63 28 94 bd 83 57 91 3d
       -0.013884211 -0.33279186 -0.07234266 0.0709677
000160 ca 6a 7a 3e b0 fc ad bd 37 b0 0b be 79 c9 bd 3d
       0.244548 -0.08495462 -0.1364144 0.092669435
000170 f6 bd 45 bc 6f 71 1b be c8 6c 15 3e 5c 2f 3f 3e
       -0.012069216 -0.1517999 0.14592278 0.1867041
000180 ac f9 c1 3e fd 8e 0c 3e 29 86 e5 bc e8 6f 85 bc
       0.37885797 0.1372642 -0.028018074 -0.016288713
000190 59 cf 02 3e c3 e2 57 bd 1c f8 8c 3e 6e 1b 8a 3d
       0.1277441 -0.05270649 0.27533042 0.06743513
0001a0 67 bf 3c be 2a ba 94 3d 9d b8 4a be 74 37 0c be
       -0.18432389 0.072620705 -0.19796987 -0.13693029
0001b0 e3 d8 2a 3e ec 34 c4 3d 57 af 88 be 19 23 17 be
       0.16684298 0.095804065 -0.26696274 -0.14759482
0001c0 23 af 66 3e 18 60 92 3e a2 df ea bc 44 da 26 be
       0.22527747 0.2858894 -0.02867109 -0.16294199
0001d0 e4 cd b1 bc 7a c2 98 3d 99 08 47 be 20 ad d9 bb
       -0.021704622 0.074589685 -0.19436873 -0.0066429526
0001e0 cd 80 05 be 8b 4b a0 be 96 b4 fe bd 7b 55 6c 3d
       -0.13037415 -0.31307635 -0.12436788 0.057698708
0001f0 51 1b 73 be d1 8d 32 3d 74 7b 47 3e ea 45 4b bb
       -0.23740889 0.043592278 0.19480687 -0.0031017014
000200 85 7c 50 3d 84 9f 45 be 1c b9 4e 3d b0 58 57 bd
       0.0509 -0.19299132 0.050469503 -0.052574813
000210 68 bc 95 3b c0 f4 39 3e 88 d4 30 ba 9d c6 0f be
       0.004569579 0.18159771 -0.0006745537 -0.14040609
000220 1f dc 92 3c 51 69 38 be 5a 77 bb bd 3b 09 99 3c
       0.017927228 -0.18008925 -0.09153624 0.01868116
000230 73 79 ea 3d b5 21 d3 3e 0b 88 30 be 1f d8 3f 3e
       0.11448946 0.41236654 -0.17239396 0.18734787
000240 56 32 a5 be 68 71 ae bd 21 21 39 bd 7e 7a 7b be
       -0.32264966 -0.08517724 -0.04519761 -0.24558446
000250 a6 89 11 3e 70 5b 2f bb f8 4e 73 bd b0 51 93 3d
       0.14212665 -0.0026757382 -0.059401482 0.07193315
000260 1f c2 40 be ae 74 50 bd de 59 fd bd 23 b7 80 3e
       -0.18824051 -0.050892524 -0.123706564 0.25139722
000270 d4 c5 84 bc 59 ec 0f bd 7d 84 9f 3e 9e 8a 87 3e
       -0.016207613 -0.035137508 0.31155768 0.26472944
000280 a3 8a 03 be 36 fa 86 3d 7a 73 1d 3d c6 45 aa 3d
       -0.12845854 0.06590693 0.038440205 0.083140895
000290 76 9f 2c bd 44 1d a6 3d 18 07 e7 bd 82 59 47 3e
       -0.04214426 0.08111051 -0.1128065 0.19467738
0002a0 90 fd e9 bd 83 b6 10 be e5 d9 a0 3e c1 08 3f 3d
       -0.11425316 -0.14132123 0.3141624 0.046639208
0002b0 bd e9 59 3d 82 83 d0 bd 84 56 eb 39 5d 2f 4f 3d
       0.053201426 -0.10181333 0.00044887152 0.05058228
0002c0 1c aa 22 3e ba ed 01 3d 01 19 ba bd 54 83 ed 3d
       0.15885204 0.031720854 -0.090868 0.115973145
0002d0 16 4f 08 bd 00 6a b4 bd 0c 84 8d be 46 17 37 3d
       -0.033278547 -0.088092804 -0.27639806 0.04469993
0002e0 ec fe c8 bd 0a eb 89 be 36 09 ae 3e f7 ac 52 3e
       -0.098142475 -0.26937133 0.33991402 0.20573793
0002f0 d9 a6 81 3e a4 1d c5 bd 7d d3 55 3b be 87 13 be
       0.25322607 -0.09624794 0.0032627278 -0.1440725
000300 10 26 bc bd e1 95 63 be b3 5a 12 bd 32 9e 44 bd
       -0.09186947 -0.22225143 -0.03573103 -0.04800243
000310 8b 2e e6 3b 48 cb cd bc b9 a9 0c 3e 50 d0 3b bc
       0.0070245913 -0.025121346 0.13736619 -0.01146324
000320 c7 e8 50 3e f3 7a 81 3e ec a5 99 3e a1 be 5e 3e
       0.20401298 0.25289115 0.300094 0.21752407
000330 c1 d0 89 3c f8 80 98 3d 82 a5 f0 bd af e1 df 3e
       0.016823174 0.07446474 -0.11750318 0.4372687
000340 ee 5f 83 3e a9 b0 a3 3d e0 bd 4e be 85 df 9a 3d
       0.25659126 0.079926796 -0.20189619 0.07562164
000350 11 c7 df bc f2 46 3f be f0 c8 29 be 00 a5 91 be
       -0.027316602 -0.18679407 -0.16580558 -0.28446198
000360 7a 08 e5 3c eb 41 05 3d 75 c8 bd bd cf a6 75 be
       0.027958144 0.032533567 -0.0926675 -0.23989414
000370 21 bb 3e 3d 7c e4 87 bc 81 97 8a 3b 3d 79 93 bd
       0.04656518 -0.016588442 0.0042294865 -0.07200859
000380 e1 08 64 3e 3d 1b 05 3e 69 08 72 3d 1a 0b 71 be
       0.22269012 0.12998672 0.05909005 -0.23539391
000390 d3 e4 cc bb ce 85 39 3d 92 d6 86 3d d5 25 90 be
       -0.006252864 0.04529362 0.06583895 -0.28153864
0003a0 61 a8 ed bd 13 d8 82 3e 54 67 78 bc 4e e2 a2 3e
       -0.11604381 0.25555477 -0.015161354 0.31813282
0003b0 48 28 a2 3d 95 ca f8 3d 1c 2d eb bb 58 8c 3d 3d
       0.07917839 0.121480145 -0.0071770083 0.04627642
0003c0 ec 65 b3 bd 9c af 2c be 36 bc ea bd 26 1a ca 3c
       -0.087596744 -0.16863865 -0.1146168 0.024670672
0003d0 ca b8 c2 bc 74 b9 96 3c 46 c4 6e 3e d2 c6 a6 be
       -0.023769755 0.018398978 0.2331706 -0.32573563
0003e0 81 4b 34 be 41 09 b9 bc a7 39 d8 3e 95 f5 43 3e
       -0.17606927 -0.02258742 0.42231485 0.19136651
0003f0 a7 29 57 3e e8 97 c8 be 18 a3 6a be 4d 17 85 3e
       0.21011983 -0.39178395 -0.22913778 0.2599434

_module.fc3.bias f4 [10]
000000 37 aa cc bd a5 1b 0f 3e 47 e7 db bc 11 8d a9 bd
       -0.099934034 0.1397539 -0.02684368 -0.082788594
000010 ce f4 1c bd ed 70 85 bd 12 63 e3 be 84 c4 e1 bd
       -0.0383194 -0.065156795 -0.44411522 -0.110238105
000020 db b2 f5 3d 1e a6 88 be
       0.119970046 -0.26689237
