dp_lenet_code/dp_lenet_plots/lenet_noise_0.635_gradnorm_1.1.pt (torch, 251066 bytes, 10 tensors)

_module.conv1.weight f4 [6, 1, 5, 5]
0.37410086 0.3371321 0.18927185 0.3386874 0.039559096 0.48145205 0.2768892 0.59784186
0.58164555 0.110694714 0.469206 0.5966544 0.6376644 0.3793304 0.3530692 0.22819267
0.63204426 0.38722256 0.038075306 0.24109487 -0.2602456 0.027028931 -0.045007247 0.19429252
-0.1700095 0.08067184 -0.2179153 0.15193805 0.10397452 -0.16520765 0.124679536 -0.25836214
0.2525815 0.11591708 0.06882439 0.15284018 0.05713297 0.6152783 0.4095949 0.044056267
0.21786772 0.27956805 0.54167145 0.58138627 0.404395 0.13151686 0.25999457 0.17060077
0.2053155 -0.03385002 -0.1755341 0.062313177 0.067910306 0.35952207 0.120356396 0.12421754
0.22434072 0.19223686 0.18775395 -0.23900215 0.09460422 0.16302659 0.19335848 -0.0032144096
-0.1148772 0.103628606 0.47235456 -0.0051208264 -0.13749324 -0.31128827 0.38398495 0.2350858
0.31391987 -0.26648203 -0.2996633 -0.18203892 -0.27475408 0.1824674 0.07747925 0.16780667
-0.16810611 0.08266097 0.21698284 0.054202706 0.21714915 -0.014118986 0.26483846 0.044005338
-0.09448511 0.02481922 0.12409814 -0.11929976 0.17700806 0.094984844 0.055013604 -0.23171993
0.17067881 0.055180475 -0.24759322 -0.23866205 -0.34971932 0.031094609 -0.081498995 -0.15660682
-0.07213122 -0.09776654 -0.22715558 -0.3393158 -0.098862216 -0.27368525 0.043775406 -0.014641986
0.009459026 -0.05648445 -0.27997753 0.0018884357 -0.016393188 -0.1235313 -0.12871504 -0.0652033
-0.042281196 -0.07703509 -0.08960681 -0.18086548 -0.19064888 0.0892388 0.0420887 -0.046515413
0.30896118 0.0016272326 -0.08247337 0.009574696 -0.04532603 0.07317166 -0.10341146 -0.047257
-0.21040055 -0.2767029 0.08615573 -0.013633063 0.2042074 -0.080440156 -0.0077165947 -0.17126611
0.07329009 -0.035848547 0.13088888 0.24754392 0.3777411 -0.009217902
00000000: 268a bf3e 949c ac3e 7bd0 413e 6f68 ad3e
00000010: b808 223d e280 f63e 6cc4 8d3e 2a0c 193f
00000020: b9e6 143f e9b3 e23d c53b f03e 58be 183f
00000030: f93d 233f 9837 c23e 7cc5 b43e 57ab 693e
00000040: a7cd 213f 0942 c63e daf4 1b3d 93e1 763e
00000050: e93e 85be c76b dd3c 8559 38bd 9ef4 463e
00000060: f816 2ebe 4737 a53d 3025 5fbe a695 1b3e
00000070: 98f0 d43d 322c 29be fc57 ff3d 0b48 84be
00000080: 5d52 813e ef65 ed3d cdf3 8c3d 2382 1c3e
00000090: 4304 6a3d e182 1d3f 6cb6 d13e 5874 343d
000000a0: b718 5f3e 8b23 8f3e fbaa 0a3f bbd5 143f
000000b0: dd0c cf3e 5bac 063e 021e 853e f8b1 2e3e
000000c0: 3a3e 523e 52a6 0abd 36bf 33be 1a3c 7f3d
000000d0: 8f14 8b3d 4713 b83e 6a7d f63d c465 fe3d
000000e0: 93b9 653e bdd9 443e 9242 403e fbbc 74be
000000f0: dbbf c13d 71f0 263e c4ff 453e d8a8 52bb
00000100: bd44 ebbd 3c3b d43d 75d8 f13e 9bcc a7bb
00000110: 07cb 0cbe 2d61 9fbe ad99 c43e 55ba 703e
00000120: 1bba a03e 5570 88be 786d 99be 6968 3abe
00000130: 91ac 8cbe bcd8 3a3e 71ad 9e3d 83d5 2b3e
00000140: 0224 2cbe 284a a93d c030 5e3e a803 5e3d
00000150: 595c 5e3e 5253 67bc e898 873e f13e 343d
00000160: 6981 c1bd ad51 cb3c 2a27 fe3d 6f53 f4bd
00000170: 9a41 353e 6a87 c23d f255 613d fd47 6dbe
00000180: 6dc6 2e3e ec04 623d 1489 7dbe d363 74be
00000190: 690e b3be 1fba fe3c f2e8 a6bd 8a5d 20be
000001a0: 88b9 93bd d339 c8bd 799b 68be cdba adbe
000001b0: 4678 cabd 7920 8cbe d74d 333d f1e4 6fbc
000001c0: 08fa 1a3c 3d5c 67bd 3759 8fbe 6385 f73a
000001d0: 024b 86bc fafd fcbd e0cd 03be 4f89 85bd
000001e0: 0c2f 2dbd 93c4 9dbd c683 b7bd cd34 39be
000001f0: 7639 43be d5c2 b63d 3365 2c3d f286 3ebd
00000200: 2930 9e3e de48 d53a cce7 a8bd 30df 1c3c
00000210: caa7 39bd 06db 953d 63c9 d3bd 8e90 41bd
00000220: 3e73 57be 01ac 8dbe 6a72 b03d 365d 5fbc
00000230: bf1b 513e cfbd a4bd 7ddb fcbb 6260 2fbe
00000240: 1d19 963d edd5 12bd bc07 063e 277c 7d3e
00000250: 4867 c13e af06 17bc

_module.conv1.bias f4 [6]
0.20113951 -0.023223896 0.01830298 -0.15809686 0.17374206 -0.3122761
00000000: 84f7 4d3e 0a40 bebc 22f0 953c 25e4 21be
00000010: 70e9 313e a7e2 9fbe

_module.conv2.weight f4 [16, 6, 5, 5]
0.09436126 0.025792481 0.20299195 -0.03913733 0.13773105 0.09073313 0.019699091 -0.02321403
0.16826455 -0.13697304 -0.025576726 0.123780385 0.23841418 -0.13171999 -0.08144095 -0.041513477
0.13523029 0.11298043 -0.08867 0.047562633 -0.053258084 0.20171334 -0.022782039 -0.106725745
-0.23766607 0.15153621 0.029577924 -0.0039348863 0.087687224 0.14870147 -0.06608802 -0.07070207
0.0553267 0.12738334 -0.10903274 -0.13944453 0.09129585 0.028296044 -0.111977205 -0.15288806
0.12691379 -0.07999395 0.019427316 -0.01668217 -0.14968815 -0.022392645 0.25553402 0.010194651
-0.11703434 -0.07005427 -0.16495143 -0.13777849 -0.01672926 -0.08831918 0.16889751 0.028773783
-0.08252122 0.03490415 0.055421256 0.09099754 -0.03149068 0.08171036 0.057765562 0.11746306
-0.13081187 0.1988021 0.1948068 0.20731838 -0.07519932 -0.08927889 0.076961346 0.06917374
0.02912104 -0.040326398 -0.012421646 -0.013935875 0.1387833 0.12118868 0.1456686 -0.11363609
-0.013298492 -0.040990017 -0.12239663 0.036142725 -0.02069159 -0.07071665 0.06348553 -0.10421543
-0.005229046 -0.084382474 -0.1386198 -0.031257298 -0.06480146 -0.16918114 -0.12081656 0.055061385
-0.04536112 -0.11643518 -0.18770999 0.050578345 0.043936715 0.1497922 0.13416211 0.004156823
0.0036880004 0.13462354 0.10149613 -0.011945818 0.15564595 0.04861301 -0.08137826 -0.069982655
-0.14637545 0.057916902 0.05835099 -0.099632405 -0.012926745 0.11691999 0.27061042 -0.069581516
-0.14520434 0.0060520917 0.116944306 -0.11807782 -0.055313293 -0.072354905 0.11516288 -0.01388032
-0.12690714 -0.1126029 -0.0138163185 0.18379864 0.081283845 -0.12111905 -0.0088773575 -0.03691467
0.040871505 -0.24275608 -0.016922262 -0.063772306 -0.029474713 0.006152528 -0.20016071 -0.029083809
-0.1502944 0.014266429 0.08178738 -0.10312851 0.0041727023 0.096915044 -0.0049715377 0.039576806
-0.06516925 -0.027573695 0.14458358 0.063664265 -0.044255555 0.31311604 0.19089922 0.11394543
-0.06925035 0.094057985 0.029007327 -0.008847044 0.07235387 -0.034698796 0.049263787 0.10973061
0.0102904355 -0.12823343 -0.11195893 -0.05621512 -0.11481653 0.12968649 -0.050732616 -0.096065946
-0.04253258 -0.12471732 0.19367655 0.12588878 0.09684604 0.2057767 0.030721111 -0.013760961
-0.080193065 -0.21420564 -0.06565995 -0.07592237 -0.10879246 -0.06344099 -0.035829473 -0.1830067
-0.132044 0.06483238 0.050782125 0.16991735 0.12838659 -0.015845548 -0.07023142 0.11938025
0.056851234 -0.007917336 -0.21289945 0.051591724 -0.011784975 0.039302748 0.02448995 0.12157662
-0.092797354 0.09361326 0.055954497 -0.11689904 -0.17413373 0.008192197 0.12315065 0.015900029
-0.15739596 0.07475549 -0.12555823 -0.04068046 0.07484518 -0.010738558 0.0055644484 -0.15449977
0.04394346 -0.0811395 -0.11424119 0.026239322 0.07593074 0.12895274 -0.12105959 -0.09742668
-0.016473038 -0.062394578 0.002379878 -0.11302682 0.13549432 0.073965475 0.0470229 -0.17920281
-0.0104073435 -0.03703752 0.041112773 0.023852263 -0.09249714 -0.03198366 -0.09150635 -0.15500997
-0.11504253 -0.13501984 -0.18015169 -0.15755259 -0.1153559 -0.09416675 -0.01357253 -0.023699015
00000000: 7a40 c13d c14a d33c 1fdd 4f3e 774e 20bd
00000010: 5e09 0d3e 4bd2 b93d fd5f a13c 592b bebc
00000020: 8b4d 2c3e a942 0cbe 4886 d1bc 9280 fd3d
00000030: d922 743e 9be1 06be 83ca a6bd 090a 2abd
00000040: cf79 0a3e 4962 e73d 9e98 b5bd 09d1 423d
00000050: 2625 5abd f18d 4e3e 66a1 babc 0793 dabd
00000060: bc5e 73be 4f2c 1b3e 674d f23c 38f0 80bb
00000070: 5c95 b33d 3345 183e 2859 87bd 3fcc 90bd
00000080: 409e 623d c770 023e 8f4c dfbd 8cca 0ebe
00000090: 52f9 ba3d 1bcd e73c 4e54 e5bd b08e 1cbe
000000a0: b0f5 013e ded3 a3bd 0926 9f3c 0ca9 88bc
000000b0: da47 19be c870 b7bc 5bd5 823e 7707 273c
000000c0: b3af efbd 9d78 8fbd 07e9 28be ce15 0dbe
000000d0: cd0b 89bc b0e0 b4bd 78f3 2c3e ffb6 eb3c
000000e0: e300 a9bd a7f7 0e3d 6601 633d eb5c ba3d
000000f0: 5ffc 00bd c357 a73d 959b 6c3d 7990 f03d
00000100: 8cf3 05be c792 4b3e 6f7b 473e 454b 543e
00000110: 1a02 9abd dad7 b6bd e99d 9d3d f6aa 8d3d
00000120: 3f8f ee3c 4b2d 25bd 2984 4bbc 4c53 64bc
00000130: 361d 0e3e c531 f83d 262a 153e 0aba e8bd
00000140: ebe1 59bc 26e5 27bd 16ab fabd 650a 143d
00000150: 6981 a9bc e4d3 90bd b404 823d e66e d5bd
00000160: 6b58 abbb b8d0 acbd 59f2 0dbe a707 00bd
00000170: a1b6 84bd d23d 2dbe ac6e f7bd 0c88 613d
00000180: 95cc 39bd 9175 eebd 0c37 40be 3d2b 4f3d
00000190: fcf6 333d 2063 193e cb61 093e f535 883b
000001a0: 61b2 713b c1da 093e 34dd cf3d 64b8 43bc
000001b0: a761 1f3e 701e 473d a5a9 a6bd 1153 8fbd
000001c0: 72e3 15be 463a 6d3d 7301 6f3d 130c ccbd
000001d0: b3ca 53bc bf73 ef3d 738d 8a3e c180 8ebd
000001e0: 72b0 14be a050 c63b 7f80 ef3d c9d2 f1bd
000001f0: 3190 62bd cf2e 94bd 84da eb3d 486a 63bc
00000200: f2f3 01be 599c e6bd d75d 62bc b635 3c3e
00000210: 2578 a63d 440d f8bd 5672 11bc d633 17bd
00000220: e168 273d 0d95 78be 8ea0 8abc 0e9b 82bd
00000230: f474 f1bc 259b c93b eef6 4cbe 2b41 eebc
00000240: c6e6 19be bdbd 693c 2480 a73d 0a35 d3bd
00000250: 2abb 883b 657b c63d 48e8 a2bb 4a1b 223d
00000260: 7577 85bd 3be2 e1bc b80d 143e 6962 823d
00000270: 5045 35bd bf50 a03e 167b 433e 395c e93d
00000280: 21d3 8dbd 79a1 c03d c6a0 ed3c 31f3 10bc
00000290: 442e 943d 5320 0ebd d3c8 493d 71ba e03d
000002a0: 3799 283c a04f 03be b94a e5bd d341 66bd
000002b0: ee24 ebbd 89cc 043e 01cd 4fbd 39be c4bd
000002c0: a536 2ebd cb6b ffbd 2553 463e fde8 003e
000002d0: 3757 c63d 21b7 523e d7aa fb3c a775 61bc
000002e0: 433c a4bd b958 5bbe b978 86bd 307d 9bbd
000002f0: 95ce debd 5aed 81bd edc1 12bd 1c66 3bbe
00000300: 8b36 07be d7c6 843d eb00 503d d0fe 2d3e
00000310: c677 033e 86ce 81bc 7ed5 8fbd a27d f43d
00000320: d7dc 683d b7b7 01bc 5002 5abe d851 533d
00000330: c515 41bc ebfb 203d 269f c83c 2afd f83d
00000340: 8a0c bebd 4fb8 bf3d 8b30 653d c468 efbd
00000350: 1d50 32be 9138 063c 6836 fc3d c740 823c
00000360: 682c 21be 6819 993d 5692 00be 8ea0 26bd
00000370: 6e48 993d c7f0 2fbc fa55 b63b 3035 1ebe
00000380: 0ffe 333d 772c a6bd 49f7 e9bd d9f3 d63c
00000390: 9381 9b3d 300c 043e 17ee f7bd a487 c7bd
000003a0: 77f2 86bc 7591 7fbd baf7 1b3b 9b7a e7bd
000003b0: 06bf 0a3e 367b 973d 169b 403d f180 37be
000003c0: 9083 2abc a8b4 17bd de65 283d d265 c33c
000003d0: 246f bdbd 4c01 03bd ae67 bbbd efba 1ebe
000003e0: 6b9b ebbd a442 0abe af79 38be 7755 21be
000003f0: b73f ecbd 7fda c0bd 515f 5ebc 7024 c2bc

_module.conv2.bias f4 [16]
0.04719428 0.06529256 0.020467903 -0.015885867 0.08503165 0.11453314 0.10799704 0.08795989
0.06386053 -0.014828733 -0.091226056 0.12232647 0.06809346 0.025555305 -0.20244947 0.104654305
00000000: ca4e 413d 1bb8 853d 4eac a73c 1423 82bc
00000010: 1325 ae3d 5a90 ea3d 8d2d dd3d 5124 b43d
00000020: 4fc9 823d 37f4 72bc bad4 babd 4d86 fa3d
00000030: 9574 8b3d 5c59 d13c ea4e 4fbe ff54 d63d

_module.fc1.weight f4 [120, 400]
-0.19113562 0.11303113 -0.0051504835 0.09143446 -0.09878322 -0.029161518 -0.13806938 -0.08600239
0.064768724 -0.0871908 0.17010689 0.0013554466 -0.050660875 -0.06610775 -0.0118342275 0.14577007
-0.008000662 -0.11706981 -0.033354748 -0.08584478 0.06130505 0.036539692 -0.085714646 0.06868669
-0.05406837 0.05910441 -0.045108847 0.024668857 0.026951456 -0.13189739 0.09539737 0.13567477
0.04257468 0.093186 0.007911661 -0.06535398 -0.14184573 0.045529306 0.03292244 -0.08773017
0.022695655 -0.053173427 -0.22644384 0.21455497 0.017750682 0.05139087 -0.02174337 -0.18171667
0.09984679 0.15346746 -0.19358253 0.022656385 0.10596665 0.08616431 -0.10113666 0.095437646
0.121389605 0.009092297 -0.01516078 0.22911492 -0.0014688111 0.084346145 0.015171923 -0.14528868
0.082132645 -0.008225429 -0.06837444 0.15024246 0.16290367 -0.04718614 0.1807587 0.028231777
0.019960852 0.10634536 -0.025650144 -0.09241671 -0.018942729 -0.032926574 0.17014952 0.05873967
0.05029961 -0.12563267 0.03558079 -0.023528427 0.075934015 -0.1989251 0.092582665 -0.10950725
-0.06292347 -0.24661848 0.0056636604 -0.06619597 0.030265963 -0.09357 0.015810028 -0.14856832
0.05200129 -0.030113677 -0.059630208 0.033353038 0.07075842 -0.015838735 -0.17362432 0.008293725
0.081364565 -0.17061022 -0.054350037 -0.19977014 0.109287106 -0.10258658 0.07994205 0.05395966
-0.024931973 0.07947426 -0.010476428 -0.033979077 -0.14421722 0.12504296 0.019628769 -0.06662695
-0.029358355 -0.12132859 0.08197254 0.030813938 -0.12317758 0.123837575 0.023393536 -0.0978265
-0.047972716 0.028384797 0.19144861 -0.041826684 0.008842781 0.072647214 0.02696989 0.016590247
0.05159443 -0.044227336 0.043300144 -0.01984507 -0.062420424 0.0140763065 0.063649654 -0.086459585
0.07326753 0.029394448 -0.10693791 0.14250597 -0.10954441 0.052476503 -0.09845138 0.107879624
0.045771345 -0.1545111 0.13218275 -0.061514217 0.037493173 0.038192276 -0.0098094195 0.24658406
-0.16229768 0.13541812 0.09696474 0.064596266 -0.0517196 0.19318174 0.06071878 -0.03894602
-0.035321437 -0.028440574 0.15479858 0.120365165 0.008566395 0.08509429 -0.11277698 0.15728179
0.0071179215 -0.001942649 0.10277672 0.07131826 0.17453463 -0.018152617 0.120791495 0.013244944
-0.011654228 0.0012953128 -0.0135545675 -0.042394817 -0.007351182 0.034398627 0.028727131 0.110171065
0.02515124 0.056187227 -0.08428836 0.11530931 -0.07133526 0.13850376 -0.19574335 0.04410043
-0.073241055 -0.0684696 -0.105304696 0.16157402 -0.0747432 -0.02258853 0.0638932 0.03595605
0.074889086 -0.042537425 0.16817793 0.011077737 0.00719498 0.10137057 -0.1739294 0.17077917
0.093808904 -0.08025854 -0.13921162 -0.010541378 -0.016879274 -0.030601239 -0.09513042 0.100485995
-0.058721144 -0.06424401 0.010223447 0.073598646 -0.11239731 0.038467623 0.17289044 -0.11292134
-0.062347632 -0.067080155 0.03616838 -0.006866005 0.11247403 -0.05957413 0.037337523 -0.07779045
-0.068212815 0.07742798 -0.037562598 -0.0254932 0.14304549 0.01893765 -0.0071091135 0.13678953
0.052848075 -0.01981589 -0.10877377 -0.028990708 0.028710827 0.028221387 0.038155053 0.040398356
00000000: 0eb9 43be dd7c e73d 63c5 a8bb fd41 bb3d
00000010: db4e cabd 23e4 eebc 0f62 0dbe 0522 b0bd
00000020: 77a5 843d 1791 b2bd 8030 2e3e 3ea9 b13a
00000030: c781 4fbd 8063 87bd 59e4 41bc c044 153e
00000040: 3515 03bc 4cc2 efbd fd9e 08bd 63cf afbd
00000050: 011b 7b3d a5aa 153d 298b afbd 9bab 8c3d
00000060: cc76 5dbd 7717 723d 0ec4 38bd 5816 ca3c
00000070: 4dc9 dc3c 1c10 07be b25f c33d 54ee 0a3e
00000080: ca62 2e3d 4dd8 be3d e99f 013c 4fd8 85bd
00000090: 0240 11be f07c 3a3d aed9 063d e0ab b3bd
000000a0: 3dec b93c 61cc 59bd e5e0 67be 4cb4 5b3e
000000b0: e169 913c 3c7f 523d 271f b2bc ef13 3abe
000000c0: 797c cc3d 9326 1d3e 803a 46be e299 b93c
000000d0: 0b05 d93d ea76 b03d bd20 cfbd d074 c33d
000000e0: 1d9b f83d dcf7 143c ec64 78bc 1a9d 6a3e
000000f0: 1f85 c0ba acbd ac3d a893 783c 8ec6 14be
00000100: 2935 a83d f3c3 06bc e607 8cbd 29d9 193e
00000110: 38d0 263e 4146 41bd cf18 393e 5446 e73c
00000120: f184 a33c 99cb d93d 4020 d2bc f944 bdbd
00000130: c82d 9bbc 04de 06bd ad3b 2e3e 0299 703d
00000140: f706 4e3d daa5 00be 2abd 113d b0be c0bc
00000150: 4b83 9b3d 05b3 4bbe fb9b bd3d 5645 e0bd
00000160: 05de 80bd 8e89 7cbe 3a96 b93b c191 87bd
00000170: 53f0 f73c a1a1 bfbd 0884 813c 4b22 18be
00000180: 4eff 543d f5b0 f6bc ce3e 74bd 329d 083d
00000190: cae9 903d 3cc0 81bc 93ca 31be 67e2 073c
000001a0: 77a2 a63d 72b4 2ebe 259e 5ebd 8b90 4cbe
000001b0: ebd1 df3d ea18 d2bd a8b8 a33d ce04 5d3d
000001c0: 233e ccbc 67c3 a23d 53a5 2bbc a52d 0bbd
000001d0: aead 13be 430b 003e 83cc a03c b673 88bd
000001e0: ef80 f0bc 207b f8bd 38e1 a73d 836d fc3c
000001f0: 8744 fcbd 8e9e fd3d cda3 bf3c 4359 c8bd
00000200: 0a7f 44bd 3c87 e83c 1b0b 443e 7552 2bbd
00000210: 50e1 103c 10c8 943d f5ef dc3c 45e8 873c
00000220: ae54 533d b927 35bd 7e5b 313d 2192 a2bc
00000230: 8fac 7fbd 4fa0 663c c05a 823d b911 b1bd
00000240: 490d 963d a0cc f03c 4302 dbbd 16ed 113e
00000250: d258 e0bd 9af1 563d e1a0 c9bd feef dc3d
00000260: bc7a 3b3d 2838 1ebe ea5a 073e 55f6 7bbd
00000270: 7192 193d 816f 1c3d b0b7 20bc 8880 7c3e
00000280: 5d31 26be 0cab 0a3e 7395 c63d 0c4b 843d
00000290: eed7 53bd 6fd1 453e 41b4 783d dd85 1fbd
000002a0: 36ad 10bd 35fc e8bc 8583 1e3e 0382 f63d
000002b0: 115a 0c3c ea45 ae3d 9ef7 e6bd 7a0e 213e
000002c0: 743d e93b 7ca0 feba 9a7c d23d 4f0f 923d
000002d0: 35b9 323e ccb4 94bc 8861 f73d 5201 593c
000002e0: 60f1 3ebc 7cc7 a93a fa13 5ebc 30a6 2dbd
000002f0: 2fe2 f0bb 93e5 0c3d 2955 eb3c 5ea1 e13d
00000300: f909 ce3c 9424 663d 609f acbd 4a27 ec3d
00000310: 3918 92bd eed3 0d3e f270 48be a7a2 343d
00000320: 68ff 95bd ca39 8cbd fda9 d7bd a973 253e
00000330: f612 99bd 950b b9bc 70da 823d a746 133d
00000340: 735f 993d b93b 2ebd d636 2c3e 667f 353c
00000350: dec3 eb3b 609b cf3d 8c1a 32be bce0 2e3e
00000360: e21e c03d 975e a4bd 7e8d 0ebe beb5 2cbc
00000370: 6746 8abc 73af fabc bdd3 c2bd 9acb cd3d
00000380: 9585 70bd 5d92 83bd 3f80 273c e3ba 963d
00000390: 9030 e6bd 3a90 1d3d 310a 313e 4e43 e7bd
000003a0: 3b60 7fbd 5261 89bd 4c25 143d 39fc e0bb
000003b0: c958 e63d 0104 74bd 3bef 183d 9950 9fbd
000003c0: 29b3 8bbd 9092 9e3d 3ddb 19bd 1ed7 d0bc
000003d0: 847a 123e 2123 9b3c 91f3 e8bb 8e12 0c3e
000003e0: 3977 583d ef54 a2bc c8c4 debd ec7d edbc
000003f0: f832 eb3c 8a30 e73c 7948 1c3d bf78 253d

_module.fc1.bias f4 [120]
-0.014293382 -0.004295533 -0.11171875 0.053565722 -0.061594523 -0.13513574 -0.10894993 -0.13264722
0.038916357 -0.04040464 0.03395345 0.0515947 0.061924074 -0.05303911 -0.013368435 -0.057335954
0.13628761 0.00070326065 0.14748937 -0.10138306 -0.03686901 -0.02982185 -0.07405589 -0.061954413
-0.1528375 0.14563659 0.04416943 0.01203891 0.08061392 0.09396407 0.128315 -0.03517464
-0.084845155 -0.023494411 0.026938228 -0.0134661915 -0.07317255 0.09929843 -0.21263957 0.05179182
0.022294424 0.16296335 0.14602052 0.04240619 -0.054118518 -0.028899409 -0.08620819 -0.01584363
-0.035419058 0.06977566 -0.020481087 -0.008813323 -0.01541951 0.05938817 0.11328674 0.16135088
0.06125103 0.015427271 0.055994447 0.056148775 0.20394094 -0.077952065 0.0060529406 0.018930733
0.003946053 -0.046213068 -0.032568656 0.09279152 0.22380395 0.06184294 -0.06770353 -0.17321287
-0.08415768 -0.092721745 -0.27551258 -0.008476769 0.04846617 -0.08648881 -0.06297374 0.024893267
-0.020019013 0.000421173 0.061917078 0.08339471 0.178695 -0.016185712 0.0363048 0.16120435
0.11430376 -0.026640706 0.0018142709 0.028358385 -0.18021612 0.029722398 0.041781135 -0.031606875
-0.08829012 0.0643556 -0.16710822 0.025046024 -0.045382496 0.102373555 0.003984656 0.07260045
0.026033953 -0.011743542 -0.076243535 -0.08411205 -0.07129271 0.103149645 -0.034389395 -0.08256045
-0.029357865 -0.13709047 -0.036807742 -0.026862357 0.002668775 -0.033774033 0.027550833 -0.03368988
00000000: ca2e 6abc 8bc1 8cbb cdcc e4bd bb67 5b3d
00000010: 8a4a 7cbd 0661 0abe 2421 dfbd acd4 07be
00000020: c266 1f3d 567f 25bd c612 0b3d f754 533d
00000030: 19a4 7d3d 8a3f 59bd 4807 5bbc 1bd9 6abd
00000040: fb8e 0b3e 065b 383a 7407 173e eca1 cfbd
00000050: f603 17bd f44c f4bc 9daa 97bd e9c3 7dbd
00000060: 6f81 1cbe c221 153e 01eb 343d d93e 453c
00000070: e918 a53d 3c70 c03d 0265 033e 4913 10bd
00000080: 4cc3 adbd 5a77 c0bc 8fad dc3c 4da1 5cbc
00000090: 7ddb 95bd fa5c cb3d 30be 59be a923 543d
000000a0: cca2 b63c dddf 263e 6786 153e 1db2 2d3d
000000b0: 61ab 5dbd 74be ecbc eb8d b0bd 80ca 81bc
000000c0: 9313 11bd 8be6 8e3d f4c7 a7bc c265 10bc
000000d0: 1da2 7cbc 0241 733d e102 e83d 2a39 253e
000000e0: 5ce2 7a3d aac2 7c3c 6f5a 653d 42fc 653d
000000f0: e5d5 503e 55a5 9fbd bf57 c63b a014 9b3c
00000100: e44d 813b ea49 3dbd b666 05bd 7b09 be3d
00000110: dd2c 653e 064f 7d3d 26a8 8abd b75e 31be
00000120: dd5a acbd e6e4 bdbd fc0f 8dbe 25e2 0abc
00000130: 7684 463d 0c21 b1bd 60f8 80bd f7ec cb3c
00000140: eafe a3bc e2d0 dc39 c39c 7d3d d9ca aa3d
00000150: d2fb 363e e697 84bc 58b4 143d c112 253e
00000160: 1718 ea3d 9c3d dabc d4cc ed3a d84f e83c
00000170: 938a 38be 637c f33c b222 2b3d 3676 01bd
00000180: 73d1 b4bd decc 833d 6b1e 2bbe 522d cd3c
00000190: ffe2 39bd 3aa9 d13d b891 823b 8baf 943d
000001a0: 2845 d53c fc67 40bc 9225 9cbd f042 acbd
000001b0: ea01 92bd 1f40 d33d e5db 0cbd 7415 a9bd
000001c0: e87f f0bc 7261 0cbe b7c3 16bd 720e dcbc
000001d0: 9de6 2e3b a456 0abd 49b2 e13c 66fe 09bd

_module.fc2.weight f4 [84, 120]
-0.05250507 -0.073068425 -0.05019854 0.2590093 0.07265815 -0.034409013 -0.060204696 0.12424919
0.1416319 -0.12332389 0.0038238547 0.063619666 -0.07601775 -0.13832486 0.17983584 0.012410793
0.015964247 -0.060739096 -0.03462782 0.010712186 0.0887016 -0.04730338 0.17681773 -0.048419215
0.25356764 -0.095223084 -0.02527577 -0.08877388 -0.15298842 -0.13535923 0.23098555 0.17442064
-0.018496457 0.013087802 0.04467433 -0.09088708 -0.051265545 0.18933722 -0.09709928 0.16781233
-0.09495666 -0.18254086 0.040968377 -0.093847856 0.021486811 0.024912767 -0.09961933 0.06593231
0.1525866 0.06589164 0.0069375113 -0.0441603 -0.13706939 -0.19992927 -0.053512353 0.021093413
0.0013742436 0.061709438 0.105889104 0.12484924 0.08015751 -0.1855744 0.14065278 -0.10066587
0.013968993 0.15852618 -0.022282807 0.061427936 0.05227981 0.076470196 0.013134423 -0.012596503
-0.15765806 -0.08099774 0.10299702 -0.045978323 -0.062304117 -0.19856603 -0.0038570527 0.025986161
0.03729172 -0.058993444 0.118174866 0.08546802 0.018801043 -0.082255065 0.035876215 0.058984745
-0.20246989 -0.030807478 0.1379947 -0.20464364 0.22260644 -0.11222635 0.010144089 0.12376128
-0.027036563 -0.18188766 0.05059801 -0.17967819 -0.1706354 -0.04420083 -0.19972031 -0.10378683
-0.004268443 0.12960802 0.071833305 -0.11638987 -0.04793769 -0.133035 -0.22029859 -0.23263504
0.052277416 -0.014909324 -0.1456437 -0.20122807 -0.19020395 -0.12047161 0.10674494 0.0339171
0.020707373 0.017246448 -0.11534233 -0.036341418 -0.11843373 -0.16266061 0.18616487 -0.021953546
0.050692163 -0.013927506 -0.15057337 -0.32947364 -0.24655671 0.011039288 0.008168272 -0.044808194
-0.11169513 -0.1804674 0.09693683 0.13122566 0.05511717 0.11769234 -0.22391693 0.030091511
-0.1157725 0.16057554 0.049775798 -0.053774938 0.16605349 -0.11485766 0.026529077 -0.25150234
-0.015563323 0.0062069646 0.17852047 -0.03536717 -0.09989559 0.039087817 0.12613831 -0.098925374
-0.16182648 0.07718471 0.06642212 0.022412056 0.10529374 0.011705877 -0.054887485 -0.088451385
0.078413926 0.106373265 0.08278622 0.14872403 0.0039428724 0.061227597 -0.062299263 0.051926784
0.15313016 0.12950644 -0.13654798 -0.09307941 0.2888472 0.03899031 -0.12563309 0.15664189
0.04287054 0.04298288 -0.18751831 -0.11818192 0.1251148 -0.017772283 -0.018221654 -0.23112726
0.24229817 -0.24246907 0.01946005 -0.03579349 0.25486022 0.12949423 0.14201832 0.04096691
0.010527715 0.20761894 -0.16167246 0.06257143 0.04288001 -0.08339391 0.19123553 0.027648613
0.15383701 -0.18292664 -0.11140298 -0.0968608 -0.020096224 0.24692516 -0.07190535 0.030254148
-0.00845443 -0.07336772 0.055602852 -0.029770005 -0.21952486 -0.085876025 -0.14735945 0.060592387
-0.14980999 -0.048639994 -0.016746925 0.041291762 0.033963144 0.098514386 -0.091574565 0.10721669
-0.03766568 -0.11431621 -0.2002237 0.1101769 -0.033502705 0.019127285 -0.058743294 -0.10933417
0.13582838 -0.07163587 -0.19985615 -0.031363457 -0.15724227 0.167996 0.0781821 -0.026997864
-0.1459333 -0.01624709 -0.084377624 0.010192149 -0.038236115 0.19419964 0.059501234 0.08160292
00000000: 8e0f 57bd e6a4 95bd fc9c 4dbd de9c 843e
00000010: cccd 943d 77f0 0cbd 3399 76bd 5c76 fe3d
00000020: f407 113e 3c91 fcbd a399 7a3b 074b 823d
00000030: 32af 9bbd 08a5 0dbe e326 383e a456 4b3c
00000040: 74c7 823c 8fc9 78bd e7d5 0dbd 2a82 2f3c
00000050: 2fa9 b53d 30c1 41bd b50f 353e 3a53 46bd
00000060: 9ed3 813e 5204 c3bd 220f cfbc 14cf b5bd
00000070: ffa8 1cbe 9c9b 0abe 7a87 6c3e 539b 323e
00000080: e285 97bc 386e 563c 6efc 363d 0123 babd
00000090: d2fb 51bd 9ee1 413e fddb c6bd ffd6 2b3e
000000a0: a378 c2bd feeb 3abe 75ce 273d 4e33 c0bd
000000b0: 1c05 b03c dc15 cc3c 3805 ccbd 8507 873d
000000c0: a93f 1c3e 32f2 863d 1054 e33b 6ee1 34bd
000000d0: eb5b 0cbe 42ba 4cbe c52f 5bbd 18cc ac3c
000000e0: f71f b43a 09c3 7c3d 63dc d83d f5b0 ff3d
000000f0: 9f29 a43d 3707 3ebe 4807 103e e829 cebd
00000100: 34de 643c b054 223e 6f8a b6bc dc9b 7b3d
00000110: 5b23 563d 689c 9c3d c331 573c 9061 4ebc
00000120: 1d71 21be 25e2 a5bd 1af0 d23d c453 3cbd
00000130: 9a32 7fbd e554 4bbe 9bc6 7cbb eee0 d43c
00000140: 34bf 183d 1ca3 71bd aa05 f23d db09 af3d
00000150: a504 9a3c 5875 a8bd f0f2 123d fd99 713d
00000160: 4454 4fbe f75f fcbc 7c4e 0d3e 1a8e 51be
00000170: f1f2 633e eed6 e5bd 6533 263c 8e76 fd3d
00000180: c87b ddbc c240 3abe dc3f 4f3d 8ffd 37be
00000190: 0cbb 2ebe ee0b 35bd 7b83 4cbe 318e d4bd
000001a0: 4cde 8bbb f7b7 043e 571d 933d d05d eebd
000001b0: 505a 44bd 543a 08be f495 61be e137 6ebe
000001c0: d820 563d 3d46 74bc 9f23 15be bb0e 4ebe
000001d0: d3c4 42be d2b9 f6bd 179d da3d a8ec 0a3d
000001e0: 82a2 a93c 6c48 8d3c 9938 ecbd bdda 14bd
000001f0: 628d f2bd 8190 26be 01a2 3e3e ecd7 b3bc
00000200: 96a2 4f3d 3230 64bc e82f 1abe c5b0 a8be
00000210: 5d79 7cbe 21de 343c 37d4 053c cc88 37bd
00000220: 6bc0 e4bd 72cc 38be d186 c63d 0560 063e
00000230: 8bc2 613d ae08 f13d 7b4a 65be 7982 f63c
00000240: 221a edbd ea6d 243e b5e1 4b3d 1c43 5cbd
00000250: ed09 2a3e 7e3a ebbd 8253 d93c eac4 80be
00000260: 4ffd 7ebc cb63 cb3b 12ce 363e 2add 10bd
00000270: 0f96 ccbd 8c1a 203d 672a 013e 6399 cabd
00000280: d7b5 25be 0413 9e3d 5208 883d 7d99 b73c
00000290: 3fa4 d73d 02ca 3f3c b3d1 60bd 0026 b5bd
000002a0: 7b97 a03d 3ada d93d d28b a93d 1d4b 183e
000002b0: 3633 813b cac9 7a3d 832d 7fbd 2eb1 543d
000002c0: 27ce 1c3e 569d 043e 3cd3 0bbe 6ba0 bebd
000002d0: c8e3 933e 4eb4 1f3d f6a5 00be bb66 203e
000002e0: 0599 2f3d d10e 303d cd04 40be 5d09 f2bd
000002f0: 181e 003e 2e97 91bc 9445 95bc a0ac 6cbe
00000300: 031d 783e d049 78be af6a 9f3c 329c 12bd
00000310: 0a7d 823e 239a 043e 406d 113e ebcc 273d
00000320: 707c 2c3c 0f9a 543e 778d 25be 7325 803d
00000330: f3a2 2f3d 6dca aabd 3fd3 433e 587f e23c
00000340: 7387 1d3e 1f51 3bbe 3f27 e4bd f55e c6bd
00000350: d6a0 a4bc f3d9 7c3e 1d43 93bd 8cd7 f73c
00000360: 7384 0abc d141 96bd d1bf 633d 3ae0 f3bc
00000370: 20cb 60be c5df afbd 65e5 16be b92f 783d
00000380: ca67 19be bb3a 47bd d930 89bc 8d21 293d
00000390: f01c 0b3d e9c1 c93d 728b bbbd 6d94 db3d
000003a0: 5447 1abd 9e1e eabd 7107 4dbe 6da4 e13d
000003b0: 223a 09bd d3b0 9c3c cf9c 70bd 98ea dfbd
000003c0: 9816 0b3e d4b5 92bd 17a7 4cbe f876 00bd
000003d0: 1e04 21be 2507 2c3e f01d a03d a02a ddbc
000003e0: 8a6f 15be 9e18 85bc 2dce acbd f9fc 263c
000003f0: 799d 1cbd 45dc 463e 91b7 733d 6f1f a73d

_module.fc2.bias f4 [84]
-0.11185454 0.037360378 0.12845062 0.09314037 -0.02893208 0.08351801 0.10556101 0.06745783
0.1405517 -0.026166722 0.115438215 -0.024741597 0.18142077 0.0021859112 0.16308007 0.049261678
-0.115066156 0.034950297 0.07938656 0.14088929 0.032078702 -0.0023548487 0.08851389 0.2259357
-0.060553048 0.15865271 -0.10965425 -0.044040207 -0.16061296 -0.051459532 -0.08268909 0.14278233
0.23805109 -0.038383726 -0.08165512 0.10127726 0.23574273 0.09456484 -0.015574139 -0.031210633
0.052170604 0.033906892 -0.0387721 0.056506902 0.0015493949 -0.1897815 -0.070375755 0.14735442
0.021358946 0.124326184 -0.022919381 -0.11685145 0.03537845 0.03647779 -0.07641158 -0.027821679
-0.110378556 0.07859958 -0.066548124 -0.0011554012 0.028785374 -0.040392626 0.21650712 -0.23864314
-0.12064942 -0.009045352 -0.1003872 -0.042745873 -0.028558446 0.08074994 0.055655397 0.0064325216
-0.046193175 -0.040370945 0.00016939054 0.124740474 0.063092 -0.017456425 -0.119012035 -0.025299288
-0.027288653 0.12930034 0.1347448 0.012512765
00000000: fe13 e5bd 3207 193d 8f88 033e 61c0 be3d
00000010: f802 edbc 7e0b ab3d 5f30 d83d 5527 8a3d
00000020: c9ec 0f3e 985b d6bc df6a ec3d e4ae cabc
00000030: 5ec6 393e 8141 0f3b 76fe 263e 9dc6 493d
00000040: cea7 ebbd 0b28 0f3d 6c95 a23d 4845 103e
00000050: f564 033d ce53 1abb c546 b53d b05b 673e
00000060: 7906 78bd db75 223e 6892 e0bd 8163 34bd
00000070: b977 24be 3bc7 52bd e658 a9bd 8835 123e
00000080: aac3 733e 4138 1dbd cd3a a7bd 746a cf3d
00000090: 8b66 713e 36ab c13d ac2a 7fbc 71ad ffbc
000000a0: d8b0 553d f4e1 0a3d 7ecf 1ebd c873 673d
000000b0: 1115 cb3a 1556 42be 2a21 90bd 14e4 163e
000000c0: f5f8 ae3c ba9e fe3d 6dc1 bbbc d04f efbd
000000d0: fee8 103d bc69 153d ad7d 9cbd 4aea e3bc
000000e0: 270e e2bd d1f8 a03d 624a 88bd d570 97ba
000000f0: 4ecf eb3c bd72 25bd 0bb4 5d3e de5e 74be
00000100: 0b17 f7bd f532 14bc ce97 cdbd 4c16 2fbd
00000110: 67f3 e9bc 3960 a53d eaf6 633d e7c7 d23b
00000120: 0e35 3dbd 015c 25bd 6d9e 3139 ef77 ff3d
00000130: 6136 813d c700 8fbc 95bc f3bd 7440 cfbc
00000140: 748c dfbc 4f67 043e 8afa 093e 5702 4d3c

_module.fc3.weight f4 [10, 84]
0.002124204 0.008360578 -0.07056558 -0.052962873 0.03731425 -0.2449685 0.09695516 -0.14699976
0.13615988 0.089508355 -0.10380509 0.16915293 -0.16463904 -0.108237326 -0.09098239 -0.15155691
0.109292164 -0.10203185 -0.014704534 0.23597306 -0.25251144 0.021920277 0.19997977 -0.39880094
0.07519675 0.020671703 0.036490615 0.32692704 -0.0780791 -0.09909948 -0.06410583 0.14417735
0.18240578 -0.12736164 -0.11325773 -0.024390414 0.10412251 0.018654272 0.07625822 -0.1060992
-0.1583316 0.22207244 -0.08882628 0.17720233 -0.023795927 0.024730152 0.079573914 -0.10431131
0.0053128866 -0.21492955 -0.03962299 0.057928342 0.12439829 -0.118381135 0.007151018 0.07607771
-0.08556181 -0.017055009 -0.2622202 0.022135973 0.14668535 -0.011237507 -0.19722344 -0.024713954
0.16950561 -0.15875305 0.00396196 0.08329431 -0.13772386 0.0473732 0.055639494 0.0388024
0.02753421 -0.10238487 -0.34691355 -0.20586796 0.15257105 -0.08783718 0.11325012 -0.15289207
0.107839525 -0.0035981014 -0.08005344 -0.018145697 -0.0007820646 -0.29378325 0.018313674 0.079803266
0.18326102 -0.08652381 -0.067334205 0.073088184 -0.022247387 -0.14687932 0.055398405 0.16792649
0.31353128 0.1293324 -0.025093226 -0.030016076 0.12265391 -0.038998567 0.23361388 0.049181264
-0.09553968 0.0805842 -0.16717964 -0.111435816 0.12321816 0.04118564 -0.18850534 -0.075745106
0.21918906 0.2304258 -0.02102458 -0.12806858 -0.026341707 0.08597916 -0.15232834 -0.028390618
-0.105173886 -0.24035631 -0.12521683 0.022044139 -0.14102924 0.07051683 0.14348543 0.011830585
0.046023782 -0.1603401 0.058017913 0.012976974 0.038970955 0.20088841 -0.03477218 -0.09726889
0.06547271 -0.18217516 -0.10622127 0.02313224 0.09671318 0.27343604 -0.12787947 0.13337296
-0.24612592 -0.02473209 -0.030212367 -0.23660983 -0.011592546 -0.033527263 -0.069841504 0.037388995
-0.13262497 -0.041621685 -0.13448697 0.18075448 -0.014271731 -0.015874425 0.28935516 0.19166984
-0.058499206 0.04715916 0.05089165 0.13416366 -0.046670746 0.15470809 -0.08023116 0.15145198
-0.09345585 -0.16370606 0.24269837 0.016068438 0.019695673 -0.09385459 -0.018940477 0.09485798
0.20881915 0.0015789354 -0.12362088 0.05510032 -0.006986761 -0.044189245 -0.17533039 0.055155303
-0.0943385 -0.18101126 0.28185427 0.16648233 0.20496157 -0.04293693 -0.028674696 -0.08586417
-0.0460512 -0.21905974 0.025446398 -0.011747115 -0.023478284 -0.02277398 0.083204426 -0.038993854
0.11531391 0.13991511 0.29918477 0.15699166 0.024717173 0.10784789 -0.10939812 0.36798915
0.19512081 0.13477473 -0.16999109 0.08024068 -0.029219305 -0.19899592 -0.10576284 -0.24100278
-0.011273877 0.088947326 -0.017610963 -0.14768603 0.027201407 -0.075835176 -0.003528658 -0.022449687
0.09387509 0.040308774 0.067084625 -0.15032156 -0.02956588 0.069773205 0.021779208 -0.22047333
-0.11146101 0.18626146 0.015487665 0.2009619 0.07397309 0.10489938 -0.052337565 -0.02415727
-0.055524483 -0.122595556 -0.14957988 -0.024232224 -0.02550102 -0.0129592 0.11775071 -0.25022092
-0.17858809 -0.017057044 0.32056868 0.11985153 0.16525619 -0.29104796 -0.16903152 0.20155817
00000000: 3b36 0b3b cefa 083c b084 90bd 99ef 58bd
00000010: d4d6 183d 06d9 7abe 6d90 c63d 1b87 16be
00000020: 7f6d 0b3e 2850 b73d c397 d4bd 6d36 2d3e
00000030: 2397 28be 88ab ddbd fa54 babd bc31 1bbe
00000040: 92d4 df3d 13f6 d0bd 49eb 70bc eca2 713e
00000050: 2e49 81be 2792 b33c 7fc7 4c3e a32f ccbe
00000060: c100 9a3d b457 a93c 2f77 153d fb62 a73e
00000070: efe7 9fbd abf4 cabd eb49 83bd 3aa3 133e
00000080: 95c8 3a3e 176b 02be abf3 e7bd 68ce c7bc
00000090: 2f3e d53d d8d0 983c 452d 9c3d 8a4a d9bd
000000a0: ae21 22be f566 633e 8dea b5bd 8774 353e
000000b0: adef c2bc e396 ca3c a6f7 a23d 2ba1 d5bd
000000c0: b917 ae3b 7e16 5cbe b74b 22bd 4546 6d3d
000000d0: 88c4 fe3d cf71 f2bd 1653 ea3b a1ce 9b3d
000000e0: 083b afbd f2b6 8bbc ba41 86be 8056 b53c
000000f0: af34 163e 851d 38bc f1f4 49be eb74 cabc
00000100: e192 2d3e 2990 22be 54d3 813b 3596 aa3d
00000110: 7c07 0dbe 670a 423d 3de6 633d 44ef 1e3d
00000120: 6c8f e13c 29af d1bd a79e b1be 0dcf 52be
00000130: 963b 1c3e fbe3 b3bd aeef e73d bd8f 1cbe
00000140: f8da dc3d 20ce 6bbb 0ff3 a3bd 49a6 94bc
00000150: 7803 4dba c26a 96be 8f06 963c e56f a33d
00000160: c7a8 3b3e 6533 b1bd 84e6 89bd 42af 953d
00000170: 2740 b6bc 8867 16be 70e9 623d ecf4 2b3e
00000180: 2c87 a03e b66f 043e 4f90 cdbc 46e4 f5bc
00000190: f931 fb3d f6bc 1fbd 7a38 6f3e 4b72 493d
000001a0: 4faa c3bd 5409 a53d 2431 2bbe 7638 e4bd
000001b0: cd59 fc3d 46b2 283d 8b07 41be 4020 9bbd
000001c0: 1973 603e bef4 6b3e bd3b acbc 6924 03be
000001d0: 90ca d7bc d815 b03d f6fb 1bbe 7193 e8bc
000001e0: 6865 d7bd f71f 76be d738 00be e995 b43c
000001f0: f869 10be 216b 903d d8ed 123e 12d5 413c
00000200: 6f83 3c3d 3230 24be 31a4 6d3d 609d 543c
00000210: 02a0 1f3d b1b5 4d3e 466d 0ebd e934 c7bd
00000220: 8e16 863d 208c 3abe 8a8a d9bd d37f bd3c
00000230: 8f11 c63d cfff 8b3e d6f2 02be ec92 083e
00000240: 6f08 7cbe f49a cabc ed7f f7bc d949 72be
00000250: a9ee 3dbc e253 09bd 1009 8fbd 3425 193d
00000260: d7ce 07be 807b 2abd f4b6 09be b417 393e
00000270: fad3 69bc 150b 82bc 5c26 943e 1945 443e
00000280: dd9c 6fbd f729 413d c373 503d 3362 093e
00000290: d329 3fbd cc6b 1e3e 3c50 a4bd 3a16 1b3e
000002a0: c865 bfbd 90a2 27be ec85 783e f5a1 833c
000002b0: d258 a13c d636 c0bd 0f29 9bbc e744 c23d
000002c0: b0d4 553e 48f4 ce3a f22c fdbd e0b0 613d
000002d0: 33f1 e4bb c8ff 34bd cf89 33be 87ea 613d
000002e0: 8b34 c1bd 045b 39be 344f 903e 587a 2a3e
000002f0: 72e1 513e a2de 2fbd 32e7 eabc 8ed9 afbd
00000300: 2fa0 3cbd 3251 60be f774 d03c f976 40bc
00000310: 8855 c0bc 7f90 babc 1567 aa3d 05b8 1fbd
00000320: b329 ec3d e845 0f3e bf2e 993e 6cc2 203e
00000330: ab7b ca3c 5bdf dc3d 1f0c e0bd 1369 bc3e
00000340: c0cd 473e 6302 0a3e 2512 2ebe 3a55 a43d
00000350: 535d efbc 96c5 4bbe 309a d8bd 6fc9 76be
00000360: 11b6 38bc 042a b63d de44 90bc 023b 17be
00000370: 7cd5 de3c 794f 9bbd 0f41 67bb 68e8 b7bc
00000380: 9541 c03d d01a 253d aa63 893d e5ed 19be
00000390: 2534 f2bc 41e5 8e3d 4f6a b23c c3c3 61be
000003a0: ac45 e4bd 53bb 3e3e fabf 7d3c f5c8 4d3e
000003b0: 347f 973d 7cd5 d63d ea5f 56bd 78e5 c5bc
000003c0: a46d 63bd 6113 fbbd 782b 19be a882 c6bc
000003d0: 84e7 d0bc d352 54bc 4927 f13d f51c 80be
000003e0: ccdf 36be 37bb 8bbc 9421 a43e b874 f53d
000003f0: eb38 293e 3d04 95be 9916 2dbe 4465 4e3e

_module.fc3.bias f4 [10]
-0.04803034 0.07643983 -0.047058344 -0.05205838 -0.0014039634 -0.050435 -0.30987385 -0.06340483
0.05902415 -0.13742666
00000000: 76bb 44bd 7c8c 9c3d 40c0 40bd 2b3b 55bd
00000010: 3205 b8ba ee94 4ebd c9a7 9ebe 64da 81bd
00000020: 4fc3 713d 93b9 0cbe
