dp_lenet_code/dp_lenet_plots_fixed_epsilon/lenet_epsilon_3.33_gradnorm_1.1.pt (torch, 251144 bytes, 10 tensors)

_module.conv1.weight f4 [6, 1, 5, 5]
000000 5e 6a cd 3e 06 50 d8 3e d1 cd 7e 3e f6 c8 c8 3e
       0.40120214 0.42248553 0.248832 0.3921582
000010 79 2b 80 3d a5 0a c0 3e 97 ae 85 3e 1b ed 20 3f
       0.06258292 0.3750812 0.26109764 0.62861794
000020 50 4c 16 3f dc cc 03 3e 09 42 08 3f 4d 52 17 3f
       0.58710194 0.12871116 0.5322576 0.59109956
000030 e8 38 fa 3e 6b 44 aa 3e 7f af ae 3e d2 c0 9d 3e
       0.4887154 0.33255324 0.34118268 0.30811173
000040 4c f6 2d 3f 14 35 b4 3e 49 80 44 3d 4d 75 32 3e
       0.67953944 0.35196745 0.047973905 0.17427559
000050 88 58 7e bd 3f 2d 61 3d 25 86 15 3b b9 de 22 3e
       -0.06209615 0.05497479 0.0022815552 0.15905274
000060 ff 7e 1c be 7a b1 47 3d a0 80 fb bd f0 6c 5b 3e
       -0.1528282 0.04875324 -0.12280393 0.21428275
000070 bf ff 16 3e a8 76 5f be aa dd 3f 3e 21 53 2d be
       0.14745997 -0.21822608 0.18736902 -0.16926242
000080 3e ed 3c 3e ae 79 ab 3b 5b 7c 92 3c ca 7d 80 3e
       0.18449876 0.005233011 0.017881563 0.2509597
000090 a2 f3 31 3e e6 db 11 3f 47 81 cb 3e 01 e2 fe 3d
       0.17378095 0.56976163 0.39747068 0.124454506
0000a0 b9 52 70 3e 03 38 9c 3e 5e 65 0f 3f 5c 07 20 3f
       0.23469056 0.30511484 0.5601405 0.6251123
0000b0 19 12 f4 3e 34 9e 2b 3e 33 ed 88 3e eb d7 42 3e
       0.47670057 0.16759568 0.2674347 0.19027679
0000c0 77 6a 90 3e f2 af 83 bd fd 92 a3 3c 81 16 8b 3c
       0.28206226 -0.06430043 0.01996755 0.016978504
0000d0 f8 a1 4c 3d e8 94 b9 3e b0 19 4a 3e a5 27 b7 3d
       0.049959153 0.3624642 0.19736362 0.089431085
0000e0 28 c2 77 3e 23 d0 68 3e 0c 1f 54 3e 8f 2b 7c be
       0.24195158 0.22735648 0.20714968 -0.24625991
0000f0 16 80 14 3e ed 54 07 3e 27 61 8d 3e 13 d1 91 3d
       0.14501986 0.1321599 0.27613184 0.07119956
000100 b2 a1 0d be eb ff 0e 3e 5c db f6 3e dd 7f 8a 3d
       -0.13831213 0.13964812 0.48214233 0.06762669
000110 b3 58 11 be 96 15 b1 be 43 a1 bc 3e 1f a7 1c 3e
       -0.14193992 -0.3458678 0.36841783 0.15298127
000120 d1 55 d0 3e 1a 70 76 be f8 b9 06 be 5a 6d 2f be
       0.40690473 -0.24066201 -0.13156879 -0.17131558
000130 c2 51 74 be e7 cd 94 3d fd f3 3d 3e c9 0d 8b 3e
       -0.23859313 0.07265835 0.18550105 0.27158955
000140 95 3c e3 bd f7 6a 15 3e 9a a3 87 3e 4e 59 be 3d
       -0.110955395 0.14591585 0.26492006 0.09294377
000150 9d f9 7c 3e 19 a4 8c 3d 13 5c a3 3e 33 06 04 3e
       0.24704595 0.06867237 0.31906185 0.1289299
000160 7d 3b 3e be 73 c2 b2 bc 78 fb 86 3d 02 62 12 be
       -0.1857738 -0.021821236 0.065909326 -0.142952
000170 38 81 13 3e d5 3f b3 3d 15 88 ee bc ee 2e 87 be
       0.14404762 0.08752409 -0.029117623 -0.26402992
000180 0f 35 b9 3d a8 31 69 bc bb e1 63 be 41 09 84 be
       0.09043323 -0.01423303 -0.22254078 -0.2578831
000190 5b 96 a9 be 45 94 48 bd a7 90 6f be c0 6c 6d be
       -0.33122525 -0.048969526 -0.23395024 -0.23186016
0001a0 7f cf b9 bd 76 82 0c be 3b 47 f8 bd ce 5c c0 be
       -0.0907278 -0.13721642 -0.12122961 -0.37570804
0001b0 43 38 ce bd 6b 30 93 be cb a3 7d 3d ed 74 96 bd
       -0.10069325 -0.28747877 0.061923783 -0.073465206
0001c0 c0 f9 89 bb fb b0 f2 bd 0e a2 90 be 42 f3 9b bc
       -0.0042106807 -0.118501626 -0.28248638 -0.019036893
0001d0 15 36 ab 3d 21 3b f4 bd 0f ad 22 be ad 60 3b be
       0.08359925 -0.119253404 -0.15886329 -0.18298598
0001e0 86 4c 14 3d 15 0f b7 3c 35 59 90 bd ad ac 27 be
       0.03620579 0.022346059 -0.07048265 -0.16374464
0001f0 38 ab 1e be f0 7a 1f 3d 27 87 90 3c fb 14 27 3c
       -0.15495002 0.0389356 0.01764257 0.010197873
000200 98 6a 6b 3e 09 de 92 3c ae fd 68 bc ff 3e 95 3c
       0.22989881 0.01792814 -0.014220638 0.018218515
000210 cd 94 d2 bd 91 99 4b bd bc e4 aa bd 68 ba 06 3c
       -0.10282288 -0.049707 -0.08344409 0.008223154
000220 ab 4a 16 be 00 26 87 be fe df 3b 3d 21 1c d1 3c
       -0.14676921 -0.2639618 0.045867912 0.025526108
000230 7e 8d 37 3d 53 f9 27 be 2a a1 2b bd bc 54 12 be
       0.04481267 -0.16403703 -0.041901745 -0.14290136
000240 11 21 c0 3d 8c 89 06 3d d1 d4 75 3e 86 90 84 3e
       0.09381307 0.03284602 0.24006964 0.25891513
000250 0c 85 9a 3e 97 1d 12 3d
       0.30179632 0.03567275

_module.conv1.bias f4 [6]
000000 35 63 29 3e e5 bf 28 3d 27 bd b3 39 5c 10 59 be
       0.1654175 0.04119863 0.0003428247 -0.21197647
000010 c7 ca 8d 3d ff 5e ee bd
       0.06923442 -0.11639213

_module.conv2.weight f4 [16, 6, 5, 5]
000000 16 c5 c9 3d 05 58 0c bd 86 eb 87 3e 6d f3 d2 bc
       0.09852044 -0.03426363 0.26546878 -0.02575084
000010 a4 53 42 3e 24 b6 08 3d 4d 1b 5b 3d 7e 87 4d 3d
       0.18977219 0.033376828 0.053492833 0.050178044
000020 ab 02 17 3e ff 5c 33 be cc f5 12 3d e8 99 29 3e
       0.14747111 -0.17515944 0.03587894 0.16562617
000030 8f 3d 98 3e 3c d7 0d be 9e a3 ea bb 08 ef 00 3d
       0.29734465 -0.13851637 -0.007160618 0.031477958
000040 62 25 37 3e 1c 03 fa 3d e4 86 98 bc b7 25 83 3c
       0.17885354 0.12207624 -0.018619008 0.016009195
000050 01 cc 32 bd fa 8f 24 3e f8 2c 73 3d 87 0c 03 be
       -0.043651585 0.16070548 0.059369057 -0.12797748
000060 d0 ce 1c be 66 2c 34 3e be 78 e5 3c 67 f6 66 3d
       -0.15313268 0.17595062 0.028011676 0.05638733
000070 24 80 f4 3d 43 06 0f 3e b8 77 24 be a4 ea 8a bd
       0.119385034 0.13967232 -0.16061294 -0.067830354
000080 48 b0 88 3d 01 10 83 3d 0e a1 37 3d cf 76 23 be
       0.06674248 0.06399537 0.044831328 -0.1596329
000090 fd 66 13 3c dd c0 88 3d a3 a5 f3 bd f6 0b 21 be
       0.008996722 0.06677411 -0.11896827 -0.15727219
0000a0 59 27 0b 3d 22 d0 b3 bd 0c 45 ce 3c 63 d1 0d be
       0.03397307 -0.087799326 0.025179408 -0.13849406
0000b0 1d 61 4e be 0d f0 0f bd 7c e9 3c 3e 42 37 9d 3d
       -0.20154233 -0.03514104 0.18448442 0.07676555
0000c0 e6 31 05 bd 52 9a dd bd 35 f0 62 be 8e a8 73 be
       -0.03251829 -0.1082045 -0.22161944 -0.23794767
0000d0 9b ff 94 bd 34 f2 07 3d 21 23 51 3e 2a c7 48 3d
       -0.072753154 0.033189967 0.20423557 0.049018063
0000e0 02 17 e1 bd 41 99 4c bd 26 e6 2f 3e 59 c7 d4 3d
       -0.109907165 -0.04995084 0.17177638 0.10389585
0000f0 02 0f be 3d 46 94 02 3e 5d 4b a4 3d c9 51 9b 3d
       0.09280206 0.12751874 0.08022187 0.07583959
000100 c9 a4 01 be 40 5f 47 3d 15 e8 35 3e ce ea 1f 3e
       -0.12660517 0.04867482 0.17764314 0.15616915
000110 75 02 1f bd 0a 5e ad 3c 3c 39 d5 3d fd 01 3c bd
       -0.038820703 0.021163005 0.10411307 -0.045900334
000120 74 8b 08 3e 86 20 48 3d 53 61 bb bd 34 ef 0d 3b
       0.13334447 0.04885914 -0.091494225 0.0021657469
000130 23 79 eb 3d d9 b4 f2 3d 26 51 18 3e 9b d1 06 be
       0.11497714 0.118509 0.14874706 -0.13165896
000140 a7 eb d8 3b 6f 2e 6d bd 36 41 1a be 98 5b 5b bd
       0.006619889 -0.05790561 -0.15063938 -0.053554147
000150 b7 6e f2 3d de 21 8c bd cb ce 2e 3d 21 77 b3 bd
       0.118375234 -0.06842397 0.042677682 -0.087629564
000160 42 68 fa bd 58 5c bb bd ff 25 17 be 7e a1 e3 bc
       -0.12226917 -0.091484725 -0.14760588 -0.027786966
000170 c8 84 aa bd 8d 53 bb bd 26 e2 08 be 57 f8 92 3d
       -0.08326107 -0.091467954 -0.13367519 0.07176273
000180 ca 71 9f bd 6f b2 0a be 89 75 90 bd 7f 05 8c 3d
       -0.077853754 -0.1354463 -0.07053668 0.06836986
000190 4a 7e e1 bb af d6 07 3e 4c 9a a5 3d 14 fb e5 3d
       -0.00688151 0.13265489 0.080860704 0.1122953
0001a0 15 19 f0 3b fd 16 30 3d b2 1c 12 3d 67 71 b6 bd
       0.0073272088 0.042990673 0.035671897 -0.089083485
0001b0 03 98 8d 3e d2 19 f5 3d 80 11 4d bb 32 27 27 be
       0.27655038 0.119678155 -0.0031290948 -0.16323546
0001c0 6d 9d 10 bd dd 6e fe 3d 20 0c 0b bd 3b 07 18 be
       -0.035306383 0.12423489 -0.03394711 -0.14846508
0001d0 17 f9 2a bd 81 19 15 3e 22 5b 42 3e 07 34 cc bc
       -0.041741457 0.1456051 0.18980077 -0.024927152
0001e0 cc 74 07 be d6 6a 8e 3d d3 b6 05 3e a7 f0 20 3c
       -0.13228148 0.06953971 0.13058023 0.009823001
0001f0 43 c0 c1 bc 2a 85 8e 3c ed cd b3 3d b9 b4 8f 3b
       -0.023651248 0.017397482 0.087795116 0.0043855575
000200 c8 35 f7 bd d1 65 0d be 27 62 0a bc e2 54 12 3e
       -0.12070805 -0.13808371 -0.008446253 0.14290193
000210 13 67 82 3d de cd 19 be aa b3 5e 3d 5b 7d 04 3e
       0.06367316 -0.15019938 0.05437056 0.12938444
000220 5e fb 4c bd 21 12 a8 be ed dc cd 3d 87 a6 4e be
       -0.05004441 -0.3282633 0.10051904 -0.20180713
000230 db ff 94 3d 74 76 df bd ea b3 74 be e3 5d fa bc
       0.07275363 -0.10911265 -0.23896757 -0.030562347
000240 dc f8 a6 bd f9 9a 2c bd 33 4a 55 3e ed 26 33 be
       -0.08152935 -0.04213998 0.20829086 -0.17495318
000250 13 43 01 be 2c d7 53 3d 67 c4 11 3d 96 ed 13 3c
       -0.12623243 0.051718876 0.035587694 0.009028813
000260 4a 16 30 be 2a 6e d3 39 4a 9f b6 3d 3b 1d c0 3d
       -0.17196003 0.00040327135 0.08917101 0.09380575
000270 e6 9f 21 bd fd 53 b9 3e 78 46 16 3e 68 4d cd 3d
       -0.03945913 0.3619689 0.14675319 0.1002453
000280 fb 81 df bd 47 32 70 3d da 50 f5 3a ca d4 09 3d
       -0.10913464 0.0586417 0.0018716112 0.033650197
000290 87 f5 d4 3d cc 3b 39 bd 43 41 00 3e 4e c6 c9 3d
       0.10398393 -0.045223042 0.12524895 0.09852277
0002a0 8b 82 33 3d 91 43 c0 bd 52 7f f2 bd cc d8 48 bd
       0.043825667 -0.09387887 -0.11840691 -0.04903488
0002b0 e5 7d b0 bd 53 a9 5c bb c5 55 29 3d 83 29 07 be
       -0.086177625 -0.003367026 0.04134156 -0.13199429
0002c0 9d 40 95 bd 52 c8 ef bd f3 97 04 3e 84 d6 4d 3e
       -0.07287715 -0.1170813 0.12948589 0.20101362
0002d0 b0 06 38 3e 5d 7e 46 3e 21 7f 9f 3a 32 38 e0 3c
       0.17971301 0.19384141 0.0012168625 0.027370546
0002e0 dd d4 0c be 32 2c cf bd e0 11 4a 3d a8 8a 84 be
       -0.13753076 -0.101158515 0.049333453 -0.25887036
0002f0 3e 84 e4 bd 33 c6 71 bd a2 ef c5 bd 3e 7a fa bd
       -0.11158036 -0.059026908 -0.09664847 -0.12230347
000300 97 7b fa 3c 1d ec 05 3e 29 0b d4 3c 18 4f 21 3e
       0.03057651 0.13078351 0.025884228 0.15752828
000310 c1 d2 8c 3d b9 5e 4c 3d 68 73 84 bd 74 5c 84 3d
       0.068761356 0.049895022 -0.064673245 0.064629465
000320 d1 16 57 3d 5c 4d c4 3c 29 f0 e9 bd 14 12 bf bc
       0.052511994 0.02396267 -0.1142276 -0.02332405
000330 9f b5 bd bc aa b1 e5 3c ba 17 90 3d e5 29 13 3d
       -0.023157893 0.028038818 0.070357755 0.035928626
000340 1f b1 af bb b3 5a c6 3d 13 bf 9a bd 61 8a b4 bd
       -0.0053616907 0.09685268 -0.07555976 -0.08815456
000350 ba 4c a2 bd 46 f2 8d bc 34 61 81 3d cc 29 29 bd
       -0.07924791 -0.017327439 0.06317368 -0.041299626
000360 62 fd 1e be 8a 20 ed 3d 9f 3c 04 be 9a df 1d bc
       -0.15526345 0.11578472 -0.1291375 -0.00963583
000370 f4 48 47 3d 51 49 e9 bc 22 68 00 bc f4 85 53 be
       0.048653558 -0.028477343 -0.007837327 -0.20656568
000380 05 3a dd 3d 31 7a 92 bd 1f 26 42 bd 91 c4 99 3d
       0.10802082 -0.071522124 -0.047399636 0.07508195
000390 76 56 04 3e 58 29 09 3d 1a 5b 91 3c 5f fd c5 bd
       0.12923607 0.033486694 0.017743636 -0.09667467
0003a0 d1 62 fa bc c5 05 1a 3d c4 e4 0e be af 03 05 be
       -0.030564697 0.03760316 -0.13954455 -0.12989686
0003b0 7a f6 9c 3d 6c 0f 12 3e 6a 93 a5 bc 79 3e 45 be
       0.07664199 0.14263695 -0.020211894 -0.19262113
0003c0 24 36 53 3b 0e d2 05 3b 91 1f e5 bd b9 02 b2 3c
       0.0032228315 0.0020419392 -0.111876614 0.021729814
0003d0 c7 b1 7d bd 04 67 07 be fc 1a 98 bd 10 c7 ca bd
       -0.06193712 -0.13222891 -0.07427022 -0.099012494
0003e0 b5 4a 1b be dc 2d ba bd 4c 5f c9 bd 0b fe 4a be
       -0.15165217 -0.09090778 -0.098326296 -0.19823472
0003f0 6b ae 25 be 62 3f e5 bc b5 f3 8b 3c d7 a9 66 bd
       -0.16179816 -0.027984325 0.017083982 -0.056314316

_module.conv2.bias f4 [16]
000000 ee 9a f7 3d 13 96 9a 3d 6e 4c 1c 3a f0 42 a1 bd
       0.12090097 0.07548156 0.00059623166 -0.078740954
000010 f7 be 2e 3d c9 25 23 3e a6 33 8d 3d 4b e8 13 3d
       0.042662587 0.15932383 0.06894617 0.036110204
000020 a7 04 e5 3b a4 88 12 bd 69 ee 28 bd 04 08 53 3e
       0.00698908 -0.035774842 -0.04124299 0.20608526
000030 e2 f1 b2 3d 6d 5f c5 bd ae a8 ad bd 3b 4a 7d 3d
       0.08737542 -0.09637342 -0.08479439 0.06183837

_module.fc1.weight f4 [120, 400]
000000 e8 97 91 bd 6e 46 89 3d 81 2f 05 3d 0f 61 c3 39
       -0.07109052 0.067028865 0.032516006 0.00037265613
000010 a8 16 24 be 3e 17 d5 bb 8e 93 e5 3c a9 99 41 bd
       -0.16024268 -0.006503015 0.028024461 -0.047265682
000020 0a 1d 08 3d 3f f9 98 bd 14 f0 cc 3d 38 ac 01 be
       0.03323082 -0.07469415 0.10006729 -0.12663352
000030 33 e1 4e bd 50 a5 b7 3d d2 77 7a 3d ad 15 45 3e
       -0.050507735 0.08967078 0.061149426 0.1924655
000040 0d 55 84 3d ea 3c 26 bd 63 6a 85 bc a5 13 cf bd
       0.06461535 -0.040585436 -0.01628608 -0.10111169
000050 d0 83 93 3d ae b4 d7 3d 8a 10 bc bc 88 24 44 3d
       0.072028756 0.10532509 -0.022957105 0.0478864
000060 71 83 c8 bd b3 4b c8 3d 9a 8f ef 3c e2 21 da 3c
       -0.097906955 0.097800635 0.02924328 0.026627485
000070 66 e3 ba 3d fe 3d fe bd fa 06 6a bc 71 e0 6c 3d
       0.09125404 -0.12414168 -0.01428389 0.05783123
000080 d6 d4 df bc a2 8e b4 3d 69 d2 06 3d 0e 18 16 bd
       -0.027323168 0.088162675 0.032915507 -0.036644034
000090 5f df eb bb 52 36 e0 3c b1 c1 df bc 54 57 6b bc
       -0.007198259 0.027369652 -0.027314039 -0.014364082
0000a0 92 f7 85 3c 96 21 02 be f5 93 8f be 48 44 52 3e
       0.016353402 -0.12708125 -0.2804257 0.2053386
0000b0 df 9e d4 3d c5 55 0a 3e cb 55 6f bd ff 47 6d be
       0.10381865 0.13509281 -0.058431428 -0.23171996
0000c0 14 33 ee 3d f3 38 a6 3c 25 ce 33 be 7f 35 e3 3b
       0.11630836 0.020290827 -0.17559107 0.0069338675
0000d0 c3 0a ba 3a 4f 52 0a 3e b3 8e 97 3b 79 94 b7 bc
       0.0014193881 0.1350796 0.0046251654 -0.022409664
0000e0 be 72 2c 3e 29 cb 3b bd aa 27 59 bd 1e e3 55 3e
       0.16840646 -0.045848045 -0.053016342 0.2088742
0000f0 9f 6f c4 bc e3 57 c8 3d 3a 9c 60 bc 54 f8 1c be
       -0.023979006 0.09782388 -0.013709122 -0.15329105
000100 61 42 3a 3d cb f8 81 3b 1e 9a d9 ba 9d 5e b1 3d
       0.04547346 0.003966426 -0.0016601717 0.08660624
000110 8b ed b2 3d a1 19 af 3d ac fe 3a 3e 47 65 a6 3d
       0.08736714 0.0854981 0.18261212 0.08124786
000120 72 2c 7f 3c e9 92 a8 3d 7c 88 60 bd a9 91 ae bd
       0.015574561 0.08231146 -0.05481766 -0.08523876
000130 67 73 07 3e 94 82 db bd 26 89 5f 3e 24 aa f0 3d
       0.13227616 -0.10718265 0.21829662 0.11751202
000140 be fe 7e 3d d4 cf bd bd ce 8d 97 3d 0a 30 e4 ba
       0.06225466 -0.09268156 0.07400094 -0.0017409336
000150 0f 1a 0c 3e 05 aa 58 be e1 c2 ba 3c 95 ba 15 be
       0.13681816 -0.21158607 0.022798004 -0.14621957
000160 0d d0 5e bd a4 3f ef bd 3b d3 13 be 4d a6 81 bd
       -0.05439763 -0.1168206 -0.14436047 -0.063305475
000170 16 ab 66 3d 28 1b 04 be d6 a1 56 bb dc 31 0b 3d
       0.056315504 -0.12900984 -0.003275027 0.033983096
000180 47 69 5a 3d e9 39 1a bd c0 f1 f2 bc c4 39 1f 3e
       0.053323057 -0.037652884 -0.029656291 0.1554938
000190 58 07 c0 bb d0 c4 84 3c 53 a2 54 be 1c a7 87 bd
       -0.0058602504 0.016207129 -0.20765047 -0.066236705
0001a0 0e b9 d2 3d 8c 3a 1d be 7e 07 69 bd ae d3 19 be
       0.10289203 -0.15354365 -0.05689191 -0.15022156
0001b0 ae 21 f0 3c 54 3d 57 be d2 84 b3 3d 33 9e cc bd
       0.029312935 -0.21019489 0.08765568 -0.099911116
0001c0 99 aa 1e bd 20 8c 8d 3d 13 c7 b8 bb d6 b9 c4 3c
       -0.038736913 0.06911492 -0.005638966 0.024014395
0001d0 b9 c9 a4 bc 38 e4 bb 3d 5b 12 89 3c ee b2 9c bd
       -0.02011572 0.09174389 0.016732385 -0.07651316
0001e0 b3 07 e9 3c 30 84 6f bd 99 b8 cf 3d dc 9b 7b 3d
       0.028446054 -0.058475673 0.10142631 0.061427936
0001f0 a3 c2 25 bd 73 26 0c 3e cc a6 2b bd ba da 63 be
       -0.040468823 0.13686542 -0.041907117 -0.22251406
000200 0b 76 0d be bb 67 c6 3d e4 04 1a 3e 6c 52 4e bb
       -0.13814561 0.09687754 0.15040928 -0.0031482233
000210 da f6 20 3e 9b ea 49 3d 24 96 cc 3c 43 18 74 bc
       0.15719166 0.049296003 0.024973936 -0.014898363
000220 81 d0 65 3d 59 26 99 3c 41 50 2f bc 40 57 e5 bc
       0.056107048 0.018695043 -0.010700286 -0.027995706
000230 4f fa 0e bd 0f 5e 17 3e f6 e9 0c 3d 80 a6 4d bd
       -0.03490668 0.14781974 0.03440281 -0.050207615
000240 7c 0b 1c 3e 68 de cd 3c c9 ab 9b bd 9d 86 1b 3e
       0.15238756 0.025130466 -0.07601125 0.1518807
000250 5b 60 a2 bd a0 9b c6 3d 28 9b ba bd a8 9b a6 bd
       -0.079285346 0.09697652 -0.09111625 -0.08135158
000260 a9 39 38 3c 03 5a 10 be 11 ab 24 3e 88 65 35 be
       0.011244216 -0.14096837 0.16080882 -0.17714512
000270 12 cc 88 3d 01 82 8f 3d 1d 41 71 bd 13 b5 74 3e
       0.06679548 0.07007218 -0.058899987 0.238972
000280 c3 ae 01 be 43 17 3f 3d 8f 2e 3b 3e b2 ab d5 3d
       -0.12664323 0.046653043 0.1827948 0.10433139
000290 78 c2 79 bd e3 1b 22 3d e1 10 6e 3d 8a ca 94 bb
       -0.060976475 0.039577376 0.058121566 -0.004540746
0002a0 45 a8 98 bd c1 0e 3c 3d bf 6f ec 3d a0 43 06 3e
       -0.0745397 0.045912508 0.115447514 0.13111734
0002b0 b4 2f 84 bc 7b cd f7 3d 8d 55 ac bc 58 ab d5 bc
       -0.016136028 0.12099739 -0.021036888 -0.02608268
0002c0 77 98 9d bc fd 2a 9b 3d 01 25 ca 3c f6 85 dc bb
       -0.01923774 0.07576559 0.024675848 -0.0067298366
0002d0 bb 7b f7 3d 9c 1b 44 bd 95 09 ed 3c 1c 96 ef 3d
       0.120841466 -0.047877893 0.028935233 0.11698553
0002e0 54 21 62 3d e0 11 7b 3b 9c a5 01 bd 08 ab 22 be
       0.055207565 0.0038310215 -0.031652078 -0.15885556
0002f0 f6 82 15 3e 04 96 a1 3d 8e ca c6 bb 6f db 84 3d
       0.14600739 0.07889941 -0.006066627 0.06487166
000300 0f b8 53 bc 5d 35 8c 3d 4c cd b3 ba fc c6 37 3e
       -0.012922301 0.06846116 -0.00137178 0.17947
000310 df c8 0b bd c6 62 aa 3d 42 dc 19 be 1f e3 e7 bc
       -0.034127112 0.08319621 -0.15025428 -0.028306542
000320 26 87 45 bd 1b 89 b8 bc d5 32 5c bd f4 61 be bb
       -0.04822459 -0.022526314 -0.053759415 -0.0058100168
000330 05 83 8c bd 8d 42 80 3d 4a 84 d6 bb d5 d5 b1 3d
       -0.068609275 0.062626936 -0.006546532 0.08683363
000340 2f 7a 5b 3d 0f 0a 0f bd b4 2b a1 3d 4c f4 e8 3c
       0.05358332 -0.034921702 0.07869664 0.028436802
000350 1f 75 0c bc b3 a8 8a 3d 50 09 97 bd 43 63 44 3e
       -0.008572846 0.06770458 -0.07374823 0.1917849
000360 cc 60 4a 3c 08 2f d4 bd f4 c8 ba bd 6f b6 de 3c
       0.01235218 -0.10360533 -0.0912036 0.0271866
000370 8f 08 a0 bd 0d 90 3e 3c 06 e7 41 be 9f 09 b8 bb
       -0.078141324 0.011631024 -0.18935785 -0.0056163813
000380 c1 d9 ea bc 31 0e 81 bd c1 96 b8 3d 28 de 3b bd
       -0.028668286 -0.06301535 0.09013129 -0.04586616
000390 9e 19 3a 3c 02 ab f8 bb 26 25 2a 3e fc 40 1b bc
       0.011358647 -0.007588745 0.16615734 -0.009475943
0003a0 c6 d0 8d bd 0c 9e d8 bd f4 1f 53 3d 91 95 86 bd
       -0.06924586 -0.1057702 0.051544145 -0.06571496
0003b0 a7 09 cd 3d a3 11 7a bd b6 b0 bb 3d 9d 81 55 bc
       0.10011607 -0.061051976 0.09164564 -0.0130313905
0003c0 55 10 66 3d 41 40 96 3c 37 83 1c 39 a5 a9 cd bc
       0.05616792 0.018341186 0.000149262 -0.025105307
0003d0 6d ad a9 3d e4 fe db 3d b1 e1 80 3c d9 ef 19 3e
       0.082850315 0.10741976 0.015732618 0.15032901
0003e0 bb 65 c0 3d 62 7b a5 3d 93 a8 8e bd 05 bb a7 3d
       0.093944035 0.08080174 -0.06965747 0.08189968
0003f0 f7 30 4a 3c 69 02 16 3d a4 dd 1a bd af a4 9f 3d
       0.012340776 0.036623392 -0.03780903 0.07795083

_module.fc1.bias f4 [120]
000000 52 fa 20 bb 60 24 4b bd 70 81 07 be 81 48 07 3e
       -0.0024563265 -0.049595237 -0.1323297 0.13211252
000010 ff ce 6e 3c cc b3 09 3c 99 3f 1e be a2 76 23 be
       0.014575719 0.008404683 -0.15453948 -0.15963224
000020 0c de 85 3d 82 fa e0 bd 02 12 4d 3d a4 9d 20 3e
       0.06536493 -0.109852806 0.050066 0.15685135
000030 84 26 45 3d 72 d0 ba bd 59 0f 9b 3c e4 16 b2 bd
       0.048132434 -0.09121789 0.018928217 -0.08695772
000040 74 e9 6f 3e 3d 4d bf 3c 2f 4b f9 3d 0d 14 12 3c
       0.23428899 0.02335226 0.12172543 0.008915913
000050 e9 9c 49 bd e6 0c 04 bd 36 5a 9f bd ca 3a d1 bc
       -0.049221907 -0.032238863 -0.07780878 -0.025540728
000060 26 4d 05 be 18 e4 6d 3e 0d af c7 bb 04 56 32 3c
       -0.13017711 0.23231542 -0.0060938657 0.010884766
000070 84 4c d5 3d bb 4c b5 3d d8 cd 32 3d 72 6c 61 3d
       0.10414985 0.08852526 0.04365334 0.055035062
000080 8d cc 49 be 24 b6 7f 3c c3 21 9a 3c 94 0c 27 bd
       -0.19706936 0.015607391 0.018814927 -0.04078348
000090 07 24 a7 bc bf fe 1a 3e 6a e5 2e be f2 22 7b 3c
       -0.020402921 0.1513624 -0.17079702 0.015328156
0000a0 5c 2b 49 bc 44 37 6a 3e 33 e3 60 3e 84 65 54 3c
       -0.012278404 0.22872645 0.2196167 0.012963656
0000b0 2b cf 2a bd 4b fc 73 bd 6c 2e 2f be 47 96 39 bd
       -0.041701477 -0.059566777 -0.17107552 -0.04530933
0000c0 d0 22 33 bd 4a 7d 76 3d 70 a5 82 bd 33 e4 05 3e
       -0.04373437 0.06017808 -0.06379211 0.13075332
0000d0 24 55 f8 3c 62 14 d7 3b c2 b2 09 3e 26 7a 2a 3e
       0.030314036 0.006563709 0.13447097 0.16648158
0000e0 9d ec 79 bd c8 64 43 bd 4c e1 04 3d 28 75 ac 3d
       -0.061016668 -0.047703534 0.032441422 0.08420783
0000f0 2c bf 5b 3e 59 30 14 be 80 77 af 3c 6f a7 b7 bc
       0.21459645 -0.14471568 0.021419287 -0.022418706
000100 1e c6 ff bd dd 3a 4d bd 6d 4f ef 3b c1 b4 c1 3d
       -0.1248896 -0.050104965 0.0073031695 0.09458304
000110 c4 3c d9 3d c4 06 38 3d 8e 23 fe bb 03 13 75 bd
       0.10607293 0.044928327 -0.0077557033 -0.059832584
000120 0f 12 b9 3b 4a 88 80 bc 6f 6c 74 be 5f 05 df 3c
       0.0056479047 -0.015689988 -0.23869489 0.02722424
000130 1c 22 09 3e 29 5e cc bd 50 3b dd bc 03 f4 5d 3d
       0.13391918 -0.09978897 -0.027005821 0.054187786
000140 b5 6a 2d bd 86 82 0f 3e e8 3f e0 bc ec 76 b6 3d
       -0.042338092 0.14014634 -0.027374223 0.08909401
000150 ad 8f 8c 3d 4f 72 5c bc bd 20 66 3d cc f5 97 3d
       0.068633415 -0.013454988 0.056183565 0.07419929
000160 eb d2 24 bb ed 07 dd 3c 4e d6 93 bb 92 71 48 3c
       -0.002515013 0.026981318 -0.004511631 0.0122341085
000170 76 1b e8 bd a7 d9 41 3d cf 7c 94 bb c3 a7 fc bc
       -0.11333363 0.04732671 -0.00453148 -0.030841714
000180 6f be d3 bd af 1f 01 3d 0b 3a 14 be cb 61 75 3b
       -0.10339057 0.031524356 -0.14475267 0.0037442322
000190 93 dd 0f 3d 03 7b 74 3d 59 c3 ff 3c 17 9e 17 bc
       0.03512342 0.059687626 0.031221079 -0.009254
0001a0 e2 36 94 bd ad f2 e6 3c e2 e8 2e bd 70 8a a2 bd
       -0.072370306 0.028191889 -0.042702563 -0.07936561
0001b0 90 1a 4c be f3 65 98 3d 0a bc 50 3d 98 73 76 bd
       -0.19932008 0.0744132 0.050960578 -0.060168833
0001c0 35 fb 07 3d 57 9b 97 3c cc 95 56 bd 8c 08 07 be
       0.033198554 0.018506689 -0.05238895 -0.13186854
0001d0 a3 8f cf 3d 14 c2 7f bd ac dc b2 3d 74 dd 7f 3d
       0.101348184 -0.062440947 0.08733496 0.062467054

_module.fc2.weight f4 [84, 120]
000000 4e 0c 19 be d6 29 0d 3c 0b 09 ff 3c 0c a0 aa 3e
       -0.149461 0.0086159315 0.031132242 0.3332523
000010 02 b5 2b 3d ac 5a b0 3b 34 50 f2 bd 73 60 01 3e
       0.04192067 0.0053819027 -0.11831704 0.12634449
000020 e0 fb dc 3d 2c e3 a2 3c f9 90 7b 3d 8e 53 ca 3d
       0.10790229 0.019883715 0.061417554 0.09879218
000030 54 4c ed bd 78 a4 11 be 0e 90 30 3e 60 f9 06 bd
       -0.11586824 -0.14222896 0.17242453 -0.032952666
000040 ae 7f 4c bd cc 14 c9 3c 08 e3 28 3d d3 70 17 3d
       -0.049926452 0.02454605 0.04123214 0.036972832
000050 9d 58 88 3d 73 34 ec bd 14 9e f8 3d f5 c0 20 be
       0.06657527 -0.115334414 0.12139526 -0.15698607
000060 c4 5e 58 3e 25 7a 15 bd 3d cb 99 3d 3f 67 40 3b
       0.211299 -0.03649344 0.07509468 0.0029358414
000070 d3 4c d1 bd f2 eb 13 be 37 06 0a 3e 8d 3a b8 3d
       -0.10219731 -0.14445475 0.13478933 0.08995543
000080 f9 94 1b be 0c 40 84 3d 03 e7 52 3e ef 3e 0a be
       -0.15193547 0.064575285 0.20595936 -0.1350057
000090 04 1c a3 bd 09 2d 5d 3e b4 5c f3 bd 4a 8a 33 3e
       -0.07964328 0.21599211 -0.11882916 0.17533222
0000a0 fb 19 f3 bd 31 49 c0 bd 09 19 82 bd bb 6f f1 3b
       -0.1187019 -0.0938896 -0.06352431 0.0073680556
0000b0 e7 95 f7 3b 4d 77 84 3d c6 f1 f9 bd af 3a a1 3d
       0.0075557115 0.06468067 -0.12204318 0.07872521
0000c0 a0 e8 8c 3d 72 06 38 3c fd e9 0b be 26 4f 8c bd
       0.06880307 0.011232005 -0.13663478 -0.06851034
0000d0 f8 03 03 3d 26 c5 e3 bd a4 34 36 bd eb 73 0c 3d
       0.031986207 -0.111215875 -0.044483796 0.034290235
0000e0 31 5e 79 bc f0 8a 23 3e c3 fb 85 3c de 35 2e 3d
       -0.015220211 0.15970969 0.0163554 0.04253184
0000f0 41 81 6c 3d 59 17 e0 bd 82 5e d2 3d 55 df f8 bd
       0.057740454 -0.10941953 0.10271932 -0.12151972
000100 f8 ec b0 3d 5c 36 ff 3d 59 6d 0c 3e 71 38 d3 3d
       0.08638948 0.1246154 0.13713588 0.103135
000110 5a f7 cf 3d 19 d9 d3 3d e2 33 d0 bd d5 d5 c5 bb
       0.101546004 0.103441425 -0.10166146 -0.0060374537
000120 dc c5 8e bc 41 2a b4 bd c9 38 44 3d 8a 62 0c be
       -0.017428331 -0.08797122 0.047905717 -0.13709465
000130 3a c6 db bd ad c6 3c be fb 7c 74 3d dc 10 b8 3d
       -0.10731168 -0.18435164 0.059689503 0.08987591
000140 5d ca a1 3c 2d 90 24 be 41 8f 19 3d f2 f4 77 3c
       0.019749815 -0.16070624 0.037490133 0.015134083
000150 01 f3 87 3d 33 77 17 be 26 f3 57 bc f4 c9 51 3d
       0.06638146 -0.14791565 -0.01318053 0.051217988
000160 59 b8 2e be ba 01 f8 bb 42 69 2b 3e 8a 96 3a be
       -0.1706251 -0.007568565 0.16739371 -0.18221489
000170 f8 27 40 3e 86 62 c6 3c 76 0d 62 3d db 17 d0 3d
       0.18765247 0.024216902 0.05518862 0.101608
000180 14 1e 26 3d ff a7 b8 bd 9f 72 f2 3d 3b 2f 91 be
       0.04055603 -0.09016418 0.118382685 -0.28356346
000190 d0 de 40 bd 88 21 5b bd 35 01 16 be 1d 42 2d bd
       -0.04708749 -0.053498775 -0.14648898 -0.04229938
0001a0 f8 75 13 3d 90 0c 41 3e f2 c8 9e 3d e1 50 0b bd
       0.036001176 0.18852448 0.07753171 -0.03401268
0001b0 45 39 03 be c2 43 af bd b7 b7 25 be a1 fc 67 be
       -0.12814815 -0.08557846 -0.16183363 -0.22654964
0001c0 9b 92 86 3d 9a fb 51 3d 0d d3 c0 bd a4 57 5e bd
       0.065709315 0.051265337 -0.09415255 -0.0542828
0001d0 ad 71 84 be c4 3b 02 be e9 d7 57 3e ff 73 61 bd
       -0.25867978 -0.12718111 0.21078457 -0.055042263
0001e0 ff 2f 61 bd 68 a9 a0 bd cb 58 a4 bd 5c cf 45 3c
       -0.054977413 -0.07844812 -0.080247484 0.012073364
0001f0 c8 d1 bb bd b4 5f be bd 71 ce ed 3d f2 4b af bd
       -0.09170872 -0.09295598 0.11611641 -0.08559407
000200 7a e9 fe bb 51 bc 30 3c 80 ef a2 bd a2 97 9a be
       -0.0077792974 0.010787086 -0.07955837 -0.30193812
000210 29 bb 82 be d9 41 88 bd 15 95 93 3b e3 85 cf 3b
       -0.25533417 -0.066531844 0.004503856 0.006333099
000220 74 88 11 be 89 f1 af bd 4d 82 60 3c ab 2c 87 ba
       -0.14212209 -0.08590991 0.013702941 -0.0010312995
000230 ca 0d d6 3d f2 17 af 3d d4 67 2a be 3e e8 7b 3d
       0.10451849 0.08549489 -0.1664117 0.06150078
000240 60 3c 05 be de 19 dd 3d 91 96 83 3c 8b d1 1a bc
       -0.13011312 0.107959494 0.016063007 -0.009449373
000250 22 02 23 3e cd 94 fc bd 0e 2a 09 bc 8b 24 11 be
       0.15918782 -0.12333069 -0.008371843 -0.14174096
000260 76 f3 80 3b 39 04 31 bd 6b 05 99 3d 77 3d 74 bd
       0.003935273 -0.043216918 0.074717365 -0.05962893
000270 50 36 33 3c 7c 22 94 3d b0 e7 19 3e 31 5d 77 be
       0.010938242 0.0723314 0.15029788 -0.24156643
000280 b1 5d 26 be c1 63 2c 3d 35 89 0a 3e 91 7d d9 bc
       -0.16246678 0.04208732 0.13528903 -0.026549133
000290 74 b4 dd 3c e5 68 cd 3d b4 6f 47 bd 65 65 72 bd
       0.027063586 0.10029773 -0.048690513 -0.05917873
0002a0 0e 27 f2 3c 40 62 02 3e 91 67 5a 3d 49 a4 f8 3d
       0.029559638 0.12732792 0.053321425 0.1214071
0002b0 7b 9c 96 3d 84 eb 68 3c ae f1 09 be db 42 30 3e
       0.07354065 0.014216308 -0.134711 0.17213003
0002c0 bd 0b 28 3e 51 b3 88 3d ae 00 39 3d ac 4d ae bd
       0.16410728 0.06674827 0.045166664 -0.085109085
0002d0 c6 f6 80 3e 12 18 fd 3c 07 ee 46 be 36 14 74 3e
       0.25188273 0.030895267 -0.19426738 0.23835835
0002e0 81 a6 62 bc 4c 9e ab bd 13 71 55 be 92 88 89 bc
       -0.013833643 -0.08379802 -0.20843916 -0.016788755
0002f0 36 b5 a7 3d d2 36 ad 3d 3a 3c 16 bd 06 8a 39 be
       0.0818886 0.08457722 -0.03667853 -0.18119058
000300 28 f6 81 3e 90 d1 5f be aa d9 1d 3c 19 43 6b bd
       0.25383115 -0.21857285 0.009634415 -0.057437036
000310 36 c8 30 3e bb 26 ce 3d 26 89 e9 3d b1 7f 45 3d
       0.17263874 0.10065981 0.11403112 0.04821748
000320 d3 03 48 3d ec ef 17 3e a7 4e 28 be 51 3d 7a 3b
       0.048831772 0.14837617 -0.16436253 0.003818352
000330 b9 99 d8 3d 77 4e f3 bd 2c 56 14 3e 34 6f e4 bd
       0.10576195 -0.118802 0.14485997 -0.11154023
000340 3f ed d1 3d 8c f7 72 be 49 1c a4 bc 1d 63 e4 bd
       0.10250329 -0.23727244 -0.020033019 -0.11151717
000350 8b d2 91 3c ea 8d 77 3e a2 47 b9 bd 28 fa d8 bb
       0.01780059 0.2417523 -0.09046866 -0.006621618
000360 46 ac 01 bc 99 00 e7 bd 55 08 11 3c 98 d8 71 be
       -0.007914608 -0.11279411 0.008852084 -0.2361778
000370 a8 87 79 be 4e e3 57 be c0 77 15 be 5e 82 c9 3d
       -0.24368155 -0.21082804 -0.14596462 0.09839319
000380 b4 0f 42 be 78 2f bc 3c 51 ed b7 bb ee 27 52 3d
       -0.18951303 0.022971854 -0.005613007 0.05130761
000390 49 31 6b 3d 54 5b 8c 3d 5c dd d6 bd a6 57 11 bc
       0.05742005 0.06853357 -0.1049144 -0.008870995
0003a0 2f 71 ca 3d 06 1f 9b bd 04 45 de bd 5a 24 1b 3e
       0.09884869 -0.075742766 -0.108530074 0.15150586
0003b0 01 5f 0f bc da 0b fb bc 29 5a 03 bd c6 49 45 bd
       -0.008750678 -0.0306453 -0.032068405 -0.04816606
0003c0 bb 99 60 bd 78 aa 95 3c 4b 3d 27 be 15 04 59 3d
       -0.05483411 0.018269762 -0.16331975 0.05298241
0003d0 32 3a cc bd e2 89 20 3e 8f 8f bf 3d f3 74 50 bd
       -0.099720374 0.15677598 0.093535535 -0.05089278
0003e0 28 78 28 bd b5 c7 b3 ba 4d 43 35 be 66 f9 6e 3c
       -0.041130215 -0.0013716134 -0.17701454 0.014585828
0003f0 9a 59 01 3d 3d ca 62 3d 30 4f 7b 3c ed c7 cb 3c
       0.03157959 0.05536865 0.015338704 0.024875605

_module.fc2.bias f4 [84]
000000 eb 82 0d be 09 58 4d 3d 95 84 04 3e 86 6a f2 3d
       -0.13819472 0.050132785 0.12941201 0.11836724
000010 4d e8 3b bc 7f 80 07 3e cc c7 69 3e 73 71 17 3e
       -0.011468959 0.13232611 0.22830123 0.14789371
000020 39 d8 8c 3d fb a2 31 3c 0f 7a 05 3e 6e 9e 36 bc
       0.06877179 0.01084208 0.13034843 -0.011146171
000030 d7 11 50 3e 8b d7 cb bb 17 e4 04 3e 98 31 34 3c
       0.20319305 -0.006220763 0.12977634 0.010998152
000040 20 e4 8c bc 1b 38 b5 3c db c7 68 3d 15 ae 48 3e
       -0.017198622 0.02212148 0.056831222 0.19597657
000050 de 2c b8 3d 62 1d 8f bd b2 08 2c 3d 4c d1 1b 3e
       0.08992933 -0.06988026 0.04200048 0.15216559
000060 a2 c0 22 3d 1d fe 35 3e 39 e3 d9 bd d0 45 0c be
       0.03973449 0.17772718 -0.106390424 -0.13698506
000070 4b e8 3c bd dc 7c 10 be 04 5f 18 bd 10 3c 38 3e
       -0.04611997 -0.1411013 -0.03719999 0.17991662
000080 ed c6 38 3e fa 2e 88 bb 2a 85 01 be 71 fa ba 3d
       0.18044634 -0.0041559907 -0.12648454 0.09129799
000090 50 c7 fd 3d 33 12 ff 3d 3d 74 ad 3d 77 fe 8d 3c
       0.123915315 0.12454643 0.08469436 0.017333252
0000a0 1e 56 21 3d d1 41 0e 3d 45 e8 02 bd d7 74 3e 3d
       0.03938877 0.034730736 -0.03195979 0.046498146
0000b0 d7 bd 1a bd 17 f0 c0 be 80 19 a5 3c b2 93 3a 3e
       -0.0377787 -0.37683174 0.02015376 0.18220404
0000c0 df 2f 01 be e5 71 11 3e 8f ac c8 3c f0 b3 da bd
       -0.12615918 0.14203604 0.024496345 -0.106788516
0000d0 aa 61 a8 3d 1d ba 1e 3d b1 66 fe bd 83 56 01 bd
       0.08221753 0.03875171 -0.124219306 -0.031576645
0000e0 95 31 cf ba 38 a4 1d 3d 4b e1 c0 bd 03 19 14 3e
       -0.0015807623 0.03848669 -0.09417971 0.14462666
0000f0 b6 39 87 bd a3 e3 51 bd 60 43 1e 3e 0a 00 32 be
       -0.06602804 -0.051242482 0.15455389 -0.17382827
000100 8c 51 98 bd ed 47 92 bd 80 5a 59 3d 86 73 ac bc
       -0.07437429 -0.07142625 0.053064823 -0.02105118
000110 c1 13 70 bd d9 21 13 3e 2a a9 4e bd dd bb ef 3d
       -0.05861259 0.1436838 -0.050454296 0.11705754
000120 23 70 15 3d a1 72 91 bd 76 57 a8 3c e6 c4 79 3d
       0.036483895 -0.07101942 0.020549517 0.060978793
000130 8a 95 c3 3c 16 7d b1 bd 89 7d 0a bd d3 e9 d8 3d
       0.023875017 -0.086664364 -0.033811126 0.105914734
000140 e7 a6 ae bd c3 a1 23 3d dc ff 89 3d 79 9c 11 bd
       -0.08527928 0.03994919 0.067382544 -0.035549615

_module.fc3.weight f4 [10, 84]
000000 9d 8f 5d 3d 09 ef 98 3d 53 10 92 bd 80 2b cb 3b
       0.05409204 0.07467467 -0.0713202 0.006200254
000010 5e a1 af bb 8f 41 84 be f8 20 c7 3d 23 21 0a be
       -0.0053598126 -0.25831267 0.09723085 -0.13489203
000020 6c bb a3 3d 0c c5 61 3c ed bf 7c bd 45 b8 80 3d
       0.07994732 0.01377989 -0.061706472 0.062851466
000030 cb c0 45 be 2f 8b f3 bd da 68 b0 bd cd d2 68 bd
       -0.19311826 -0.118917815 -0.08613749 -0.05684166
000040 3d 39 5e 3d 9e fa 2e be 04 a4 16 bd 59 56 14 3e
       0.054253805 -0.1708779 -0.03677751 0.14486064
000050 ff b9 75 be 05 b9 31 bd ef 79 67 3e 4c 62 b3 be
       -0.23996733 -0.04338934 0.22605108 -0.35035932
000060 31 cd 17 3e 68 68 77 3d 38 b4 a8 bd 35 9c 82 3e
       0.14824368 0.060402304 -0.08237499 0.25509802
000070 dc ee 1c be 6b e1 e2 bd 25 12 81 bc 8c 0c 89 3c
       -0.15325493 -0.11078151 -0.015755722 0.016729616
000080 20 f1 1e 3e 6a 96 04 be a9 73 de 3c 22 90 15 be
       0.1552167 -0.12948003 0.02715476 -0.14605764
000090 92 ab 26 3c 92 36 00 3e b4 11 1d 3e ad 62 25 bd
       0.0101727415 0.12520817 0.15338784 -0.040377308
0000a0 ad df 22 bd 2a 6f 7d 3e bc c3 e6 bd 0b 43 5b 3e
       -0.039764095 0.24749437 -0.11267802 0.21412294
0000b0 65 17 c6 bd a6 36 57 bc 67 8e 15 3e be a2 cd bd
       -0.09672431 -0.013135588 0.14605103 -0.10040806
0000c0 ce 94 13 bd 2d af d7 bd 92 9e 1b bc d6 34 96 3c
       -0.036030583 -0.10531459 -0.009498255 0.018335741
0000d0 40 53 0f 3e 2d 00 2c bd e4 fa be bd 08 0f 93 3d
       0.13996601 -0.041992355 -0.09325197 0.07180601
0000e0 c5 87 15 be 11 12 67 3d 30 52 69 be f9 95 8d bc
       -0.14602573 0.056413714 -0.22785258 -0.017283427
0000f0 1c 65 46 3e 97 fe 6e 3c 98 5d 49 bd 99 34 a2 3c
       0.19374508 0.014587066 -0.049161524 0.019800471
000100 29 b4 a4 3d 65 d5 a8 bd 94 d5 11 3c d0 f4 a3 3d
       0.08042175 -0.08243827 0.008901019 0.08005679
000110 69 c3 17 be 78 9e 01 be 8b bc 3e 3d f8 ff b5 3c
       -0.14820637 -0.12658107 0.046566527 0.022216782
000120 26 d6 32 bd 8e 9d 5d bd 40 81 87 be 55 5d 52 be
       -0.04366126 -0.054105334 -0.26465797 -0.20543416
000130 1a 64 c9 3d d2 e9 3f bd f0 01 04 3e 0e 5b 44 be
       0.09833546 -0.046853848 0.12891364 -0.1917536
000140 bb ad be 3d 63 ce 45 bc bf a8 68 bd d5 26 0b be
       0.0931048 -0.012073132 -0.056801554 -0.13589032
000150 96 d0 da bb fb 01 8d be d0 01 84 3d ae 82 c3 3c
       -0.0066776974 -0.27540573 0.06445658 0.023866024
000160 be 16 0f 3d d5 b6 6f bd 1c f8 66 bc 95 0f 13 3e
       0.034933798 -0.05852397 -0.01409724 0.14361413
000170 f8 b7 98 bc 50 95 41 be ca 70 6f 3c ba 8b 3a 3e
       -0.01864241 -0.18904614 0.014614293 0.18217364
000180 98 c5 97 3e f6 27 2a 3e 75 e2 58 bd 51 a1 22 bd
       0.2964294 0.16616806 -0.05295034 -0.039704625
000190 ec 0e 8c 3d fc 4c 56 bd 27 0a 8c 3e ed e0 70 3d
       0.068387836 -0.05231951 0.27351496 0.058808256
0001a0 76 58 04 bc 1f 50 38 3d c4 27 a8 bd 3c 0e 50 be
       -0.008077731 0.044998284 -0.0821071 -0.2031793
0001b0 28 07 13 bd a7 1c b7 3d 4a b4 6b be 80 eb 88 3d
       -0.035895497 0.08941012 -0.23017994 0.06685543
0001c0 2a e2 89 3e f1 6c 89 3e bc ef 01 3d 1f 53 9f bd
       0.26930362 0.26840928 0.03172277 -0.07779526
0001d0 84 44 2d bc 61 df 2f 3d a1 85 73 be 56 e6 34 3d
       -0.010575417 0.04293764 -0.23781444 0.044164978
0001e0 d1 95 71 bd b1 d7 bf be 87 9c e5 bd 48 b8 07 3c
       -0.058980767 -0.37469247 -0.11211496 0.008283682
0001f0 db fb 26 be a8 ca 4c 3d a7 72 b7 3d ec 7f ac bb
       -0.16307013 0.049997956 0.08957415 -0.005264273
000200 04 14 06 3e 76 e6 40 bd 39 ea b7 3d 68 89 d2 bc
       0.13093573 -0.047094785 0.08980221 -0.025700286
000210 2e 3e 73 3d f0 dc 5a 3e c1 e5 0f 3c 59 2b c6 bd
       0.05938547 0.21373343 0.008782805 -0.09676237
000220 36 43 ec 3c 25 45 3c be 66 2c 11 be d8 f3 02 3d
       0.028840642 -0.18385752 -0.14177093 0.03197083
000230 e4 f9 73 3d 5e af 77 3e ee 28 47 be 76 ec 2f 3d
       0.059564486 0.24187991 -0.19449207 0.042950116
000240 b7 ab 5a be 3a d2 13 3d 8a ca f6 3b b6 32 9c be
       -0.21354567 0.03608916 0.0075314688 -0.3050744
000250 50 28 f8 3c 32 d5 fa 3c a8 93 d6 bd 30 61 be 3d
       0.03029266 0.030619238 -0.10477382 0.09295881
000260 8c b8 1c be 44 ac bd bb a9 f1 ae bd 8b 54 4b 3e
       -0.15304774 -0.005788358 -0.08542187 0.1985647
000270 2d 13 b0 3d 50 42 52 bd f2 29 b7 3e b4 13 8c 3e
       0.085974075 -0.05133277 0.3577419 0.27358782
000280 6d e3 c5 3c 95 86 cc 3d e7 c6 e4 3d 5a 7c d9 3d
       0.024156297 0.09986607 0.1117075 0.10619421
000290 67 e0 8b 3d 72 9e f7 3d 77 4f e3 bc 7c 11 15 3e
       0.06829911 0.12090768 -0.027747853 0.14557451
0002a0 a9 a8 27 be 9f 83 6f be f3 6c aa 3e 47 7a ae bb
       -0.16372932 -0.23390053 0.33286247 -0.005324635
0002b0 05 b3 59 3d 01 ae ea bd 80 78 04 bc 5b 4f 9e 3d
       0.053149242 -0.1145897 -0.00808537 0.077299796
0002c0 3d 94 28 3e 7d 7d c3 bc af d6 03 be 7d a1 81 bd
       0.16462798 -0.023863548 -0.12874864 -0.063296296
0002d0 dd 7a 8d 3d a3 82 ba 3c 2e ff 5d be a9 6e 37 3e
       0.069082 0.02276737 -0.21679375 0.17913307
0002e0 3e c0 83 bd 69 ae 1f be 62 b1 1b 3e 1b fa aa 3d
       -0.06433152 -0.15593876 0.15204385 0.08348485
0002f0 c5 c4 02 3e e8 98 8c 3d 2c ac 3d 3a 62 ef 9a bc
       0.12770374 0.06865102 0.00072354334 -0.018912975
000300 4a 94 cc 3c a7 fa 4e be 12 7f 81 bd 38 0a 5a bd
       0.024973053 -0.20212804 -0.06323065 -0.0532324
000310 bc d2 22 3d 1f 7c 3b bd 5c 16 cc 3d 84 58 0b be
       0.039751753 -0.045772668 0.09965202 -0.13607985
000320 46 c6 e3 3b 8c d3 0e 3e 1f ce 9c 3e a8 7e 27 3e
       0.0069511263 0.13947886 0.30626008 0.1635691
000330 a8 00 0b 3c de 66 6e 3e cc bd 0a be a8 16 a7 3e
       0.008484043 0.23281428 -0.13548964 0.32634473
000340 5f 0a 65 3e 5a 64 66 3d c1 d8 46 be 63 e4 fa 3c
       0.22367238 0.056248046 -0.19418623 0.030626481
000350 e7 39 0e bd 38 9a 43 be 4d 31 63 bd c7 19 51 be
       -0.03472319 -0.19101799 -0.05546694 -0.2041999
000360 69 de f6 bc 33 b7 ef bc 03 37 29 3d 84 cc ce bd
       -0.03013535 -0.02926216 0.04131223 -0.10097602
000370 d7 3d c3 3d 98 90 ec bd e6 22 54 3d 6f 3e b8 bd
       0.095332794 -0.115510166 0.051791094 -0.08996283
000380 b5 5e 84 3d 7d f2 28 3d 54 70 10 3e 8f fe 51 be
       0.064633764 0.04124688 0.1410535 -0.20507263
000390 7e f3 c3 bc df 12 70 3d 81 eb ad 3b a3 41 4a be
       -0.023919817 0.058611747 0.0053076153 -0.19751601
0003a0 f3 01 05 be 25 1d 48 3e ca bf b0 3b f3 1a 60 3e
       -0.12989025 0.19542368 0.005393957 0.2188528
0003b0 22 7a bf 3d 35 b2 4b 3e af cf db bc 6e 17 00 bc
       0.09349467 0.198922 -0.02683243 -0.007818086
0003c0 ab e2 e9 bb 92 c1 98 bd 11 4e 31 be a0 ec a3 bd
       -0.0071376166 -0.074587956 -0.17314936 -0.08004117
0003d0 85 66 e8 bd a7 ac a4 3c 5f a7 b8 bc aa 67 1b be
       -0.11347679 0.020101858 -0.022540746 -0.15176263
0003e0 94 a6 36 be a8 0d 7d 3d f2 58 7d 3e 8a f9 06 3e
       -0.17836982 0.0617806 0.24740961 0.13181129
0003f0 7d c2 fe 3d fe bb 79 be 89 44 dc bd e0 82 9a bc
       0.124394394 -0.2438812 -0.107552595 -0.018861234

_module.fc3.bias f4 [10]
000000 a1 30 b0 3d 75 09 a1 3d a5 50 f6 3c b5 01 f2 bd
       0.08603025 0.07863132 0.030067751 -0.11816732
000010 c0 cf 05 bd 7c cf 5d bc f3 81 23 be 1a f6 ad bd
       -0.03266883 -0.013538238 -0.1596754 -0.08494206
000020 5b 0a 92 3d 09 40 b1 bd
       0.071308814 -0.08654792
