dp_lenet_code/dp_lenet_plots_fixed_epsilon/lenet_epsilon_5.72_gradnorm_1.1.pt (torch, 251144 bytes, 10 tensors)

_module.conv1.weight f4 [6, 1, 5, 5]
0.40154076 0.44485933 0.25945392 0.39806357 0.06275152 0.3806127 0.31047145 0.6660368
0.6039612 0.1260116 0.53934705 0.6102142 0.5508278 0.35810125 0.3519672 0.28153247
0.64425224 0.35108566 0.05656632 0.17956477 -0.07534831 0.042110436 -0.003514793 0.15813583
-0.15220833 0.024827486 -0.1122651 0.16231076 0.13847534 -0.21027945 0.19685058 -0.1591985
0.2081937 0.035625126 0.014618615 0.25822267 0.19679435 0.56966525 0.39094147 0.12724924
0.2439267 0.3093493 0.5633518 0.6150587 0.45161787 0.1429095 0.28070587 0.2029673
0.27397725 -0.065412425 -0.016445851 0.025557406 0.047146317 0.3504113 0.17927861 0.09738501
0.24725066 0.22561198 0.21256773 -0.23700736 0.14546716 0.13839953 0.27914414 0.044666234
-0.12805882 0.14247563 0.4825988 0.06798912 -0.14874627 -0.331964 0.37285742 0.19253933
0.39327604 -0.24089555 -0.16674684 -0.17640713 -0.22447054 0.08084987 0.17815678 0.2706453
-0.10888398 0.10406245 0.25611097 0.07863452 0.24229036 0.05859032 0.3006802 0.09494827
-0.15879393 0.0019094192 0.07408709 -0.111260064 0.1509475 0.099902354 -0.054557964 -0.22901773
0.11205097 -0.02444187 -0.20032343 -0.25341758 -0.2938166 -0.04161329 -0.20767866 -0.22617082
-0.08593035 -0.14176594 -0.14016832 -0.33608356 -0.12378842 -0.2694723 0.07734152 -0.0643097
-0.003100246 -0.14157906 -0.26547757 -0.033989426 0.06493997 -0.13899437 -0.15496635 -0.18111326
0.030739024 -0.0008007111 -0.06899611 -0.17107733 -0.16272043 0.012629954 0.0022889045 -0.02280658
0.21452773 0.0053177243 0.024336124 0.02491107 -0.12079198 -0.022164226 -0.083197735 -0.0003025819
-0.15323795 -0.26150483 0.036704477 0.0056464523 0.060603235 -0.16488826 -0.01200342 -0.1476451
0.07010379 0.04886973 0.22890472 0.25812083 0.29540178 0.009911696
00000000: c096 cd3e 9ac4 e33e 25d7 843e fdce cb3e
00000010: de83 803d abdf c23e 1df6 9e3e 6381 2a3f
00000020: 349d 1a3f 2f09 013e a612 0a3f ff36 1c3f
00000030: 0d03 0d3f 0c59 b73e 0b35 b43e 0625 903e
00000040: b7ed 243f 80c1 b33e 16b2 673d d4df 373e
00000050: 3750 9abd fe7b 2c3d 7158 66bb 5cee 213e
00000060: 80dc 1bbe 0363 cb3c 3feb e5bd cb34 263e
00000070: 7bcc 0d3e 7f53 57be 3393 493e ee04 23be
00000080: bb30 553e a7eb 113d ea82 6f3c c335 843e
00000090: 7584 493e 95d5 113f 7b29 c83e a04d 023e
000000a0: ecc7 793e 0863 9e3e d337 103f 7d74 1d3f
000000b0: 753a e73e de56 123e aeb8 8f3e a9d6 4f3e
000000c0: bf46 8c3e f3f6 85bd 73b9 86bc c45d d13c
000000d0: 7f1c 413d 1c69 b33e d094 373e cb71 c73d
000000e0: 472f 7d3e d406 673e 5bab 593e 0fb2 72be
000000f0: 58f5 143e 9bb8 0d3e fbeb 8e3e f1f3 363d
00000100: da21 03be 22e5 113e 3117 f73e e13d 8b3d
00000110: f150 18be 2ff7 a9be 2be7 be3e 0829 453e
00000120: 7a5b c93e 53ad 76be afbf 2abe 12a4 34be
00000130: 9bdb 65be 9e94 a53d bb6e 363e 0592 8a3e
00000140: 90fe debd b21e d53d fa20 833e 230b a13d
00000150: f71a 783e 67fc 6f3d c1f2 993e 3d74 c23d
00000160: e09a 22be 7a45 fa3a f9ba 973d 51dc e3bd
00000170: fb91 1a3e 9b99 cc3d 2c78 5fbd a083 6abe
00000180: fb7a e53d 513a c8bc 9621 4dbe f3bf 81be
00000190: 216f 96be b272 2abd b7a9 54be 5399 67be
000001a0: 40fc afbd 172b 11be 4988 0fbe 2513 acbe
000001b0: c884 fdbd 46f8 89be 3b65 9e3d ceb4 83bd
000001c0: 7f2d 4bbb 1afa 10be adec 87be 7f38 0bbd
000001d0: 3fff 843d 8a54 0ebe 80af 1ebe c175 39be
000001e0: 68d0 fb3c d0e6 51ba d54d 8dbd e52e 2fbe
000001f0: 2fa0 26be deed 4e3c 7201 163b ddd4 babc
00000200: 28ad 5b3e 4e40 ae3b 8d5c c73c 4d12 cc3c
00000210: c961 f7bd c091 b5bc 9363 aabd dba3 9eb9
00000220: 69ea 1cbe f6e3 85be 6f57 163d e005 b93b
00000230: 193b 783d 78d8 28be fea9 44bc 4730 17be
00000240: 9392 8f3d a02b 483d 0066 6a3e 6a28 843e
00000250: e73e 973e ab64 223c

_module.conv1.bias f4 [6]
0.20645492 0.056476954 0.0062590074 -0.1871315 0.11001623 -0.1123932
00000000: eb68 533e 6154 673d 5c18 cd3b 669f 3fbe
00000010: 3050 e13d 682e e6bd

_module.conv2.weight f4 [16, 6, 5, 5]
0.08970882 -0.0068770032 0.23542568 -0.021899432 0.17221005 0.038828492 0.059326418 0.035881452
0.123080574 -0.15238614 0.02177035 0.15598288 0.2621829 -0.11941112 -0.023301981 0.023392947
0.1688697 0.11660385 -0.025947785 -0.0009667872 -0.034361735 0.1600885 0.07459042 -0.13226874
-0.12623924 0.15780863 0.035880513 0.045824714 0.10514584 0.118389994 -0.123935334 -0.05170899
0.058061518 0.052557513 0.026769923 -0.13696584 0.025811384 0.07979952 -0.09874436 -0.13714741
0.033051103 -0.058359575 0.03339368 -0.11752466 -0.18172579 -0.02227955 0.17451479 0.06343521
-0.03926244 -0.10091734 -0.19819435 -0.20559892 -0.05826369 0.033843435 0.17275782 0.039985698
-0.10317856 -0.04750708 0.14097965 0.09320751 0.07123157 0.098203845 0.08025194 0.061698068
-0.116710626 0.046557277 0.14840774 0.1384196 -0.046561178 0.021874549 0.10095885 -0.01590942
0.106545866 0.019562457 -0.0916469 0.0077725435 0.100106135 0.11074522 0.12980084 -0.106027715
0.0012622009 -0.061847948 -0.1392445 -0.0601005 0.09911089 -0.06923605 0.029428884 -0.08122729
-0.10620675 -0.08876281 -0.1338567 -0.013481065 -0.07116384 -0.06867254 -0.11768744 0.050691206
-0.060297128 -0.11740344 -0.064103976 0.04117303 0.006228374 0.10203117 0.0799238 0.10343141
0.021018134 0.026688572 0.044115603 -0.07373062 0.2385245 0.11768194 -0.00029200537 -0.12822236
-0.025948228 0.09576202 -0.014542684 -0.13343193 -0.021152068 0.13389263 0.17360102 -0.02133487
-0.1201467 0.061193887 0.11810817 -0.0016117233 -0.02030285 0.0045865113 0.06862183 -0.0066399337
-0.108230494 -0.12066355 -0.023766303 0.12587455 0.062078316 -0.12749311 0.04005041 0.096314065
-0.0573753 -0.28612572 0.08315914 -0.17461486 0.04871915 -0.09339014 -0.20491631 -0.034382764
-0.06850969 -0.039176974 0.16034563 -0.15422386 -0.119780324 0.051541157 0.014462877 0.01129541
-0.13528572 0.011865597 0.09000475 0.08513813 -0.027274268 0.33175912 0.1624751 0.09843078
-0.06980392 0.077856645 0.017629929 0.04369321 0.080183975 -0.039512537 0.106707096 0.07694511
0.011838955 -0.09605805 -0.1063821 -0.05701331 -0.088301726 -0.018250613 0.033479717 -0.10669171
-0.062508546 -0.091370195 0.12828147 0.15568824 0.15224801 0.18092032 0.013472558 0.036135536
-0.10873079 -0.08382641 0.029790413 -0.22963347 -0.10791955 -0.05947656 -0.06256491 -0.111560896
0.0038248824 0.09976588 0.018486176 0.13526352 0.06812202 0.04672843 -0.07059993 0.051067136
0.049043342 0.016045146 -0.10056644 0.0031782812 -0.018680587 0.011626954 0.043793906 0.0339706
0.010564734 0.08638368 -0.056372494 -0.079541005 -0.07661631 -0.013293456 0.064193614 -0.024861291
-0.13660862 0.09133691 -0.11717711 -0.015888195 0.040170614 -0.015634302 0.007047996 -0.18377626
0.096495494 -0.068030596 -0.03263932 0.07342538 0.10658337 0.039935064 0.0026194481 -0.08101644
-0.011670588 0.0300069 -0.11899047 -0.1083132 0.07776907 0.12462342 -0.013266949 -0.16664088
-0.008895001 0.00095750886 -0.08880049 0.008954131 -0.055066716 -0.09853686 -0.06138993 -0.08175333
-0.12995198 -0.08950094 -0.096690685 -0.17295395 -0.14347492 -0.02022691 0.009992583 -0.056260783
00000000: 42b9 b73d 7c58 e1bb 6e13 713e 7066 b3bc
00000010: d557 303e a00a 1f3d 4200 733d 6ef8 123d
00000020: ab11 fc3d 1d0b 1cbe bc57 b23c fab9 1f3e
00000030: d63c 863e d18d f4bd cce3 bebc 91a2 bf3c
00000040: 2eec 2c3e 00ce ee3d 7390 d4bc fe6f 7dba
00000050: e4be 0cbd 3dee 233e ddc2 983d 7571 07be
00000060: dc44 01be 9698 213e 72f7 123d b2b2 3b3d
00000070: b456 d73d 7476 f23d cfd1 fdbd cecc 53bd
00000080: ead1 6d3d 8c46 573d 994c db3c c640 0cbe
00000090: 6572 d33c ee6d a33d 7c3a cabd 5f70 0cbe
000000a0: 9860 073d 730a 6fbd d0c7 083d c5b0 f0bd
000000b0: 5316 3abe 9a83 b6bc 01b4 323e 52ea 813d
000000c0: a7d1 20bd c0ad cebd 76f3 4abe 8688 52be
000000d0: e8a5 6ebd 6a9f 0a3d 6de7 303e 0bc8 233d
000000e0: 484f d3bd c996 42bd f85c 103e 94e3 be3d
000000f0: dbe1 913d 191f c93d 215b a43d 1db7 7c3d
00000100: fb05 efbd d8b2 3e3d 33f8 173e debd 0d3e
00000110: efb6 3ebd 4132 b33c 83c3 ce3d 7954 82bc
00000120: b834 da3d 7241 a03c 5fb1 bbbd d2b0 fe3b
00000130: 7204 cd3d 64ce e23d 83ea 043e 0f25 d9bd
00000140: 6f70 a53a 4654 7dbd 1c96 0ebe f12b 76bd
00000150: a6fa ca3d a1cb 8dbd d814 f13c 7e5a a6bd
00000160: ed82 d9bd 47c9 b5bd bb11 09be afdf 5cbc
00000170: 59be 91bd 30a4 8cbd 1d06 f1bd 95a1 4f3d
00000180: 1ffa 76bd 3771 f0bd f248 83bd 0da5 283d
00000190: 6317 cc3b b8f5 d03d 17af a33d d9d3 d33d
000001a0: 392e ac3c fea1 da3c 90b2 343d 1400 97bd
000001b0: c43f 743e 3b03 f13d 4c18 99b9 b94c 03be
000001c0: 6191 d4bc e11e c43d 7044 6ebc 61a2 08be
000001d0: 1a47 adbc 261b 093e 77c4 313e 77c6 aebc
000001e0: 790f f6bd 71a6 7a3d b2e2 f13d 7640 d3ba
000001f0: 2a52 a6bc 724a 963b 9a89 8c3d cd93 d9bb
00000200: f3a7 ddbd 741e f7bd 8db1 c2bc 42e5 003e
00000210: d545 7e3d 8e8d 02be e60b 243d 4f40 c53d
00000220: 5d02 6bbd 127f 92be 574f aa3d 3dce 32be
00000230: bb8d 473d 5443 bfbd 95d5 51be f1d4 0cbd
00000240: cf4e 8cbd 0978 20bd a531 243e dcec 1dbe
00000250: 634f f5bd d21c 533d b4f5 6c3c 6210 393c
00000260: 5788 0abe ec67 423c 6954 b83d e65c ae3d
00000270: 496e dfbc 55dc a93e df5f 263e 1496 c93d
00000280: 5cf5 8ebd 4e73 9f3d a46c 903c a7f7 323d
00000290: 7f37 a43d e6d7 21bd 4089 da3d 6695 9d3d
000002a0: 2df8 413c 15ba c4bd dcde d9bd ca86 69bd
000002b0: 89d7 b4bd 4f82 95bc 0722 093d 2f81 dabd
000002c0: 7b04 80bd 4c20 bbbd 385c 033e bd6c 1f3e
000002d0: e7e6 1b3e 2d43 393e 01bc 5c3c db02 143d
000002e0: 40ae debd 2ead abbd 060b f43c 0925 6bbe
000002f0: ed04 ddbd b29d 73bd 0822 80bd 0a7a e4bd
00000300: e1aa 7a3b 0e52 cc3d 5270 973c 8582 0a3e
00000310: 8f83 8b3d 4f66 3f3d b296 90bd c62b 513d
00000320: ace1 483d 1c71 833c c7f5 cdbd b64a 503b
00000330: 0808 99bc fb7e 3e3c 3d61 333d c224 0b3d
00000340: b517 2d3c ede9 b03d d8e6 66bd 65e6 a2bd
00000350: 03e9 9cbd cccc 59bc f177 833d e8a9 cbbc
00000360: 21e3 0bbe d90e bb3d 8dfa efbd f627 82bc
00000370: f189 243d 8213 80bc e0f2 e63b d82f 3cbe
00000380: 6e9f c53d a053 8bbd cfb0 05bd 0c60 963d
00000390: 6248 da3d f392 233d 0cab 2b3b f3eb a5bd
000003a0: fe35 3fbc 08d1 f53c 47b1 f3bd 50d3 ddbd
000003b0: 6445 9f3d 903a ff3d 9e5d 59bc e8a3 2abe
000003c0: 57bc 11bc 5501 7b3a 08dd b5bd 59b4 123c
000003d0: a38d 61bd b1cd c9bd 0274 7bbd 4a6e a7bd
000003e0: 2212 05be 454c b7bd c405 c6bd d71a 31be
000003f0: 17eb 12be e8b2 a5bc eeb7 233c b571 66bd

_module.conv2.bias f4 [16]
0.10094282 0.06590502 0.012787973 -0.061752073 0.032782797 0.14362644 0.067719415 0.03331777
0.00047641183 -0.025881566 -0.030564232 0.18768887 0.07640885 -0.06981399 -0.06570653 0.059480958
00000000: 1cbb ce3d 36f9 863d a584 513c beef 7cbd
00000010: 4147 063d cf12 133e 7ab0 8a3d 3778 083d
00000020: eac6 f939 9405 d4bc d761 fabc 8331 403e
00000030: 3e7c 9c3d a3fa 8ebd 2591 86bd 4ea2 733d

_module.fc1.weight f4 [120, 400]
-0.05874899 0.060696024 0.033018637 -0.0071868817 -0.12939864 -0.015945578 0.017629022 -0.037214227
0.028762762 -0.060364097 0.087109424 -0.110012 -0.047405455 0.07012095 0.051834743 0.15357426
0.057397526 -0.04114428 -0.01598413 -0.078632094 0.06516806 0.0893693 -0.013604206 0.043399975
-0.0714493 0.08531045 0.03050062 0.02201702 0.06814042 -0.10449399 -0.00942683 0.054575823
-0.025993332 0.07784932 0.028587861 -0.029053476 -0.0045361863 0.021699024 -0.011995686 -0.010784889
0.020233158 -0.110268354 -0.23342519 0.167745 0.09079376 0.116610356 -0.044225384 -0.19816573
0.09488938 0.010188268 -0.15203975 0.00784262 -0.00070378656 0.12205821 -0.00038067135 -0.011354394
0.14702636 -0.04462686 -0.048345175 0.1645798 -0.014459589 0.087466955 -0.010774119 -0.1259866
0.043191012 0.011830372 0.007924279 0.0841546 0.06849425 0.07353422 0.16255637 0.07261356
0.009979376 0.071073815 -0.051490333 -0.073794715 0.112749286 -0.09057361 0.1724027 0.09433299
0.052586135 -0.07973057 0.049889803 -0.014755768 0.11277408 -0.17782716 0.019997865 -0.12948327
-0.049856808 -0.10094817 -0.12588103 -0.05589671 0.042534556 -0.11092269 -0.0110374065 0.03312532
0.041150395 -0.03581058 -0.021649249 0.13508177 -0.013187843 0.008760465 -0.17998542 -0.055977423
0.08248484 -0.13216643 -0.039519574 -0.13452786 0.03318202 -0.17911454 0.06878191 -0.08444374
-0.038692847 0.06688015 -0.011552116 0.018023986 -0.028686715 0.076577954 0.020814124 -0.053728204
0.028092079 -0.050048124 0.093131 0.05003414 -0.026437331 0.10683076 -0.03872736 -0.19167405
-0.103749454 0.080373555 0.11535554 -0.001542745 0.12442629 0.03970699 0.022388915 -0.017520841
0.0472434 0.008723716 -0.005342216 -0.03086896 -0.027691608 0.12995619 0.035384174 -0.038259715
0.13222359 0.02884596 -0.060344912 0.12732056 -0.06218623 0.088268876 -0.067717925 -0.06756251
0.009626421 -0.120375924 0.13506255 -0.15318769 0.057446964 0.052865546 -0.049331393 0.19554487
-0.10904433 0.039716277 0.1496135 0.077198535 -0.037501954 0.04243636 0.055634324 -0.002928508
-0.05707083 0.034790028 0.09627181 0.11584065 -0.0055313194 0.10526338 -0.025056668 -0.013589952
-0.020398295 0.072796434 0.027201688 -0.003426901 0.10611994 -0.032234617 0.030067198 0.09087648
0.052906305 0.005322881 -0.019968443 -0.13202912 0.119251296 0.07194547 -0.012760915 0.059070725
-0.022448337 0.047121115 -0.007505448 0.15168478 -0.0330058 0.06126122 -0.12769435 -0.017559383
-0.048324626 -0.022436002 -0.04323624 -0.0018924697 -0.062015958 0.054078672 -0.0121846935 0.0612054
0.042411916 -0.03389868 0.069377564 0.015207355 -0.0068868296 0.061087456 -0.06997502 0.16384232
0.0067863716 -0.08648992 -0.07783637 0.019860527 -0.06691281 0.0023251777 -0.14934008 -0.0067002345
-0.014778943 -0.044976328 0.08098197 -0.03385018 0.011112492 0.000597463 0.14233702 -0.017288443
-0.058002956 -0.09796515 0.039728172 -0.0572941 0.08759726 -0.045897037 0.06920861 -0.01680204
0.03813855 0.0137846 -0.0039885244 -0.030727219 0.076694384 0.08229856 0.0033367504 0.123413846
0.07908224 0.062416755 -0.05456686 0.07015265 0.0032597482 0.030019907 -0.027826326 0.05997266
00000000: c8a2 70bd 659c 783d 8d3e 073d ef7f ebbb
00000010: 1481 04be 4da0 82bc bd6a 903c f26d 18bd
00000020: e29f eb3c 5840 77bd 6d66 b23d f94d e1bd
00000030: 392c 42bd 939b 8f3d ab50 543d 9242 1d3e
00000040: ab19 6b3d e886 28bd 26f1 82bc dd09 a1bd
00000050: d576 853d 4007 b73d 2de4 5ebc 2cc4 313d
00000060: 0354 92bd 3fb7 ae3d 70dc f93c 0a5d b43c
00000070: 348d 8b3d f200 d6bd fe72 1abc e68a 5f3d
00000080: f8ef d4bc 776f 9f3d 1731 ea3c 8e01 eebc
00000090: 4aa4 94bb 27c2 b13c 8e89 44bc 1ab3 30bc
000000a0: 02c0 a53c 60d4 e1bd 0307 6fbe 58c5 2b3e
000000b0: 14f2 b93d 69d1 ee3d ad25 35bd f5eb 4abe
000000c0: 5d55 c23d b1ec 263c 4fb0 1bbe 557e 003c
000000d0: 517e 38ba a8f9 f93d d894 c7b9 c807 3abc
000000e0: 148e 163e a8ca 36bd 9705 46bd 9b87 283e
000000f0: e9e7 6cbc e021 b33d ee85 30bc a202 01be
00000100: 0fe9 303d 2dd4 413c d6d4 013c 3f59 ac3d
00000110: b746 8c3d 1c99 963d 2d75 263e 6bb6 943d
00000120: 8980 233c 268f 913d 87e7 52bd af21 97bd
00000130: 19e9 e63d a87e b9bd 558a 303e a831 c13d
00000140: 8f64 573d c849 a3bd 4059 4c3d 2dc2 71bc
00000150: 19f6 e63d 5318 36be 90d2 a33c 4397 04be
00000160: a736 4cbd eabd cebd f5e6 00be f3f3 64bd
00000170: b738 2e3d 6f2b e3bd 3dd6 34bc 6aae 073d
00000180: 518d 283d 1dae 12bd c459 b1bc e052 0a3e
00000190: d311 58bc 0e88 0f3c 194e 38be 9548 65bd
000001a0: d0ed a83d a356 07be 47df 21bd acc1 09be
000001b0: dfe9 073d cd69 37be 88dd 8c3d d7f0 acbd
000001c0: 647c 1ebd 76f8 883d 1645 3dbc 0aa7 933c
000001d0: 6700 ebbc e7d4 9c3d 6282 aa3c 1b12 5cbd
000001e0: 5c21 e63c 43ff 4cbd 77bb be3d 99f0 4c3d
000001f0: 1a93 d8bc 16ca da3d 95a0 1ebd 3446 44be
00000200: 987a d4bd e49a a43d 863f ec3d ef35 caba
00000210: 36d3 fe3d cca3 223d f568 b73c de87 8fbc
00000220: 4c82 413d ebed 0e3c c20d afbb e7e0 fcbc
00000230: 83d9 e2bc 3c13 053e ffee 103d 38b6 1cbd
00000240: 9f65 073e 5d4e ec3c 3a2c 77bd 5260 023e
00000250: fdb6 7ebd 50c6 b43d b2af 8abd 375e 8abd
00000260: 23b8 1d3c a787 f6bd d64d 0a3e 3cdd 1cbe
00000270: 824d 6b3d 8b89 583d b70f 4abd ea3c 483e
00000280: a252 dfbd 89ad 223d 4834 193e 441a 9e3d
00000290: a69b 19bd c0d1 2d3d d1e0 633d 36ec 3fbb
000002a0: 1ac3 69bd fd7f 0e3d 282a c53d dd3d ed3d
000002b0: 1240 b5bb 5494 d73d a443 cdbc 64a8 5ebc
000002c0: 531a a7bc 4c16 953d 13d6 de3c dc95 60bb
000002d0: 6955 d93d 7208 04bd 7c4f f63c 731d ba3d
000002e0: 48b4 583d 906b ae3b dc94 a3bc a432 07be
000002f0: 063a f43d 2658 933d 2813 51bc 25f4 713d
00000300: 93e5 b7bc 1202 413d 43f0 f5bb 4153 1b3e
00000310: 1731 07bd 0ced 7a3d 4fc2 02be b2d8 8fbc
00000320: 0bf0 45bd b5cb b7bc 7c18 31bd bf0c f8ba
00000330: 7204 7ebd 9981 5d3d 4fa2 47bc 83b2 7a3d
00000340: 1eb8 2d3d 58d9 0abd d315 8e3d 4528 793c
00000350: eaaa e1bb d736 7a3d 104f 8fbd 48c6 273e
00000360: 3660 de3b a121 b1bd ad68 9fbd 8bb2 a23c
00000370: 9509 89bd 0262 183b 9bec 18be a48d dbbb
00000380: 6123 72bc 1939 38bd e0d9 a53d 7da6 0abd
00000390: 2b11 363c 109f 1c3a ccc0 113e 7ea0 8dbc
000003a0: 8294 6dbd f4a1 c8bd 02ba 223d 38ad 6abd
000003b0: 3166 b33d 88fe 3bbd 3ebd 8d3d 6fa4 89bc
000003c0: 2b37 1c3d ced8 613c 2bb2 82bb a6b7 fbbc
000003d0: f211 9d3d 268c a83d 62ad 5a3b 66c0 fc3d
000003e0: dff5 a13d b6a8 7f3d 8081 5fbd 31ac 8f3d
000003f0: 80a1 553b 4fec f53c 09f4 e3bc e4a5 753d

_module.fc1.bias f4 [120]
-0.008011049 -0.039004702 -0.11022124 0.113106266 0.016191594 0.0128729055 -0.12656929 -0.13416058
0.054550026 -0.09185596 0.04403761 0.1272138 0.03792826 -0.06427279 0.0069552325 -0.06349206
0.19450296 0.013940162 0.10719629 0.0036835677 -0.045811534 -0.028525949 -0.06100497 -0.02964654
-0.10541502 0.19503482 -0.013140916 0.014623842 0.0882639 0.08233044 0.04498236 0.04376877
-0.16405576 0.004539654 0.0144949 -0.03083928 -0.01152643 0.1316809 -0.13492623 0.011467325
-0.0075023486 0.19180639 0.18569908 0.017019683 -0.03945938 -0.052395787 -0.13993357 -0.03564326
-0.04284769 0.054880347 -0.04604894 0.11616217 0.030339263 0.01504235 0.110024326 0.1350714
-0.04847365 -0.03625987 0.0291209 0.06964768 0.17443313 -0.124762625 0.017271843 -0.011568737
-0.10066915 -0.05035954 0.005148614 0.07387733 0.09244125 0.0422043 -0.010663255 -0.04516537
0.008707492 -0.01960927 -0.19765034 0.024081813 0.11462557 -0.08564739 -0.0187765 0.04726092
-0.04202614 0.11268499 -0.019588768 0.079480104 0.05797342 -0.01251387 0.043112155 0.064116344
0.00416588 0.020725852 0.0060771615 0.011682422 -0.09993225 0.0387675 -0.0033753782 -0.02667682
-0.08281342 0.024205303 -0.122403204 0.008879883 0.036339417 0.044218827 0.028500177 -0.0044604675
-0.06014943 0.025450714 -0.037255306 -0.065369494 -0.16964538 0.06945868 0.05018174 -0.043927446
0.023481794 0.012281101 -0.039354853 -0.101629205 0.08187162 -0.050850786 0.06473642 0.04499519
00000000: c640 03bc 65c3 1fbd acbb e1bd 42a4 e73d
00000010: 3ca4 843c e1e8 523c 619b 01be 6461 09be
00000020: d96f 5f3d fa1e bcbd c860 343d 5644 023e
00000030: aa5a 1b3d 74a1 83bd b8e8 e33b 2008 82bd
00000040: c92b 473e 4765 643c ba89 db3d 0368 713b
00000050: e0a4 3bbd 40af e9bc 59e0 79bd 4ddd f2bc
00000060: d4e3 d7bd 35b7 473e ff4c 57bc d798 6f3c
00000070: b4c3 b43d dd9c a83d 6c3f 383d e246 333d
00000080: 3cfe 27be 61c1 943b 047c 6d3c a8a2 fcbc
00000090: 5ad9 3cbc 5cd7 063e 1a2a 0abe 72e1 3b3c
000000a0: 43d6 f5bb e568 443e e627 3e3e dd6c 8b3c
000000b0: 29a0 21bd f79c 56bd bf4a 0fbe abfe 11bd
000000c0: 0f81 2fbd 37ca 603d d09d 3cbd 6fe6 ed3d
000000d0: 0c8a f83c 3074 763c 6f54 e13d 2850 0a3e
000000e0: 4e8c 46bd 3b85 14bd f48e ee3c 71a3 8e3d
000000f0: 999e 323e 8c83 ffbd ae7d 8d3c cd8a 3dbc
00000100: a12b cebd ce45 4ebd b4b5 a83b ff4c 973d
00000110: d751 bd3d 6bde 2c3d efb4 2ebc 53ff 38bd
00000120: dea9 0e3c 9fa3 a0bc da64 4abe 3947 c53c
00000130: d0c0 ea3d e667 afbd 2dd1 99bc ab94 413d
00000140: 9a23 2cbd 63c7 e63d a078 a0bc 77c6 a23d
00000150: 8975 6d3d fa06 4dbc 5f96 303d 6e4f 833d
00000160: ef81 883b 43c9 a93c ed22 c73b a167 3f3c
00000170: 48a9 ccbd acca 1e3d 7335 5dbb 5989 dabc
00000180: 159a a9bd 334a c63c 88ae fabd ee7c 113c
00000190: a4d8 143d cd1e 353d 3479 e93c 1d29 92bb
000001a0: 405f 76bd 047e d03c 0599 18bd 71e0 85bd
000001b0: 85b7 2dbe 5a40 8e3d 5e8b 4d3d 44ed 33bd
000001c0: e45c c03c ac36 493c 8e32 21bd f922 d0bd
000001d0: 4fac a73d ea48 50bd 8794 843d e04c 383d

_module.fc2.weight f4 [84, 120]
-0.121267974 0.0062617483 0.02435885 0.28754973 0.039677322 -0.007897592 -0.10762055 0.10835994
0.09893712 0.00026563133 0.055162054 0.072831765 -0.090010375 -0.12676764 0.1548074 -0.010187079
-0.054142457 0.0039582127 0.038241185 0.042927723 0.05885946 -0.10194704 0.115939386 -0.14460607
0.18626401 -0.037353445 0.05884111 0.0004414264 -0.08598782 -0.12252903 0.112345 0.07623751
-0.12163864 0.072572894 0.16862153 -0.12046199 -0.08161869 0.18620275 -0.10956686 0.15287045
-0.10653125 -0.088260815 -0.0494643 0.019779662 -0.008843181 0.06195227 -0.11707968 0.061109994
0.051551446 -0.003411312 -0.12514868 -0.060729366 0.011917056 -0.09037518 -0.049322486 0.02054104
-0.020990495 0.13258582 0.009551598 0.046504207 0.057693817 -0.10299157 0.081008255 -0.11648083
0.07842621 0.09875317 0.116328314 0.09011224 0.09835928 0.08109993 -0.08605793 0.008757905
-0.012959639 -0.068580694 0.04295557 -0.12102559 -0.07788141 -0.16447398 0.05575377 0.082131654
0.027686903 -0.14160803 0.0445688 0.027551431 0.0554763 -0.13532574 -0.013754265 0.043348443
-0.151397 -0.008226433 0.13323654 -0.16232519 0.16380449 0.025284413 0.037506044 0.09835175
0.033091072 -0.071383834 0.098662555 -0.24489173 -0.048667625 -0.04290763 -0.1264663 -0.0269566
0.029998666 0.15450686 0.07832629 -0.034962934 -0.10789812 -0.08029305 -0.14893442 -0.1808648
0.0649566 0.047482483 -0.08915234 -0.035002053 -0.22498633 -0.1145875 0.18870206 -0.052453242
-0.058978256 -0.07061166 -0.078806624 0.01362334 -0.08343397 -0.09155803 0.10739354 -0.059511166
-0.006194697 0.007856325 -0.08802159 -0.2511222 -0.23007315 -0.057115622 -0.0059547913 0.0008893379
-0.12804155 -0.08530727 0.031843383 0.007849698 0.0840288 0.073240556 -0.1370633 0.053526737
-0.12678503 0.11474209 0.025653627 -0.014529352 0.16783659 -0.10567781 -0.016560087 -0.1259508
-0.005944692 -0.03312733 0.079237945 -0.05475519 0.001270915 0.061714012 0.110286735 -0.20687234
-0.14134732 0.025081826 0.10289308 -0.019328844 0.016065931 0.07877588 -0.02239324 -0.053866576
0.04496708 0.1169113 0.03813093 0.11617132 0.081770115 -0.010783736 -0.119265325 0.16923262
0.1405682 0.059251912 0.047871113 -0.086112924 0.230867 0.016092455 -0.15641445 0.22080512
-0.0038469592 -0.05471672 -0.17929313 -0.023694983 0.07527437 0.0799287 -0.034190625 -0.1644917
0.2408162 -0.19097406 0.023581237 -0.043925308 0.16541052 0.08884206 0.08994042 0.024755698
0.041432183 0.1359142 -0.14172278 0.009252621 0.08706278 -0.11268481 0.106375486 -0.11023778
0.09083401 -0.19839491 -0.0064452942 -0.09103295 0.023459436 0.22482894 -0.09018272 -0.018794449
0.01591256 -0.099816285 -0.0069357697 -0.20207325 -0.23645122 -0.18387853 -0.12131762 0.100181505
-0.15322876 0.022755703 -0.001184355 0.031598944 0.06050225 0.06788284 -0.092108175 0.010053689
0.0979731 -0.059759483 -0.116434224 0.14930591 -0.01013199 -0.015300079 -0.030220017 -0.044123698
-0.048951343 0.02561464 -0.15057054 0.04251585 -0.09805062 0.13423051 0.066678084 -0.04456024
-0.018914921 -0.00040292527 -0.14504364 0.019712063 0.038078222 0.053670228 0.012081087 0.020644149
00000000: 585b f8bd 5a2f cd3b 368c c73c b839 933e
00000010: b084 223d e764 01bc 2a68 dcbd d1eb dd3d
00000020: 8b9f ca3d 6f44 8b39 9bf1 613d d228 953d
00000030: 5c57 b8bd 60cf 01be d585 1e3e b5e7 26bc
00000040: 7bc4 5dbd e5b3 813b caa2 1c3d fbd4 2f3d
00000050: 9e16 713d 9cc9 d0bd a171 ed3d 9d13 14be
00000060: febb 3e3e edff 18bd 6003 713d 406f e739
00000070: 621a b0bd 80f0 fabd 2315 e63d 6922 9c3d
00000080: ae1d f9bd 19a1 943d 1fab 2c3e c7b4 f6bd
00000090: b327 a7bd efab 3e3e 9764 e0bd 128a 1c3e
000000a0: 0e2d dabd 16c2 b4bd 149b 4abd f508 a23c
000000b0: fde2 10bc aac1 7d3d 79c7 efbd 794e 7a3d
000000c0: 9c27 533d 5190 5fbb fa26 00be 5bbf 78bd
000000d0: c13f 433c 9f16 b9bd 6006 4abd af45 a83c
000000e0: 42f4 abbc 94c4 073e 4e7e 1c3c 327b 3e3d
000000f0: 5a50 6c3d 3fed d2bd a8e7 a53d 808d eebd
00000100: ec9d a03d 1a3f ca3d 8a3d ee3d c48c b83d
00000110: 9770 c93d b817 a63d 243f b0bd 517d 0f3c
00000120: aa54 54bc 0974 8cbd 2ef2 2f3d 44dc f7bd
00000130: 4a80 9fbd de6b 28be 115e 643d a434 a83d
00000140: a5cf e23c b201 11be c68d 363d 8ab3 e13c
00000150: 1e3b 633d d592 0abe 9259 61bc 238e 313d
00000160: d107 1bbe 29c8 06bc 296f 083e 9338 26be
00000170: 5dbc 273e 4221 cf3c f09f 193d a46c c93d
00000180: 818a 073d b031 92bd 980f ca3d e6c4 7abe
00000190: b457 47bd e9bf 2fbd 6280 01be 16d4 dcbc
000001a0: c3bf f53c 0c37 1e3e 8969 a03d 4b35 0fbd
000001b0: b1f9 dcbd af70 a4bd 4482 18be 9f34 39be
000001c0: f707 853d fe7c 423d 8195 b6bd 505e 0fbd
000001d0: d162 66be daac eabd 1d3b 413e 36d9 56bd
000001e0: 2f93 71bd d99c 90bd 5e65 a1bd 6e34 5f3c
000001f0: 6edf aabd c782 bbbd 25f1 db3d fbc1 73bd
00000200: e3fc cabb d1b7 003c aa44 b4bd 1793 80be
00000210: 4c98 6bbe 12f2 69bd 6920 c3bb 7522 693a
00000220: 531d 03be 94b5 aebd 356e 023d 059c 003c
00000230: 4b17 ac3d 25ff 953d 525a 0cbe da3e 5b3d
00000240: efd3 01be e7fd ea3d 8e27 d23c 850c 6ebc
00000250: 5bdd 2b3e 9c6d d8bd 05a9 87bc 3ff9 00be
00000260: b1cb c2bb 86b0 07bd 8147 a23d fa46 60bd
00000270: d594 a63a d5c7 7c3d 03de e13d 58d6 53be
00000280: 5abd 10be 6778 cd3c 9bb9 d23d 8657 9ebc
00000290: b39c 833c 4055 a13d 0772 b7bc 33a3 5cbd
000002a0: 672f 383d 316f ef3d 2e2f 1c3d 3beb ed3d
000002b0: 1777 a73d 44ae 30bc 6141 f4bd 514b 2d3e
000002c0: 1cf1 0f3e 22b2 723d 8014 443d f95b b0bd
000002d0: 6668 6c3e 53d4 833c 1c2b 20be bd1a 623e
000002e0: 441d 7cbb a41e 60bd 9e98 37be fb1b c2bc
000002f0: 7329 9a3d a9b1 a33d 780b 0cbd 8370 28be
00000300: 8698 763e b48e 43be 702d c13c 06eb 33bd
00000310: 6061 293e d3f2 b53d af32 b83d 76cc ca3c
00000320: cbb4 293d 182d 0b3e c71f 11be 4e98 173c
00000330: f94d b23d 4bc7 e6bd 64db d93d 58c4 e1bd
00000340: 2e07 ba3d 0928 4bbe 0c33 d3bb 7c6f babd
00000350: 012e c03c 8f39 663e b8b1 b8bd d1f6 99bc
00000360: 0f5b 823c 7b6c ccbd 7445 e3bb 4aec 4ebe
00000370: 4520 72be a74a 3cbe 5f75 f8bd f62b cd3d
00000380: 00e8 1cbe 2b6a ba3c 5c3c 9bba e56d 013d
00000390: 35d1 773d 2906 8b3d 36a3 bcbd 3ab8 243c
000003a0: 1fa6 c83d 5cc6 74bd 1175 eebd a6e3 183e
000003b0: a500 26bc 2fad 7abc f88f f7bc 0dbb 34bd
000003c0: 3481 48bd cbd5 d13c 2a2f 1abe 1a25 2e3d
000003d0: c3ce c8bd b973 093e 858e 883d cc84 36bd
000003e0: 77f3 9abc b73f d3b9 5286 14be 317b a13c
000003f0: e9f7 1b3d 50d5 5b3d c0ef 453c eb1d a93c

_module.fc2.bias f4 [84]
-0.12923762 0.056609023 0.119274035 0.10353828 -0.0073696706 0.110285014 0.18789048 0.13372482
0.06339492 0.0009612437 0.11525496 -0.012299554 0.18131502 -0.0130983535 0.116295114 0.013597173
-0.009921503 0.023660338 0.056907147 0.17829354 0.093807094 -0.060819786 0.047729097 0.1379925
0.050851192 0.15495361 -0.10332144 -0.13173787 -0.0441155 -0.12495952 -0.04651936 0.14856708
0.16311301 -0.007107489 -0.09282846 0.07850303 0.10620805 0.101783715 0.07927532 0.019599602
0.034270715 0.03614036 -0.0420512 0.022587605 -0.02132264 -0.32320553 0.020061841 0.1583503
-0.11592191 0.1295403 0.0078596035 -0.09866395 0.074695736 0.04513532 -0.10484164 -0.030784803
0.0012112941 0.019585717 -0.09001535 0.10931394 -0.055880338 -0.049187664 0.14577535 -0.13244128
-0.05796953 -0.047313966 0.03438665 -0.008653459 -0.055870112 0.10017127 -0.03642782 0.098536916
0.026753258 -0.048087783 0.02193642 0.061166517 0.018746221 -0.08571575 -0.044417262 0.087371044
-0.06532411 0.022925295 0.06169182 -0.03285485
00000000: de56 04be ddde 673d f245 f43d e10b d43d
00000010: 477d f1bb 1cdd e13d 5d66 403e 29ef 083e
00000020: 32d5 813d f9fb 7b3a cb0a ec3d 1284 49bc
00000030: a5aa 393e 7a9a 56bc 222c ee3d adc6 5e3c
00000040: cd8d 22bc 53d3 c13c 7817 693d 9592 363e
00000050: ef1d c03d 2b1e 79bd 967f 433d e84d 0d3e
00000060: 5749 503d 29ac 1e3e 319a d3bd 4be6 06be
00000070: 74b2 34bd c7ea ffbd 168b 3ebd f821 183e
00000080: 1907 273e f0e5 e8bb d91c bebd 32c6 a03d
00000090: 9b83 d93d fb73 d03d 195b a23d 588f a03c
000000a0: 735f 0c3d ea07 143d e13d 2cbd a409 b93c
000000b0: d1ac aebc 327b a5be bb58 a43c 9526 223e
000000c0: 7768 edbd 36a6 043e 91c5 003c 5310 cabd
000000d0: 14fa 983d d0df 383d 37b7 d6bd 6930 fcbc
000000e0: 49c4 9e3a 3a72 a03c f859 b8bd fddf df3d
000000f0: c8e2 64bd 0179 49bd 2246 153e b09e 07be
00000100: 7571 6dbd 4acc 41bd 04d9 0c3d 3dc7 0dbc
00000110: 0fd8 64bd 9826 cd3d 5635 15bd b9cd c93d
00000120: a629 db3c b2f7 44bd 02b4 b33c be89 7a3d
00000130: ad91 993c bd8b afbd e0ee 35bd 97ef b23d
00000140: a6c8 85bd d4cd bb3c 90b0 7c3d cf92 06bd

_module.fc3.weight f4 [10, 84]
0.033382565 0.07956752 -0.05860016 -0.0099436445 -2.8948067e-05 -0.25644323 0.115763 -0.13457029
0.08615984 0.01477428 -0.05673248 0.080155484 -0.19115822 -0.1111204 -0.08853315 -0.059138242
0.08489358 -0.15281129 -0.016466282 0.13754997 -0.22074015 -0.050846536 0.20692816 -0.3378785
0.12073115 0.0600194 -0.092558704 0.23659027 -0.11397298 -0.12598951 -0.01565675 0.011960449
0.15445909 -0.11739861 0.046386592 -0.11450257 0.039476782 0.10660742 0.14556704 -0.048384085
-0.03754434 0.21968244 -0.10984353 0.2004361 -0.10112344 0.0027545285 0.14310327 -0.100481
-0.024100509 -0.0988434 -0.020913702 0.011387745 0.11528268 -0.039166678 -0.07738179 0.06932939
-0.14219244 0.054449793 -0.21342917 -0.012974907 0.16607952 0.008080567 -0.056086797 0.012979768
0.06386352 -0.081688695 0.014523485 0.065519094 -0.15131672 -0.096843734 0.04451785 0.03940117
-0.029030265 -0.039070968 -0.24099149 -0.21639824 0.09117683 -0.03589343 0.10860475 -0.1850588
0.08081357 -0.01880607 -0.07273563 -0.12660737 0.0007396194 -0.2723824 0.075846426 0.037736714
0.042581305 -0.059950218 -0.0066384473 0.12326511 -0.024813496 -0.18083858 -0.003554753 0.17562307
0.2811587 0.15785559 -0.0468295 -0.042341735 0.0793026 -0.034536965 0.24574533 0.04671777
0.0048410418 0.04473523 -0.09153614 -0.18142912 -0.019000445 0.052910093 -0.20435256 0.07364733
0.26506186 0.2501016 0.025161017 -0.075675935 -0.01590255 0.057928227 -0.20919411 0.023747211
-0.062291358 -0.32815433 -0.11377913 -0.0045075505 -0.1278584 0.05879078 0.077895194 -0.007533074
0.1112546 -0.05260225 0.091487885 0.0018796739 0.06548585 0.21929939 -0.0038065386 -0.096362725
0.034874786 -0.18561403 -0.1418732 0.031025192 0.055980463 0.19063088 -0.16804527 0.04044551
-0.20682238 0.04970264 0.012799107 -0.28704002 -0.011420773 0.011476118 -0.101632476 0.07588101
-0.1339994 -0.009397065 -0.09009955 0.16573997 0.06679047 -0.05036668 0.3280027 0.22791675
0.028045198 0.079992875 0.10475555 0.12247219 0.049578164 0.14306082 -0.03373281 0.13400029
-0.1454096 -0.23932755 0.30453312 -0.010337415 0.036730055 -0.100562 -0.008085473 0.09413385
0.18888083 -0.026776383 -0.13878323 -0.064069115 0.059296437 0.021354824 -0.17642257 0.15951087
-0.060690172 -0.11776917 0.14539848 0.09445777 0.14146519 0.0715905 -0.003348561 -0.008593273
0.02637425 -0.19372618 -0.030069064 -0.032857485 0.036203455 -0.040820684 0.0774567 -0.12756725
-0.0033179286 0.11583231 0.31554425 0.14273304 0.018506529 0.21958795 -0.13460496 0.30918697
0.19946074 0.069739476 -0.18438855 0.03276178 -0.02585391 -0.1864946 -0.04269042 -0.18953165
-0.03956832 0.0073406156 0.04629803 -0.07877099 0.07777621 -0.1212052 0.037577584 -0.062271286
0.044693377 0.02393267 0.13253815 -0.16614398 -0.022624128 0.064849645 -0.012068011 -0.18352233
-0.13530783 0.18073328 0.017540978 0.19261241 0.0957085 0.1703356 -0.04603389 -0.025723802
0.00032471295 -0.0605152 -0.18343343 -0.08201584 -0.117869705 0.009623248 -0.033774782 -0.14679214
-0.18121931 0.06059689 0.23092332 0.10782845 0.116746955 -0.21470752 -0.11327429 0.009580422
00000000: 28bc 083d 4cf4 a23d b906 70bd abea 22bc
00000010: 80d5 f2b7 874c 83be 2715 ed3d cbcc 09be
00000020: 9274 b03d d20f 723c 5160 68bd 8f28 a43d
00000030: fbbe 43be 1893 e3bd de50 b5bd f13a 72bd
00000040: afdc ad3d 907a 1cbe 4ce4 86bc e6d9 0c3e
00000050: b509 62be 7544 50bd fae4 533e 69fe acbe
00000060: e541 f73d e7d6 753d 6b8f bdbd b844 723e
00000070: aa6a e9bd 6503 01be 9642 80bc c2f5 433c
00000080: 862a 1e3e af6e f0bd deff 3d3d 5380 eabd
00000090: 68b2 213d fe54 da3d 870f 153e 642e 46bd
000000a0: 18c8 19bd 6ff4 603e a5f5 e0bd 1f3f 4d3e
000000b0: ce19 cfbd 5285 343b aa89 123e fcc8 cdbd
000000c0: 6e6e c5bc 696e cabd 3653 abbc aa93 3a3c
000000d0: 5319 ec3d 3d6d 20bd 587a 9ebd 91fc 8d3d
000000e0: e59a 11be bf06 5f3d 2d8d 5abe b494 54bc
000000f0: c010 2a3e 5b64 043c 45bb 65bd 18a9 543c
00000100: e1ca 823d 674c a7bd e9f3 6d3c e02e 863d
00000110: c5f2 1abe 0256 c6bd 5958 363d 1f63 213d
00000120: e1d0 edbc e108 20bd 79c6 76be 8097 5dbe
00000130: ebba ba3d fd04 13bd 2b6c de3d 0e80 3dbe
00000140: 9681 a53d 300f 9abc 6bf6 94bd 5da5 01be
00000150: 05e3 413a b575 8bbe 5f55 9b3d d091 1a3d
00000160: bc69 2e3d 5c8e 75bd 5587 d9bb 6b72 fc3d
00000170: ac45 cbbc c02d 39be dcf6 68bb 89d6 333e
00000180: 08f4 8f3e e5a4 213e 4ad0 3fbd 876e 2dbd
00000190: 6769 a23d a276 0dbd aaa4 7b3e 225b 3f3d
000001a0: 9aa1 9e3b 4a3c 373d 4d77 bbbd 8ec8 39be
000001b0: d2a6 9bbc 41b8 583d cc41 51be 69d4 963d
000001c0: 30b6 873e 510d 803e 7a1e ce3c fcfb 9abd
000001d0: 1146 82bc 2646 6d3d fb36 56be 8389 c23c
000001e0: 3925 7fbd d803 a8be 0805 e9bd 13b4 93bb
000001f0: 50ed 02be 9ace 703d 8487 9f3d 01d8 f6bb
00000200: 74d9 e33d 7575 57bd 005e bb3d 645f f63a
00000210: 721d 863d 0590 603e 1f77 79bb d259 c5bd
00000220: ddd8 0e3d 9b11 3ebe 3547 11be 8b28 fe3c
00000230: c54b 653d be34 433e 0f14 2cbe 31aa 253d
00000240: 3fc9 53be ff94 4b3d 58b3 513c e9f6 92be
00000250: 321e 3bbc 5406 3c3c b024 d0bd 8167 9b3d
00000260: 2437 09be 26f6 19bc 1d86 b8bd bdb7 293e
00000270: 71c9 883d 4b4d 4ebd f8ef a73e 0263 693e
00000280: 0bbf e53c 4ed3 a33d 148a d63d b3d2 fa3d
00000290: 7912 4b3d 897e 123e 6a2b 0abd 5f37 093e
000002a0: 41e6 14be 4812 75be c4eb 9b3e 435e 29bc
000002b0: 4172 163d 73f3 cdbd ef78 04bc 3fc9 c03d
000002c0: fa69 413e 255a dbbc 311d 0ebe ab36 83bd
000002d0: d2e0 723d 50f0 ae3c 1ea8 34be d156 233e
000002e0: 4296 78bd f630 f1bd 57e3 143e 1373 c13d
000002f0: 40dc 103e 0a9e 923d 8873 5bbb cdca 0cbc
00000300: d00e d83c 2860 46be 6653 f6bc 9295 06bd
00000310: 134a 143d 9733 27bd 9ea1 9e3d fda0 02be
00000320: 9b71 59bb 7d39 ed3d 048f a13e 9c28 123e
00000330: 019b 973c aadb 603e e2d5 09be c14d 9e3e
00000340: 703f 4c3e 92d3 8e3d 5ad0 3cbe 3731 063d
00000350: 94cb d3bc 71f8 3ebe 26dc 2ebd 9614 42be
00000360: 6412 22bd 8c89 f03b 01a3 3d3d af52 a1bd
00000370: 2249 9f3d 6f3a f8bd f4ea 193d 2d10 7fbd
00000380: 6710 373d 720e c43c 15b8 073e a621 2abe
00000390: 3c56 b9bc e4cf 843d e8b8 45bc 47ed 3bbe
000003a0: 238e 0abe 2512 393e 19b2 8f3c 303c 453e
000003b0: d102 c43d 756c 2e3e 088e 3cbd b9ba d2bc
000003c0: 3c3e aa39 c9de 77bd f9d5 3bbe ecf7 a7bd
000003d0: ac65 f1bd d4aa 1d3c 6d57 0abd ae50 16be
000003e0: 8e91 39be 7234 783d 2a77 6c3e 2ad5 dc3d
000003f0: 0719 ef3d 4adc 5bbe 5afc e7bd 34f7 1c3c

_module.fc3.bias f4 [10]
0.077264376 0.060946673 0.0082387505 -0.10072672 -0.014602542 -0.015496261 -0.1430109 -0.0630305
0.0474944 -0.05354875
00000000: c93c 9e3d 38a3 793d d3fb 063c d049 cebd
00000010: 803f 6fbc 08e4 7dbc 7371 12be 2316 81bd
00000020: 7d89 423d ef55 5bbd
