dp_lenet_code/dp_lenet_plots_fixed_epsilon/lenet_epsilon_23.8_gradnorm_1.1.pt (torch, 251144 bytes, 10 tensors)

_module.conv1.weight f4 [6, 1, 5, 5]
0.38045132 0.460146 0.27051887 0.40821204 0.068261445 0.37096006 0.372167 0.7171133
0.6283883 0.12234201 0.54389894 0.63661677 0.64608824 0.39489543 0.36413282 0.23727587
0.5849267 0.34542897 0.0660037 0.18100162 -0.09809935 0.022685636 -0.013483473 0.15640917
-0.14930484 -0.018112706 -0.09683877 0.087241106 0.12949412 -0.19560581 0.20735866 -0.14613524
0.24712959 0.08455016 0.009517448 0.26578486 0.22936259 0.56876403 0.3805429 0.13171475
0.25514284 0.3119212 0.5637429 0.5947769 0.41206476 0.10474474 0.29977676 0.2183905
0.25766408 -0.067394435 -0.07283593 0.04020495 0.041874185 0.334412 0.1558067 0.10955229
0.25455016 0.2221116 0.22633311 -0.21817261 0.14237675 0.14406744 0.28145435 0.005036948
-0.11056901 0.13869512 0.47359174 0.06355394 -0.16024363 -0.30928558 0.372231 0.24895677
0.373071 -0.23578395 -0.21870583 -0.19132178 -0.20995861 0.08805437 0.1694364 0.27271494
-0.117481396 0.028029641 0.24117284 0.060613953 0.23309134 0.03304183 0.26692116 0.04491198
-0.11158356 0.038786437 0.08612218 -0.0594291 0.16641791 0.12481565 -0.09193374 -0.1688105
0.15089342 -0.03663415 -0.16149838 -0.24386734 -0.22968927 -0.027107846 -0.16431205 -0.21449465
-0.078162104 -0.14442812 -0.16660155 -0.2720426 -0.15742911 -0.23976558 0.1050999 -0.048659824
0.00034018225 -0.17502256 -0.23640384 -0.055143073 0.037367724 -0.16821633 -0.14622632 -0.1760114
0.022266205 -0.038832247 -0.06531766 -0.17872739 -0.17339645 -0.030111004 -0.020046316 -0.070648
0.19532764 -0.014023792 0.08175459 0.036604047 -0.1452569 0.024605902 -0.08427758 -0.017923923
-0.16158462 -0.25251928 0.028194513 -0.023756905 0.07993669 -0.16526943 0.04101418 -0.14992663
0.03619732 0.067460574 0.21180357 0.2609337 0.28867498 -0.028829897
00000000: 84ca c23e 4298 eb3e 7381 8a3e 2b01 d13e
00000010: a8cc 8b3d 7aee bd3e ac8c be3e bd94 373f
00000020: 0ede 203f 738e fa3d f63c 0b3f 51f9 223f
00000030: 0a66 253f bc2f ca3e 9e6f ba3e 72f8 723e
00000040: c2bd 153f 11dc b03e f32c 873d 7d58 393e
00000050: 50e8 c8bd 3ad7 b93c c9e9 5cbc ba29 203e
00000060: 5ee3 18be 1961 94bc 6853 c6bd 77ab b23d
00000070: 1b9a 043e e44c 48be d455 543e 7aa4 15be
00000080: 8a0f 7d3e a228 ad3d 12ef 1b3c f414 883e
00000090: 07de 6a3e 859a 113f 85d6 c23e 3be0 063e
000000a0: 15a2 823e 23b4 9f3e 7451 103f 4d43 183f
000000b0: 27fa d23e 6984 d63d 577c 993e c2a1 5f3e
000000c0: 8cec 833e 1806 8abd 012b 95bd f2ad 243d
000000d0: 4484 2b3d 0d38 ab3e cb8b 1f3e f35c e03d
000000e0: 6654 823e 3971 633e dec3 673e a468 5fbe
000000f0: 36cb 113e 6a86 133e c91a 903e fb0c a53b
00000100: 0172 e2bd 1806 0e3e 9e7a f23e 9128 823d
00000110: e816 24be ae5a 9ebe 1095 be3e 86ee 7e3e
00000120: 2a03 bf3e 5971 71be 6cf4 5fbe dbe9 43be
00000130: 64ff 56be d955 b43d bc80 2d3e 4ba1 8b3e
00000140: 169a f0bd 6b9e e53c 03f6 763e 5646 783d
00000150: 7faf 6e3e df56 073d e4a9 883e a0f5 373d
00000160: ec85 e4bd 87de 1e3d d360 b03d ee6b 73bd
00000170: 7569 2a3e 599f ff3d c247 bcbd a9dc 2cbe
00000180: ce83 1a3e b10d 16bd d55f 25be 5cb8 79be
00000190: aa33 6bbe 4611 debc 6b41 28be 7ca4 5bbe
000001a0: 7413 a0bd f7e4 13be 9999 2abe 2b49 8bbe
000001b0: 1935 21be 1c85 75be 9e3e d73d 864f 47bd
000001c0: 7d5a b239 1d39 33be d913 72be b4dd 61bd
000001d0: e60e 193d e740 2cbe 5abc 15be 553c 34be
000001e0: 9e67 b63c 900e 1fbd 44c5 85bd 5004 37be
000001f0: d78e 31be 5aab f6bc 2c38 a4bc e6af 90bd
00000200: f803 483e 0cc4 65bc f36e a73d 20ee 153d
00000210: 3abe 14be 5192 c93c b999 acbd 31d5 92bc
00000220: 7076 25be 354a 81be 2ef8 e63c d79d c2bc
00000230: d9b5 a33d 643c 29be 7cfe 273d 5e86 19be
00000240: a443 143d c528 8a3d 09e3 583e 1a99 853e
00000250: 35cd 933e ad2c ecbc

_module.conv1.bias f4 [6]
0.26966915 0.07806789 0.01573282 -0.15286231 0.1661085 -0.10403461
00000000: 1312 8a3e 0fe2 9f3d 1de2 803c f087 1cbe
00000010: 5918 2a3e 1910 d5bd

_module.conv2.weight f4 [16, 6, 5, 5]
0.07606594 0.024788717 0.18349369 -0.004355879 0.15959133 0.04731179 0.07112302 0.025940243
0.1012062 -0.10320929 -0.009512785 0.15253383 0.21313019 -0.09378275 -0.04563587 0.0071552037
0.16065103 0.10500246 -0.046871383 -0.030325426 -0.02937424 0.15390985 0.0894504 -0.14298548
-0.08739771 0.13120435 0.048972424 0.035731655 0.09363665 0.09526164 -0.067055926 -0.018400712
0.047418248 0.034782648 0.0011784902 -0.10603223 0.057008315 0.09575537 -0.07243027 -0.10666067
0.028185664 -0.011791387 0.037260223 -0.08772633 -0.1529381 -0.01161577 0.15636547 0.04294844
-0.048096605 -0.086815044 -0.15572476 -0.1578694 -0.038625248 0.039476167 0.13052689 0.026194358
-0.090264656 -0.03122349 0.09662492 0.080084994 0.033313528 0.066951655 0.08856486 0.033151943
-0.102829516 0.04439847 0.108682334 0.10740375 -0.06391704 0.021612983 0.09198338 0.025516307
0.058539107 -0.027242687 -0.09306824 0.01922831 0.07616011 0.098338366 0.1023408 -0.061532512
-0.0050516794 -0.06555589 -0.11372763 -0.06742017 0.06986985 -0.06911768 0.0163115 -0.06604783
-0.080412425 -0.08501092 -0.1074668 0.01497778 -0.053106543 -0.033995595 -0.09150004 0.018867247
-0.032768857 -0.092752814 -0.054405972 -0.002501592 0.028986707 0.05422896 0.07752802 0.09061785
0.04539867 0.003150899 0.057271108 -0.049254943 0.17949195 0.116826385 0.006765609 -0.0731545
-0.010133006 0.054419126 0.018906953 -0.10705106 0.013006608 0.11838788 0.15338215 -0.011079897
-0.09855245 0.050124224 0.1018194 -0.015414492 -0.012427684 -0.014332715 0.042938773 -0.020773305
-0.08795419 -0.09401322 -0.048483107 0.101690084 0.059524883 -0.09295797 0.016482877 0.045400262
-0.06812534 -0.22102034 0.05719651 -0.13290206 0.010215643 -0.06988523 -0.15064336 -0.038806748
-0.047982138 -0.03386534 0.08707144 -0.11951543 -0.10760387 0.053463787 -0.006572774 0.010938399
-0.09736376 0.017030153 0.09073797 0.06858805 -0.026729466 0.25948155 0.16971788 0.08443941
-0.014254414 0.09605417 0.03392801 0.04764152 0.018973958 -0.03976733 0.06763885 0.036420256
-0.04112695 -0.1110493 -0.10182497 -0.088809885 -0.10536779 -0.040691648 0.02294766 -0.067461684
-0.05880661 -0.06683529 0.11604209 0.084191024 0.10376687 0.15054198 0.02351452 0.037819948
-0.07814071 -0.060345136 -0.0017520158 -0.18298596 -0.10780811 -0.072309785 -0.019830216 -0.104047805
-0.038521968 0.053948484 0.0066429377 0.09633641 0.055848055 0.036193304 -0.08228073 0.028841132
0.0507623 0.003977312 -0.08484403 0.039702997 -0.01365918 -0.01090537 -0.0017547891 0.027064946
0.03592721 0.06872737 -0.029197108 -0.07325816 -0.07392289 -0.004908761 0.05835448 -0.0046089552
-0.11341849 0.046745956 -0.10262312 -0.031456612 0.02444403 -0.00041763234 0.022895915 -0.1509892
0.07762238 -0.06247053 -0.011208143 0.07020265 0.07194341 0.053467736 -0.021811917 -0.059789628
0.016879816 0.020900432 -0.081812605 -0.07742523 0.07581637 0.09883976 -8.41776e-05 -0.12894027
-0.031176712 -0.0015812267 -0.05286987 -0.011361249 -0.046319257 -0.050197084 -0.043249417 -0.054864544
-0.09448107 -0.08511293 -0.09267707 -0.13047788 -0.112679504 -0.0069030817 -0.00096596347 -0.05323624
00000000: 76c8 9b3d b511 cb3c c5e5 3b3e c3bb 8ebb
00000010: e96b 233e 02ca 413d f2a8 913d a280 d43c
00000020: 3245 cf3d 645f d3bd 83db 1bbc d431 1c3e
00000030: cd3e 5a3e 2c11 c0bd aeec 3abd 3376 ea3b
00000040: b481 243e 880b d73d 35fc 3fbd 076d f8bc
00000050: 3fa2 f0bc 8b9a 1d3e c531 b73d c96a 12be
00000060: 92fd b2bd 6f5a 063e 4f97 483d 5b5b 123d
00000070: 92c4 bf3d 8918 c33d 9e54 89bd 17bd 96bc
00000080: a339 423d 4078 0e3d 9277 9a3a 6d27 d9bd
00000090: 8d81 693d 641b c43d 5256 94bd e970 dabd
000000a0: 9fe5 e63c a930 41bc 2d9e 183d dda9 b3bd
000000b0: ce9b 1cbe 1250 3ebc 451e 203e b4ea 2f3d
000000c0: f200 45bd 16cc b1bd 5076 1fbe 84a8 21be
000000d0: 8235 1ebd c3b1 213d d7a8 053e 8d95 d63c
000000e0: addc b8bd 68c8 ffbc 49e3 c53d 9a03 a43d
000000f0: c473 083d f31d 893d 7e61 b53d 55ca 073d
00000100: 4898 d2bd 2cdb 353d d894 de3d 7ff6 db3d
00000110: f0e6 82bd b60d b13c c861 bc3d 9307 d13c
00000120: b4c6 6f3d 0e2c dfbc 909a bebd b084 9d3c
00000130: d5f9 9b3d a065 c93d 0e98 d13d 8409 7cbd
00000140: 8f88 a5bb 2b42 86bd 08ea e8bd 9613 8abd
00000150: ed17 8f3d 928d 8dbd b29f 853c 1644 87bd
00000160: 45af a4bd 351a aebd 8e17 dcbd 5d65 753c
00000170: 3f86 59bd f73e 0bbd 5f64 bbbd 7c8f 9a3c
00000180: a338 06bd 30f5 bdbd ccd8 5ebd c0f1 23bb
00000190: 8875 ed3c 301f 5e3d 03c7 9e3d da95 b93d
000001a0: f5f3 393d 507f 4e3b 1c95 6a3d 8dbf 49bd
000001b0: bdcc 373e ac42 ef3d 0bb2 dd3b 07d2 95bd
000001c0: e804 26bc 97e6 5e3d c1e2 9a3c 963d dbbd
000001d0: ab19 553c 5875 f23d 3610 1d3e 7588 35bc
000001e0: ded5 c9bd 0f4f 4d3d b186 d03d 118d 7cbc
000001f0: 7c9d 4bbc c4d3 6abc 91e0 2f3d c72c aabc
00000200: 5421 b4bd 018a c0bd 3996 46bd e442 d03d
00000210: 5dd0 733d c060 bebd 1907 873c a0f5 393d
00000220: 4c85 8bbd 2853 62be e346 6a3d 7a17 08be
00000230: 835f 273c fd1f 8fbd 4142 1abe d3f3 1ebd
00000240: eb88 44bd 62b6 0abd 8352 b23d 81c4 f4bd
00000250: 6b5f dcbd d8fc 5a3d 6d60 d7bb f836 333c
00000260: a766 c7bd d282 8b3c d4d4 b93d e477 8c3d
00000270: c1f7 dabc c4da 843e 86ca 2d3e 92ee ac3d
00000280: 588b 69bc 0cb8 c43d 19f8 0a3d c123 433d
00000290: 466f 9b3c 11e3 22bd 3d86 8a3d 682d 153d
000002a0: bc74 28bd d16d e3bd 9c89 d0bd f5e1 b5bd
000002b0: 11cb d7bd 49ac 26bd bbfc bb3c 5a29 8abd
000002c0: 33df 70bd f1e0 88bd 7aa7 ed3d 586c ac3d
000002d0: ba83 d43d ad27 1a3e 86a1 c03c 17e9 1a3d
000002e0: 3d08 a0bd 762c 77bd e5a3 e5ba ac60 3bbe
000002f0: 80ca dcbd 2717 94bd fa72 a2bc 0417 d5bd
00000300: 36c9 1dbd 16f9 5c3d 00ad d93b 064c c53d
00000310: eec0 643d 6e3f 143d cd82 a8bd 3d44 ec3c
00000320: 21ec 4f3d 1c54 823b b5c2 adbd 9c9f 223d
00000330: c1ca 5fbc 70ac 32bc f400 e6ba 4eb7 dd3c
00000340: 6928 133d efc0 8c3d c62e efbc 6008 96bd
00000350: e264 97bd acd9 a0bb 1b05 6f3d b806 97bb
00000360: f447 e8bd b078 3f3d 122c d2bd a6d8 00bd
00000370: d93e c83c aaf5 dab9 3790 bb3c ea9c 1abe
00000380: 7bf8 9e3d 19e1 7fbd 5ca2 37bc 68c6 8f3d
00000390: 1157 933d fc00 5b3d e8ae b2bc f8e5 74bd
000003a0: 8a47 8a3c 6237 ab3c 5e8d a7bd 1e91 9ebd
000003b0: 9d45 9b3d 806c ca3d 8188 b0b8 eb08 04be
000003c0: 4e66 ffbc 2a41 cfba 148e 58bd 8824 3abc
000003d0: 43b9 3dbd 759b 4dbd 4d26 31bd a5b9 60bd
000003e0: 4b7f c1bd b04f aebd 7acd bdbd fe9b 05be
000003f0: 83c4 e6bd 3f33 e2bb b638 7dba 3e0e 5abd

_module.conv2.bias f4 [16]
0.07239429 0.052005548 0.032732368 -0.037132602 0.016109314 0.12115765 0.06555413 0.029225122
-0.01151894 -0.010665401 -0.01534213 0.15887462 0.057382267 -0.030747272 -0.03713826 0.056144148
00000000: 7543 943d c503 553d 6012 063d 5b18 18bd
00000010: aef7 833c 8121 f83d 3e41 863d 8669 ef3c
00000020: f0b9 3cbc efbd 2ebc 8f5d 7bbc 07b0 223e
00000030: ab09 6b3d b4e1 fbbc 4a1e 18bd 68f7 653d

_module.fc1.weight f4 [120, 400]
-0.03865888 0.057042412 0.032171797 -0.015454225 -0.084316224 -0.025095236 -0.0023298403 -0.02111784
0.017744327 -0.04280897 0.071895495 -0.08709955 -0.046199966 0.031170655 0.034367315 0.09313024
0.048701458 -0.04470337 -0.020661471 -0.043218903 0.053136855 0.060355384 -0.004011811 0.032183807
-0.030029964 0.06525051 0.0320562 0.014558188 0.034313645 -0.07270264 0.0004522717 0.047247637
-0.023631439 0.06327493 0.019650124 -0.017374026 -0.0033956147 0.011093621 0.006454442 -0.007876539
0.022595204 -0.0863496 -0.16199598 0.10740979 0.070439905 0.083408974 -0.0263134 -0.14546302
0.062293362 -0.005375194 -0.110510014 0.016317926 0.0063226325 0.11790471 0.004044469 0.0025714545
0.09794156 -0.06513495 -0.04948456 0.082307056 -0.004752755 0.07216022 -0.0016985617 -0.07348613
0.04481241 0.0055264924 -0.004651445 0.0554669 0.029796818 0.05235234 0.13302094 0.063173406
-0.00081564207 0.054706104 -0.04444871 -0.05718203 0.08142071 -0.06602953 0.10034592 0.058166906
0.03688535 -0.06590638 0.011778356 -0.03154616 0.07204611 -0.13080518 0.0053508026 -0.095380336
-0.0484976 -0.0758835 -0.10155173 -0.05185038 0.026913013 -0.08030314 -0.020430211 0.03062743
0.018827543 -0.039028198 -0.0072091715 0.10423665 -0.022383539 -0.004878413 -0.13030016 -0.042954527
0.04928994 -0.10443427 -0.020909393 -0.103442475 0.031513732 -0.13064398 0.030550908 -0.05420581
-0.03700279 0.060998086 -0.020354655 0.009211936 -0.03455989 0.050000858 0.025124693 -0.020168789
0.027636088 -0.03877202 0.080553696 0.032928064 -0.0059600007 0.060169276 -0.03596516 -0.14197579
-0.04937081 0.057764936 0.06125762 -0.0007741198 0.07096374 0.025098557 0.017498817 -0.019860955
0.032155704 -0.0071306294 0.004260553 -0.037490234 -0.015057697 0.098170064 0.037466317 -0.020841515
0.09997538 0.03541795 -0.036108065 0.08502838 -0.037722718 0.07450144 -0.02608592 -0.04634674
0.0108367475 -0.08391579 0.093469836 -0.114650205 0.03744576 0.016157165 -0.04043553 0.12024231
-0.0835887 0.029453982 0.10030775 0.04019288 0.0032346013 0.041186657 0.04151863 -0.013222438
-0.035442445 0.015841939 0.06505569 0.090967596 0.006163279 0.074181624 -0.03226626 0.0051460695
-0.019020831 0.06387591 0.033721525 0.0052248454 0.086855866 -0.008342371 0.032737467 0.053554457
0.047995336 0.008187095 -0.013920071 -0.10489391 0.07486397 0.05379044 -0.02517021 0.046833232
-0.037637442 0.010476022 -0.017144972 0.09984432 -0.040755276 0.023646012 -0.094354704 -0.00051546405
-0.048222207 -0.024378361 -0.030646347 -0.0026927674 -0.051912017 0.039280474 -0.024444822 0.019770687
0.022786824 -0.032845043 0.051555037 -0.0085143335 -0.008558031 0.047996733 -0.061032955 0.11763974
-0.007451455 -0.061183862 -0.06012467 0.008278558 -0.04832335 -0.015361314 -0.08888631 -0.0033337267
0.0077483268 -0.017253458 0.06970775 -0.016913421 0.011957956 0.018590193 0.10588097 -0.021300757
-0.04462201 -0.085518666 0.021728367 -0.04397979 0.06947777 -0.03027817 0.0366645 -0.028965835
0.009739467 0.0020626676 -0.024909006 -0.045804586 0.06375978 0.04315551 -0.011446716 0.08447143
0.04748623 0.033492163 -0.029743293 0.057839535 -0.012543979 0.025999904 -0.016076347 0.0389694
00000000: c658 1ebd 4ea5 693d 93c6 033d b833 7dbc
00000010: fcad acbd 8694 cdbc 3cb0 18bb 52ff acbc
00000020: 8d5c 913c 7558 2fbd f23d 933d 4061 b2bd
00000030: 2d3c 3dbd 9a59 ff3c bec4 0c3d 11bb be3d
00000040: 2e7b 473d e21a 37bd 3f42 a9bc 4e06 31bd
00000050: 08a6 593d 3537 773d 8375 83bb 2bd3 033d
00000060: 6601 f6bc 0fa2 853d 5d4d 033d 7785 6e3c
00000070: 778c 0c3d 1fe5 94bd e11e ed39 bd86 413d
00000080: b896 c1bc 4996 813d 4cf9 a03c f953 8ebc
00000090: f688 5ebb 05c2 353c c97f d33b 990c 01bc
000000a0: 9419 b93c 0fd8 b0bd 46e2 25be aaf9 db3d
000000b0: cc42 903d 53d2 aa3d 338f d7bc 42f4 14be
000000c0: 5327 7f3d 6522 b0bb 1353 e2bd 2cad 853c
000000d0: 162e cf3b 0678 f13d 7787 843b d985 283b
000000e0: 9695 c83d 7965 85bd 52b0 4abd 9a90 a83d
000000f0: 00bd 9bbb bdc8 933d 46a2 deba e57f 96bd
00000100: 388d 373d 9417 b53b 266b 98bb 4331 633d
00000110: 7518 f43c 686f 563d a436 083e 0f61 813d
00000120: d0d0 55ba 8213 603d da0f 36bd b437 6abd
00000130: e7bf a63d 7d3a 87bd 2982 cd3d 6c40 6e3d
00000140: 1815 173d edf9 86bd 01fa 403c 8c36 01bd
00000150: e98c 933d cbf1 05be c955 af3b c456 c3bd
00000160: 6ba5 46bd cf68 9bbd 5afa cfbd 1061 54bd
00000170: ae78 dc3c f975 a4bd 425d a7bc 60e6 fa3c
00000180: 383c 9a3c 08dc 1fbd ea3a ecbb 067a d53d
00000190: af5d b7bc 18db 9fbb 686d 05be 16f1 2fbd
000001a0: 40e4 493d a2e1 d5bd 2d4a abbc a6d9 d3bd
000001b0: 8b14 013d 89c7 05be e645 fa3c e906 5ebd
000001c0: 3d90 17bd 21d9 793d cebe a6bc a9ed 163c
000001d0: ac8e 0dbd b3cd 4c3d 4dd2 cd3c 0439 a5bc
000001e0: 1465 e23c 69cf 1ebd 56f9 a43d 94df 063d
000001f0: 1c4c c3bb 0f74 763d 3450 13bd 1a62 11be
00000200: 0c39 4abd ed9a 6c3d 45e9 7a3d 4dee 4aba
00000210: 7055 913d 7d9b cd3c ae59 8f3c 71b3 a2bc
00000220: b3b5 033d 0ea8 e9bb 1c9c 8b3b 5c8f 19bd
00000230: 8fb4 76bc 630d c93d 4876 193d d3bb aabc
00000240: e4bf cc3d 6a12 113d 0de6 13bd 5c23 ae3d
00000250: 2383 1abd 3694 983d 24b2 d5bc 14d6 3dbd
00000260: 9d8c 313c 0bdc abbd 1d6d bf3d bacd eabd
00000270: ba60 193d 085c 843c ba9f 25bd 9a41 f63d
00000280: 8d30 abbd 7a49 f13c 266e cd3d 4aa1 243d
00000290: 9bfb 533b 57b3 283d 700f 2a3d eda2 58bc
000002a0: 192c 11bd f4c6 813c eb3b 853d 384d ba3d
000002b0: 55f5 c93b 89ec 973d a029 04bd 5ca0 a83b
000002c0: 93d1 9bbc 60d1 823d 951f 0a3d 2e35 ab3b
000002d0: 7de1 b13d 71ae 08bc b917 063d eb5b 5b3d
000002e0: c296 443d 2a23 063c 0211 64bc 9ed2 d6bd
000002f0: 4852 993d 5d53 5c3d c231 cebc 34d4 3f3d
00000300: b829 1abd 9fa3 2b3c 9d73 8cbc 2e7b cc3d
00000310: 01ef 26bd 48b5 c13c 0a3d c1bd 3520 07ba
00000320: a684 45bd 21b5 c7bc 0c0e fbbc 2479 30bb
00000330: b2a1 54bd 90e4 203d 8240 c8bc 23f6 a13c
00000340: 6fab ba3c 8688 06bd 602b 533d b47f 0bbc
00000350: fc36 0cbc 3998 443d b1fd 79bd 1bed f03d
00000360: 562b f4bb ee9b 7abd 4945 76bd caa2 073c
00000370: b4ee 45bd 05ae 7bbc 070a b6bd a77a 5abb
00000380: ade5 fd3b 2057 8dbc f0c2 8e3d 048e 8abc
00000390: 4deb 433c 764a 983c 1fd8 d83d ed7e aebc
000003a0: 92c5 36bd 6924 afbd b0ff b13c 2724 34bd
000003b0: 5c4a 8e3d ed09 f8bc 842d 163d c249 edbc
000003c0: 4992 1f3c d22d 073b f90d ccbc 979d 3bbd
000003d0: 7d94 823d d5c3 303d 028b 3bbc 5bff ac3d
000003e0: ec80 423d 142f 093d 35a8 f3bc 26e9 6c3d
000003f0: 4385 4dbc c0fd d43c 8bb2 83bc 619e 1f3d

_module.fc1.bias f4 [120]
-0.01699628 -0.022188606 -0.07533424 0.08337547 0.018676527 0.019177381 -0.08298602 -0.094255604
0.037703123 -0.06350721 0.034662623 0.080959216 0.02209568 -0.02214661 -0.011631705 -0.02697875
0.13230804 -0.0002871304 0.08472416 -0.0040718163 -0.04048546 -0.022737809 -0.034712926 -0.0360349
-0.06632076 0.13715787 -0.024022011 0.020540185 0.06340806 0.072251156 0.04712307 0.025790285
-0.112501025 -0.012917754 0.0073931636 -0.01508788 0.0026588829 0.097901024 -0.07939106 0.005676147
-5.382897e-05 0.13400249 0.13272554 0.023226917 -0.035876065 -0.04163745 -0.09118656 -0.02028019
-0.040956855 0.04719308 -0.018688768 0.09317547 0.029610015 0.028642816 0.07215564 0.0860937
-0.027651902 -0.018211547 0.023221353 0.046600237 0.11120693 -0.09389264 0.011045816 0.0056537446
-0.06314264 -0.049385432 0.0017830796 0.04177496 0.07200741 0.03773763 -0.014610593 -0.022631228
0.013584945 -0.025695423 -0.13336004 0.01828828 0.0844169 -0.063108735 -0.005793065 0.03574408
-0.041632526 0.06996239 -0.0076094475 0.064057626 0.041377526 -0.011329607 0.02282314 0.04865365
0.014663621 0.011093647 0.022905968 0.011107664 -0.07901219 0.025674187 -0.0017972175 -0.02031018
-0.0506365 0.010366202 -0.08717624 0.016730307 0.038126927 0.019865101 0.024752317 0.0028104472
-0.040907256 0.021043463 -0.028713437 -0.04350534 -0.12345863 0.061483677 0.04928856 -0.018904002
0.008386837 0.0026089586 -0.019111617 -0.054607745 0.050748546 -0.031939212 0.029346941 0.01768651
00000000: c83b 8bbc e1c4 b5bc d748 9abd c2c0 aa3d
00000010: 84ff 983c e219 9d3c 93f4 a9bd 1509 c1bd
00000020: 976e 1a3d 1110 82bd 65fa 0d3d f2cd a53d
00000030: 0002 b53c cf6c b5bc e892 3ebc 8a02 ddbc
00000040: c27b 073e fd89 96b9 dc83 ad3d df6c 85bb
00000050: 15d4 25bd a444 babc 242f 0ebd 5599 13bd
00000060: 2ed3 87bd 1d73 0c3e cfc9 c4bc e443 a83c
00000070: 16dc 813d 6af8 933d 1f04 413d 2646 d33c
00000080: f066 e6bd fda4 53bc 5a42 f23b 2833 77bc
00000090: a740 2e3b 5580 c83d c897 a2bd f9fe b93b
000000a0: 6bc6 61b8 f337 093e 34e9 073e 6046 be3c
000000b0: c8f2 12bd 088c 2abd 05c0 babd a422 a6bc
000000c0: 60c2 27bd 884d 413d 3019 99bc c8d2 be3d
000000d0: b490 f23c 57a4 ea3c 56c6 933d e551 b03d
000000e0: 3e86 e2bc 6230 95bc b53a be3c e4df 3e3d
000000f0: 75c0 e33d c94a c0bd 83f9 343c 0c43 b93b
00000100: ee50 81bd 6148 4abd 39b6 e93a 381c 2b3d
00000110: 9f78 933d c692 1a3d 4561 6fbc 2065 b9bc
00000120: 6493 5e3c 357f d2bc 898f 08be 4ed1 953c
00000130: c5e2 ac3d 273f 81bd c0d3 bdbb 6268 123d
00000140: de86 2abd 7148 8f3d ac58 f9bb a530 833d
00000150: 7b7b 293d d19f 39bc 98f7 ba3c 0d49 473d
00000160: af3f 703c 21c2 353c 4ca5 bb3c ebfc 353c
00000170: 25d1 a1bd ac52 d23c 9d90 ebba 8961 a6bc
00000180: 3868 4fbd 01d7 293c 7589 b2bd ff0d 893c
00000190: fb2a 1c3d 23bc a23c 5fc5 ca3c 7b2f 383b
000001a0: 5e8e 27bd 5763 ac3c 7138 ebbc a832 32bd
000001b0: e1d7 fcbd 4fd6 7b3d cde2 493d 91dc 9abc
000001c0: f268 093c 10fb 2a3b f78f 9cbc 5fac 5fbd
000001d0: b5dd 4f3d b1d2 02bd ff68 f03c 4de3 903c

_module.fc2.weight f4 [84, 120]
-0.07568972 0.0025944638 0.015234814 0.21290894 0.03618427 -0.029680278 -0.09659707 0.074080974
0.0830439 -0.029595345 0.052125134 0.032427806 -0.04501694 -0.101061925 0.12742418 0.026872315
-0.05445333 -0.025629576 0.035617046 0.053829897 0.045994274 -0.08147152 0.09901139 -0.12527937
0.14770247 -0.040854793 0.03804326 -6.736834e-05 -0.06685602 -0.08888483 0.08221556 0.05712507
-0.074275464 0.07578062 0.09969803 -0.09935741 -0.08096797 0.14522062 -0.094364166 0.11515619
-0.08755755 -0.07986835 -0.026824145 0.03823105 -0.034958668 0.062413856 -0.10770116 0.033378173
0.025989303 -0.024508402 -0.10535978 -0.05384174 -0.021396263 -0.059274357 -0.053689543 -0.0064438907
-0.029111186 0.09353337 -0.0035805444 0.048561715 0.055674814 -0.087910116 0.047022004 -0.11231645
0.06608754 0.056689143 0.0851972 0.06775456 0.0925632 0.04852913 -0.062055238 0.036381572
-0.016205655 -0.041649953 0.031770617 -0.0968861 -0.03380101 -0.13121243 0.051916562 0.06896983
0.035956517 -0.11134697 0.050405435 0.04883825 0.034956697 -0.12126346 -0.012354488 0.02664514
-0.12636258 -0.009233644 0.07684092 -0.13437001 0.12657957 0.020437479 0.0050180815 0.092267685
0.018833581 -0.045512527 0.06739621 -0.18452626 -0.04200447 -0.028281797 -0.09462982 -0.00086189
0.019763432 0.10287508 0.08025023 -0.036437478 -0.07386955 -0.07222711 -0.12537946 -0.1091615
0.064535625 0.041582633 -0.084198974 -0.0007148674 -0.1724967 -0.09610117 0.1500715 -0.048992682
-0.056095943 -0.060210917 -0.071848586 0.015083344 -0.0709024 -0.09397127 0.0909766 -0.014844609
-0.004274978 0.00058087124 -0.09923732 -0.1688028 -0.1861807 -0.035078667 -0.021022558 -0.011603239
-0.11078033 -0.081657566 0.06590218 0.015988128 0.048182584 0.057090376 -0.10239458 0.040934134
-0.12170732 0.10802489 0.04010813 -0.019938558 0.17556787 -0.08640925 -0.031714294 -0.09395884
-0.022971662 -0.022658147 0.08896814 -0.04221428 -0.009462277 0.02988688 0.03799505 -0.15221936
-0.10897475 -0.0041285735 0.04953542 -0.0056759594 -0.0016576778 0.04209212 0.013738132 -0.0359681
0.07421516 0.11050252 0.018677628 0.106642395 0.08798039 -0.046193693 -0.09946035 0.16703904
0.13919571 0.04320987 0.029136447 -0.09892873 0.19044694 -0.0040248903 -0.10008858 0.18898667
0.01179618 -0.031903815 -0.13317907 -0.037236046 0.06484192 0.06942441 -0.039940592 -0.14289987
0.21431008 -0.15604825 0.043196805 -0.027555794 0.1454424 0.06479742 0.057118505 -0.008775421
0.015416547 0.12343644 -0.109564 0.02144863 0.05579659 -0.10434294 0.0461386 -0.11427408
0.07580449 -0.14397846 0.017582864 -0.061967168 0.03222825 0.19306491 -0.09678933 -0.03724815
0.052162368 -0.07634327 -0.032613613 -0.14887941 -0.21864311 -0.14749835 -0.08361018 0.10323137
-0.094409935 0.019150823 -0.0006408551 0.00079424586 0.053244445 0.06973009 -0.070448555 0.034667827
0.10145255 -0.034786996 -0.13600461 0.14188837 -0.006198855 0.01177939 -0.025136955 -0.032762107
-0.044276465 0.03643031 -0.12223646 0.026033763 -0.09516767 0.10100717 0.012625815 -0.021739425
0.017893609 0.0024394633 -0.09181913 0.026767125 0.03512483 0.07494402 0.0080487905 0.017360076
00000000: 3603 9bbd e107 2a3b 719b 793c cd04 5a3e
00000010: f535 143d 0e24 f3bc afd4 c5bd c4b7 973d
00000020: ec12 aa3d f071 f2bc 2a81 553d 05d3 043d
00000030: af63 38bd 8ef9 cebd 7c7b 023e 5423 dc3c
00000040: 740a 5fbd 1ef5 d1bc 2ee3 113d bd7c 5c3d
00000050: 7e64 3c3d 8ada a6bd 7cc6 ca3d 3c49 00be
00000060: 513f 173e 5b57 27bd 40d3 1b3d 1a48 8db8
00000070: cfeb 88bd 4009 b6bd a260 a83d fafb 693d
00000080: bc1d 98bd df32 9b3d 7b2e cc3d e67b cbbd
00000090: 89d2 a5bd b7b4 143e 0042 c1bd 02d7 eb3d
000000a0: 5f51 b3bd 0492 a3bd 4fbe dbbc 2998 1c3d
000000b0: d230 0fbd aca5 7f3d 6d92 dcbd 8db7 083d
000000c0: 85e7 d43c d8c5 c8bc dec6 d7bd 2889 5cbd
000000d0: 3747 afbc abc9 72bd 91e9 5bbd 4627 d3bb
000000e0: 957a eebc 6c8e bf3d 91a7 6abb a6e8 463d
000000f0: 460b 643d 380a b4bd 259a 403d 2b06 e6bd
00000100: e758 873d e032 683d df7b ae3d e7c2 8a3d
00000110: c691 bd3d 7bc6 463d a22d 7ebd d804 153d
00000120: b9c1 84bc 2499 2abd e821 023d 386c c6bd
00000130: ee72 0abd 8d5c 06be 76a6 543d 0e40 8d3d
00000140: 2447 133d e109 e4bd ee75 4e3d 9e0a 483d
00000150: c12e 0f3d fa58 f8bd 7a6a 4abc e946 da3c
00000160: 3165 01be b648 17bc c65e 9d3d 4b98 09be
00000170: 139e 013e 806c a73c b86e a43b d7f6 bc3d
00000180: e248 9a3c 586b 3abd 0607 8a3d 74f4 3cbe
00000190: e10c 2cbd 3aaf e7bc 47cd c1bd 75f0 61ba
000001a0: ece6 a13c 2cb0 d23d 3c5a a43d 773f 15bd
000001b0: eb48 97bd cfeb 93bd 7963 00be 1190 dfbd
000001c0: 412b 843d 8d52 2a3d 8370 acbd f065 3bba
000001d0: faa2 30be b1d0 c4bd 58ac 193e 8dac 48bd
000001e0: dcc4 65bd b99f 76bd 5a25 93bd 2120 773c
000001f0: 4735 91bd 0274 c0bd f151 ba3d ce36 73bc
00000200: 1d15 8cbb 9c45 183a f03c cbbd a4da 2cbe
00000210: 27a6 3ebe a6ae 0fbd 8037 acbc 831b 3ebc
00000220: cce0 e2bd 153c a7bd b9f7 863d 89f9 823c
00000230: 1a5b 453d 99d7 693d 40b4 d1bd 8daa 273d
00000240: b041 f9bd 273c dd3d 6c48 243d 3056 a3bc
00000250: 10c8 333e 55f7 b0bd d9e6 01bd 7e6d c0bd
00000260: 112f bcbc 949d b9bc ee34 b63d e2e8 2cbd
00000270: ab07 1bbc 55d5 f43c b3a0 1b3d 64df 1bbe
00000280: 272e dfbd fc48 87bb a7e5 4a3d 66fd b9bb
00000290: 7046 d9ba c968 2c3d e715 613c 4953 13bd
000002a0: 1efe 973d 254f e23d d301 993c 5467 da3d
000002b0: 102f b43d 9935 3dbd deb1 cbbd 480c 2b3e
000002c0: 5289 0e3e d5fc 303d 8faf ee3c 259b cabd
000002d0: 8604 433e 3ae3 83bb 3efb ccbd b985 413e
000002e0: c444 413c 93ad 02bd 1860 08be d384 18bd
000002f0: d7cb 843d 632e 8e3d bf98 23bd 5854 12be
00000300: 1a74 5b3e 1dcb 1fbe 22ef 303d b0bc e1bc
00000310: daee 143e 82b4 843d 18f5 693d c9c6 0fbc
00000320: af95 7c3c 3fcc fc3d 1763 e0bd 0ab5 af3c
00000330: f78a 643d c0b1 d5bd d4fb 3c3d 8708 eabd
00000340: 623f 9b3d 176f 13be f009 903c 49d1 7dbd
00000350: c501 043d cfb2 453e 7c39 c6bd 8491 18bd
00000360: 35a8 553d dc59 9cbd da95 05bd d873 18be
00000370: fbe3 5fbe cf09 17be d03b abbd f86a d33d
00000380: ff59 c1bd 30e2 9c3c 0fff 27ba f034 503a
00000390: d916 5a3d a6ce 8e3d 5547 90bd daff 0d3d
000003a0: 5bc6 cf3d cf7c 0ebd cb44 0bbe 2f4b 113e
000003b0: c41f cbbb 58fe 403c 04ec cdbc 8f31 06bd
000003c0: 3d5b 35bd f337 153d 1c57 fabd c244 d53c
000003d0: 44e7 c2bd d9dc ce3d 82dc 4e3c e116 b2bc
000003e0: 9e95 923c 67df 1f3b ab0b bcbd bb46 db3c
000003f0: 0edf 0f3d 407c 993d 13df 033c b836 8e3c

_module.fc2.bias f4 [84]
-0.115580566 0.06631902 0.10335661 0.0804301 -0.0010164899 0.07526653 0.12498462 0.11152111
0.054936852 -0.015423951 0.09210586 -0.014680152 0.14653541 -0.022709867 0.09525135 0.017655892
0.0017431348 0.026139306 0.05656762 0.15201356 0.10030207 -0.04634563 0.056484517 0.11551146
0.06781777 0.11965687 -0.09846797 -0.122178584 -0.040826574 -0.099745564 -0.061123647 0.09974297
0.13600864 -0.012092366 -0.040531874 0.05898995 0.07770476 0.066227846 0.07139328 0.0231063
0.026493857 0.03875621 -0.05849499 -0.014733176 0.0045747845 -0.23961413 0.020717304 0.12029301
-0.10061914 0.109751634 -0.017702421 -0.08614239 0.06300967 0.054780718 -0.07431803 -0.029796552
0.0058274013 -0.0097405175 -0.08347165 0.054035656 -0.04180742 -0.04563553 0.13260572 -0.068191536
-0.03275681 -0.010678836 0.0051688463 0.010745446 -0.050971154 0.03231838 -0.014490265 0.06975799
0.011542377 -0.011563311 0.024112837 0.061534602 0.012320672 -0.0843664 -0.060918353 0.058485888
-0.033813536 -0.0038127943 0.052261252 -0.028577682
00000000: 81b5 ecbd 44d2 873d a1ac d33d 89b8 a43d
00000010: be3b 85ba 5725 9a3d f0f7 ff3d 2e65 e43d
00000020: 7705 613d bdb4 7cbc ffa1 bc3d 0585 70bc
00000030: 610d 163e 0b0a babc 2413 c33d 17a3 903c
00000040: e679 e43a 1922 d63c 73b3 673d 71a9 1b3e
00000050: 2c6b cd3d ead4 3dbd 4f5c 673d 4691 ec3d
00000060: 0be4 8a3d a90e f53d 93a9 c9bd c438 fabd
00000070: c439 27bd 6747 ccbd ca5c 7abd 0b46 cc3d
00000080: d945 0b3e 0f1f 46bc c004 26bd 729f 713d
00000090: ac23 9f3d 77a2 873d a436 923d 6c49 bd3c
000000a0: a509 d93c d5be 1e3d 7198 6fbd 6b63 71bc
000000b0: 13e8 953b 685d 75be 56b7 a93c 2e5c f63d
000000c0: 6811 cebd 77c5 e03d ab04 91bc 6c6b b0bd
000000d0: 370b 813d bf61 603d 0d34 98bd e617 f4bc
000000e0: c9f3 be3b b196 1fbc 2ff3 aabd 7e54 5d3d
000000f0: 423e 2bbd 52ec 3abd cbc9 073e 01a8 8bbd
00000100: 012c 06bd 49f6 2ebc 6d5f a93b ab0d 303c
00000110: 21c7 50bd 4760 043d 9468 6dbc 47dd 8e3d
00000120: 3d1c 3d3c 0b74 3dbc 4988 c53c b50b 7c3d
00000130: a5dc 493c 4bc8 acbd 8685 79bd e68e 6f3d
00000140: 1080 0abd 13e0 79bb e50f 563d be1b eabc

_module.fc3.weight f4 [10, 84]
0.014628079 0.09108903 -0.02434216 -0.035483915 0.0050262273 -0.25254664 0.15511923 -0.13170522
0.10952344 0.023110662 -0.060013283 0.116106026 -0.18096462 -0.101646274 -0.09227236 -0.06272308
0.11663399 -0.12565418 0.023898534 0.11623482 -0.19309272 -0.06515858 0.18365847 -0.31701657
0.0673703 0.053949352 -0.09683611 0.21886668 -0.05681151 -0.14824076 -0.008648468 0.0044747633
0.16560929 -0.10480248 0.07213943 -0.0651818 0.07422669 0.08962081 0.12508564 -0.058551263
-0.03267569 0.17442892 -0.09403352 0.19205742 -0.10163456 0.013260789 0.13257837 -0.09453354
0.0006124262 -0.092834726 -0.03587462 0.0015789301 0.07502492 -0.03537377 -0.04500237 0.06359395
-0.1504205 0.0705778 -0.18387076 0.0014023685 0.12955023 -0.007969197 -0.064920686 0.0025113167
0.036873452 -0.07027266 0.023303892 0.051087797 -0.15111746 -0.05112273 0.049779896 0.05964193
-0.00392524 -0.013828829 -0.20498085 -0.22170311 0.08518588 -0.01871137 0.07961385 -0.17587382
0.058575347 -0.03729952 -0.08826152 -0.10643664 0.010399453 -0.26230794 0.10123794 0.061833307
0.054671496 -0.06108502 0.0026056496 0.08873659 -0.040154584 -0.14614159 -0.032484468 0.16214482
0.2503141 0.13537416 -0.037275117 -0.04645825 0.09078746 -0.020329136 0.21280575 0.011730772
0.018207658 0.06105951 -0.107842684 -0.12617224 0.010572377 0.014416899 -0.16324376 0.07051636
0.24219517 0.20702577 0.016944941 -0.072303146 -0.019199288 0.07004676 -0.1637618 -0.0081751505
-0.07075906 -0.2504474 -0.109836936 -0.029847126 -0.073145024 0.06540573 0.059474375 -0.0046222247
0.08112238 -0.07229779 0.077222735 0.030401552 0.07505368 0.2080589 -0.019943563 -0.08322574
0.076634325 -0.18258476 -0.13852622 0.029884556 0.053361572 0.12743989 -0.12818016 0.03824841
-0.1824465 0.063633144 0.015183145 -0.2581494 -0.072805345 -0.030287903 -0.096658535 0.053278625
-0.0983894 -0.0067730076 -0.10122459 0.120310605 0.038632996 -0.037370846 0.292122 0.17581756
0.040602524 0.048979264 0.09352133 0.15619832 0.0281596 0.16700551 -0.03302811 0.123048425
-0.114685826 -0.25179428 0.24623233 -0.019830173 0.0118275415 -0.08071701 -0.0140794385 0.121720225
0.22121385 -0.028056836 -0.15681492 -0.059394497 0.034934785 0.02059241 -0.113404065 0.12893061
-0.058536004 -0.049584582 0.12327315 0.11986547 0.14909618 0.0818596 -0.01635401 0.007004605
0.02151116 -0.17891683 0.012673189 0.01360522 0.013055785 -0.033253185 0.0386683 -0.11431303
-0.021171406 0.07405897 0.3049919 0.11036345 0.032774083 0.18692246 -0.13944465 0.27711773
0.16008368 0.09825939 -0.1467589 0.022210512 -0.023020795 -0.17912464 -0.050993692 -0.17712496
-0.06623099 0.04195751 0.054940477 -0.056550305 0.03803931 -0.13752219 0.0023440125 -0.012317009
-0.0044865836 -0.01629484 0.09983894 -0.100102246 -0.011808106 0.07591076 -0.039840117 -0.15763456
-0.14040525 0.15456335 0.036478307 0.13481982 0.103050075 0.13362837 -0.07863439 -0.058927633
0.0053740772 -0.060829073 -0.18901634 -0.09428444 -0.08627133 -0.005425794 -0.052006174 -0.13101058
-0.18918034 0.04539891 0.20202303 0.07653233 0.100728534 -0.16347465 -0.103097945 0.037212566
00000000: 9caa 6f3c e38c ba3d 3669 c7bc 9557 11bd
00000010: 0db3 a43b cb4d 81be 93d7 1e3e bcdd 06be
00000020: d34d e03d 9252 bd3c 7dd0 75bd ffc8 ed3d
00000030: ca4e 39be ec2b d0bd 4bf9 bcbd f574 80bd
00000040: cddd ee3d 7dab 00be dcc6 c33c 850c ee3d
00000050: 19ba 45be dd71 85bd f710 3c3e ff4f a2be
00000060: 71f9 893d fff9 5c3d 0352 c6bd 961e 603e
00000070: 30b3 68bd 6dcc 17be 4eb2 0dbc 09a1 923b
00000080: 7b95 293e afa2 d6bd d6bd 933d 097e 85bd
00000090: 2a04 983d 1d8b b73d 7316 003e 73d3 6fbd
000000a0: f2d6 05bd 7f9d 323e a594 c0bd b3aa 443e
000000b0: c825 d0bd c843 593c a0c2 073e cd9a c1bd
000000c0: 3a8b 203a 2220 bebd 44f1 12bd 1af4 ce3a
000000d0: aaa6 993d 16e4 10bd 6854 38bd 8b3d 823d
000000e0: d507 1abe 188b 903d 9e48 3cbe aecf b73a
000000f0: d1a8 043e 3c91 02bc 23f5 84bd e794 243b
00000100: 9e08 173d 1deb 8fbd cee7 be3c 7041 513d
00000110: 89be 1abe 1166 51bd 01e6 4b3d 194b 743d
00000120: 4d9f 80bb 5092 62bc 80e6 51be 2406 63be
00000130: ef75 ae3d 9648 99bc 960c a33d 4418 34be
00000140: b4ec 6f3d 62c7 18bd 75c2 b4bd 74fb d9bd
00000150: 7862 2a3c 3a4d 86be d655 cf3d ec44 7d3d
00000160: 38ef 5f3d 4934 7abd 8cc3 2a3b 88bb b53d
00000170: 2279 24bd 24a6 15be 6f0e 05bd 4b09 263e
00000180: 2b29 803e 869f 0a3e cbad 18bd 024b 3ebd
00000190: c7ee b93d 4a89 a6bc c0e9 593e 6d32 403c
000001a0: 3a28 953c 8919 7a3d a0dc dcbd 4c33 01be
000001b0: c337 2d3c db34 6c3c 5f29 27be e26a 903d
000001c0: 0302 783e 90fe 533e 1ed0 8a3c ac13 94bd
000001d0: d347 9dbc ad74 8f3d 2cb1 27be 11f1 05bc
000001e0: 20ea 90bd a43a 80be 30f2 e0bd f681 f4bc
000001f0: 0fcd 95bd 70f3 853d 679b 733d 0876 97bb
00000200: 7e23 a63d dd10 94bd f426 9e3d ad0c f93c
00000210: beb5 993d 640d 553e af60 a3bc 4272 aabd
00000220: 75f2 9c3d 80f7 3abe d1d9 0dbe 75d0 f43c
00000230: aa91 5a3d 9a7f 023e a941 03be 5daa 1c3d
00000240: 41d3 3abe 1852 823d bac2 783c 282c 84be
00000250: f81a 95bd 561e f8bc e9f4 c5bd b03a 5a3d
00000260: 6280 c9bd 1bf0 ddbb d64e cfbd 6865 f63d
00000270: a23d 1e3d 2c12 19bd 0491 953e 8509 343e
00000280: d54e 263d 7b9e 483d 1c88 bf3d 74f2 1f3e
00000290: f6ae e63c 7e03 2b3e 7c48 07bd d000 fc3d
000002a0: 67e0 eabd 2eeb 80be 5424 7c3e e372 a2bc
000002b0: 4ec8 413c f64e a5bd 72ad 66bc 7448 f93d
000002c0: e285 623e 73d7 e5bc 1794 20be a547 73bd
000002d0: c717 0f3d 6ab1 a83c 6440 e8bd 6306 043e
000002e0: 73c3 6fbd 3419 4bbd a276 fc3d 077c f53d
000002f0: abac 183e 02a6 a73d d8f8 85bc e386 e53b
00000300: 2c38 b03c f935 37be 35a3 4f3c 6ee8 5e3c
00000310: eee7 553c 7e34 08bd a762 1e3d f31c eabd
00000320: a86f adbc 3bac 973d e627 9c3e 3c06 e23d
00000330: 1e3e 063d 9a68 3f3e 94ca 0ebe 60e2 8d3e
00000340: faec 233e 383c c93d f747 16be d2f2 b53c
00000350: 1b96 bcbc 736c 37be c3de 50bd 3f60 35be
00000360: 1da4 87bd a3db 2b3d 4409 613d 4ba1 67bd
00000370: 1ccf 1b3d 9ed2 0cbe 019e 193b 48cd 49bc
00000380: 3104 93bb c27c 85bc 5c78 cc3d 6802 cdbd
00000390: c976 41bc 1a77 9b3d 642f 23bd f46a 21be
000003a0: 65c6 0fbe db45 1e3e 476a 153d 350e 0a3e
000003b0: eb0b d33d e0d5 083e 110b a1bd 1a5e 71bd
000003c0: 0719 b03b e827 79bd 808d 41be 3318 c1bd
000003d0: 06af b0bd dcca b1bb 6d04 55bd a327 06be
000003e0: 7eb8 41be 35f4 393d 20df 4e3e fbbc 9c3d
000003f0: c34a ce3d e665 27be 0425 d3bd 346c 183d

_module.fc3.bias f4 [10]
0.06269982 0.033744566 -0.025410816 -0.073630236 0.013169401 -0.017644662 -0.11549484 -0.02933228
0.008818731 -0.0018326766
00000000: c368 803d be37 0a3d 582a d0bc 73cb 96bd
00000010: 79c4 573c 8a8b 90bc 8f88 ecbd 404a f0bc
00000020: 707c 103c 6c36 f0ba
