dp_lenet_code/dp_lenet_plots_fixed_epsilon/lenet_epsilon_3.41_gradnorm_1.1.pt (torch, 251144 bytes, 10 tensors)

_module.conv1.weight f4 [6, 1, 5, 5]
000000 a8 b8 cd 3e c2 f4 d8 3e ef bc 7f 3e ad ed c8 3e
       0.40179944 0.42374235 0.24974416 0.39243832
000010 56 d0 7d 3d c5 bc bf 3e 0b b6 86 3e 14 63 21 3f
       0.061966263 0.37448707 0.26310763 0.63041806
000020 98 89 16 3f f8 d3 03 3e 7d 18 08 3f 58 87 17 3f
       0.588037 0.12873828 0.53162366 0.59190893
000030 d2 5b fc 3e 3a 67 ab 3e ed 89 af 3e df 95 9c 3e
       0.49288803 0.33477193 0.34284917 0.30583093
000040 b4 9a 2d 3f 19 12 b5 3e df 1e 4c 3d 0f 21 34 3e
       0.67814183 0.3536537 0.04983413 0.17590736
000050 b4 f6 7f bd d2 1c 65 3d fb 52 79 3b 4c 6d 24 3e
       -0.062491134 0.05593569 0.0038043845 0.16057318
000060 70 79 1b be b7 3f 45 3d 9b cf f8 bd 79 e5 58 3e
       -0.15183043 0.048156466 -0.121489726 0.21181287
000070 53 61 16 3e 00 01 60 be b5 a8 40 3e 73 ce 2c be
       0.14685564 -0.21875381 0.18814357 -0.16875629
000080 dc e4 3d 3e af eb c3 3b d4 c9 89 3c be 4a 80 3e
       0.18544334 0.0059790234 0.016819872 0.25057024
000090 b0 1d 32 3e 38 99 11 3f 30 ee ca 3e 59 df fe 3d
       0.17394137 0.5687442 0.39634848 0.12444944
0000a0 83 1d 6f 3e 1c c1 9b 3e 26 53 0f 3f c9 00 20 3f
       0.23351102 0.30420768 0.5598625 0.625012
0000b0 16 96 f3 3e 54 10 29 3e cd 2f 89 3e 73 2c 44 3e
       0.47575444 0.16510135 0.26794282 0.19157581
0000c0 ab a0 90 3e 5a b1 82 bd 68 05 93 3c b6 16 8b 3c
       0.2824758 -0.063814834 0.017946914 0.016978603
0000d0 68 47 4b 3d 4f 36 b9 3e 7c c3 48 3e 23 4c b7 3d
       0.049628645 0.36174247 0.19605821 0.08950069
0000e0 7a 12 78 3e 80 85 68 3e 7b 32 54 3e 17 cb 7b be
       0.24225798 0.22707176 0.20722382 -0.24589191
0000f0 95 64 14 3e 47 aa 07 3e 8a 5c 8d 3e 89 35 8e 3d
       0.14491494 0.1324855 0.27609664 0.06943805
000100 4a 8c 0d be 11 db 0e 3e 6e f4 f6 3e ee 11 8b 3d
       -0.13823047 0.13950755 0.4823336 0.06790529
000110 fd b5 11 be 65 f1 b0 be 73 ab bc 3e d0 77 1f 3e
       -0.1422958 -0.3455917 0.36849555 0.15573049
000120 42 25 d0 3e 92 68 76 be 4c 19 09 be 17 e7 2f be
       0.40653425 -0.24063328 -0.13388556 -0.17177998
000130 a7 24 74 be 40 f8 94 3d f0 22 3d 3e 30 e9 8a 3e
       -0.23842107 0.072739124 0.18470359 0.27131033
000140 96 78 e2 bd 0e 53 12 3e 19 05 87 3e e4 6c bb 3d
       -0.11058156 0.14289495 0.26371077 0.091516286
000150 7c b3 7c 3e 0b 4c 8b 3d e7 b5 a2 3e 12 f6 01 3e
       0.24677843 0.068016134 0.31779405 0.12691525
000160 d4 b1 3c be 79 4f a6 bc a4 bf 87 3d c9 48 10 be
       -0.18427211 -0.020301567 0.066283494 -0.14090265
000170 7c 61 14 3e f1 b8 b5 3d a7 21 f4 bc 3c 26 86 be
       0.14490312 0.088731654 -0.029801203 -0.26201046
000180 7a 15 bc 3d ca 67 6b bc f0 fe 61 be 1a 96 83 be
       0.09183784 -0.014368007 -0.22069907 -0.25700456
000190 eb 7a a8 be f3 ae 46 bd c2 03 6e be 78 29 6d be
       -0.3290628 -0.04850669 -0.23243621 -0.2316035
0001a0 8c 77 b9 bd 1e 58 0c be 67 0a fa bd bc 1c bf be
       -0.09056005 -0.13705489 -0.12209015 -0.3732661
0001b0 30 ab d0 bd 15 a6 92 be 01 8f 80 3d b2 b4 95 bd
       -0.101889014 -0.28642336 0.06277276 -0.073098555
0001c0 53 7a 89 bb 03 3c f5 bd ba 18 90 be 4e 1d a5 bc
       -0.0041954904 -0.11974337 -0.28143865 -0.020155575
0001d0 40 6f a8 3d 9d f7 f6 bd b2 5e 22 be d6 3b 3b be
       0.08224344 -0.12058947 -0.15856436 -0.18284544
0001e0 a1 0b 12 3d c0 7f a8 3c ce b9 90 bd ed 14 28 be
       0.03565562 0.020568728 -0.070666894 -0.16414233
0001f0 1c 4d 1f be 1c 8c 19 3d ea ce 8e 3c 90 e8 0e 3c
       -0.15556759 0.037487134 0.017432649 0.008722439
000200 7e 28 6a 3e 07 3a 8b 3c 4b e1 45 bc 78 a3 9c 3c
       0.22867009 0.016995443 -0.01207764 0.019120917
000210 98 29 d4 bd 5a b6 46 bd 9a 39 ab bd cb 18 fa 3b
       -0.10359496 -0.048513748 -0.08360596 0.00763235
000220 1e 99 16 be c3 22 87 be d6 ca 37 3d 6e 48 c6 3c
       -0.14706847 -0.2639371 0.044871174 0.024204459
000230 ff 5e 39 3d 23 28 28 be 37 5d 26 bd 14 de 12 be
       0.04525661 -0.16421561 -0.04061624 -0.14342529
000240 42 98 bc 3d 62 3b 09 3d e0 d7 74 3e 5f 68 84 3e
       0.092087284 0.033503897 0.23910475 0.2586088
000250 3a 43 9a 3e c5 5b 09 3d
       0.30129415 0.033534784

_module.conv1.bias f4 [6]
000000 d3 05 2c 3e 74 8b 2b 3d ce e6 0f 3a 94 b6 57 be
       0.16799097 0.04188104 0.00054894097 -0.21065742
000010 3b cc 91 3d 14 cd ed bd
       0.07119032 -0.11611381

_module.conv2.weight f4 [16, 6, 5, 5]
000000 0c 6f ca 3d 5b 78 ff bc 03 ef 87 3e 0b 73 c9 bc
       0.09884462 -0.03118532 0.2654954 -0.02459099
000010 d5 c9 41 3e 19 9c 08 3d 0b 90 59 3d 13 e4 4b 3d
       0.18924649 0.03335199 0.053115886 0.049778055
000020 b0 9e 16 3e d8 28 31 be 3a c7 07 3d e7 84 26 3e
       0.14708972 -0.17300737 0.03314898 0.16261636
000030 01 d1 96 3e fb 88 0c be 6a a2 02 bc b5 df f7 3c
       0.29456332 -0.13724129 -0.007973293 0.030258039
000040 dd a5 35 3e 41 fb f8 3d 63 db a2 bc 43 6d 70 3c
       0.17739053 0.12157298 -0.019880002 0.0146744875
000050 8c b2 31 bd 41 de 25 3e ff af 79 3d 4c 22 04 be
       -0.043383166 0.16198064 0.06095886 -0.12903708
000060 d4 9d 1a be 73 41 33 3e c9 27 ec 3c f6 d6 67 3d
       -0.15099269 0.17505436 0.028827565 0.056601487
000070 ee e9 f3 3d c7 44 0e 3e 08 e8 23 be 68 a9 8b bd
       0.11909853 0.13893424 -0.16006482 -0.06819421
000080 85 78 87 3d 24 9b 82 3d 11 49 34 3d 12 47 23 be
       0.06614784 0.06377247 0.044014994 -0.1594508
000090 a7 0f 12 3c 40 49 89 3d 8a 29 f2 bd 0b 09 20 be
       0.008914865 0.067034245 -0.11824329 -0.1562845
0000a0 c5 97 0a 3d 20 6c ae bd f2 df d3 3c c0 fc 0c be
       0.033836145 -0.08516717 0.025863621 -0.13768291
0000b0 46 d8 4c be 4f 06 0e bd 37 b4 3c 3e 7a 19 9b 3d
       -0.20004377 -0.034673985 0.18428122 0.07573219
0000c0 c8 c3 06 bd 8d 51 db bd 9f 62 61 be fc cd 71 be
       -0.032901555 -0.10708914 -0.22010277 -0.23613733
0000d0 7c 2d 93 bd d3 ce 09 3d 4d 55 4f 3e 7e 59 48 3d
       -0.0718641 0.03364451 0.20247383 0.04891347
0000e0 77 0f e2 bd 5c b6 4d bd e4 72 2e 3e 97 29 d4 3d
       -0.11038106 -0.05022274 0.17036015 0.10359495
0000f0 06 1b bb 3d 4f 48 00 3e f3 85 a4 3d 22 5e 9a 3d
       0.09136014 0.12527584 0.08033361 0.07537486
000100 f6 70 01 be e8 31 42 3d 3c 3c 34 3e 8e 99 1f 3e
       -0.12640747 0.047410876 0.17601103 0.1558592
000110 78 07 22 bd 0b 5d ac 3c ce 30 d3 3d 32 cb 31 bd
       -0.039557904 0.02104046 0.10312043 -0.043406673
000120 eb 22 07 3e 42 0d 3e 3d c1 b0 ba bd dd c8 3e 3b
       0.13196914 0.046399362 -0.091157444 0.0029111423
000130 0f 50 ea 3d e2 3e f2 3d 63 56 17 3e b6 5c 05 be
       0.11441051 0.118284 0.14779048 -0.13023648
000140 ac b4 d7 3b 40 8b 6d bd c2 82 19 be 93 56 5c bd
       0.006582817 -0.057994127 -0.14991286 -0.0537935
000150 b0 5d f0 3d 2c ae 8c bd 7d b2 2b 3d 98 5d b2 bd
       0.117366195 -0.06869158 0.041918267 -0.08709258
000160 4c 28 f8 bd ff 74 bb bd 1a 02 17 be fa f6 db bc
       -0.12117061 -0.091531746 -0.14746895 -0.026851166
000170 e2 40 a8 bd 1d fe b8 bd bf f0 07 be 3b 27 90 3d
       -0.082155004 -0.09032843 -0.13275431 0.070387326
000180 2a be 9c bd 19 9f 09 be 1d c9 8f bd be 84 89 3d
       -0.076534584 -0.13439597 -0.07020781 0.06714772
000190 2d 06 c3 bb 2e c9 05 3e 38 61 a5 3d 6d 0a e5 3d
       -0.005951664 0.13065025 0.08075184 0.11183629
0001a0 9a fa 05 3c 8d 69 2d 3d 14 99 13 3d c2 1c b5 bd
       0.008177424 0.04233699 0.03603466 -0.08843376
0001b0 69 7a 8c 3e 4f ed f4 3d d9 dc 2f bb ab 12 25 be
       0.27437142 0.119593255 -0.0026834516 -0.16120403
0001c0 ff 22 0e bd 05 2e fb 3d f8 c8 06 bd 71 f6 16 be
       -0.034701344 0.12264637 -0.032906502 -0.14742447
0001d0 e9 d5 25 bd d2 72 14 3e 53 61 41 3e a6 f1 ca bc
       -0.040487204 0.14496925 0.18884782 -0.02477343
0001e0 20 96 06 be 26 74 8d 3d a6 fd 04 3e 1f 87 17 3c
       -0.13143206 0.06906919 0.12987384 0.009248524
0001f0 c4 6d c0 bc b4 13 87 3c f2 57 b1 3d 46 5a 80 3b
       -0.02348984 0.016488887 0.08659352 0.0039170114
000200 c1 4f f5 bd 3d 30 0c be 81 8f 1c bc 47 35 11 3e
       -0.119781025 -0.13690276 -0.009555698 0.1418048
000210 1a 4c 82 3d cc 9a 18 be fb 60 5b 3d 6c 98 02 3e
       0.063621715 -0.149028 0.053559285 0.12753457
000220 12 d6 4c bd 3f d3 a6 be 14 a1 cb 3d 1e 0b 4d be
       -0.05000884 -0.32583043 0.099428326 -0.20023772
000230 c6 29 92 3d a5 9d dd bd fa cf 72 be bb c7 fb bc
       0.07136874 -0.10821084 -0.2371215 -0.030734887
000240 e3 3e a5 bd bf 44 2c bd 16 45 52 3e f2 0d 32 be
       -0.08068635 -0.04205775 0.20534167 -0.17388132
000250 cb d9 00 be d7 29 54 3d 1c 02 0e 3d f2 7d 1c 3c
       -0.12583081 0.051797714 0.03466998 0.009551512
000260 69 7d 2e be 00 9d 87 3a aa ae b7 3d 6c 88 bc 3d
       -0.17040028 0.0010346472 0.089688614 0.09205708
000270 6b b1 23 bd 3d ec b7 3e 43 27 18 3e 30 ed d0 3d
       -0.03996412 0.35922423 0.14858727 0.1020149
000280 91 22 db bd 65 b4 74 3d 92 38 42 3b 01 63 10 3d
       -0.106999524 0.05974235 0.002963577 0.035250667
000290 73 e4 d5 3d 34 1b 38 bd 2d ef fe 3d cc d2 c7 3d
       0.10443964 -0.044947818 0.12447963 0.09757003
0002a0 2a 05 2c 3d 43 03 c1 bd 60 cd f2 bd 25 72 4b bd
       0.041997112 -0.0942445 -0.118555784 -0.049669404
0002b0 58 68 af bd 0b 74 80 bb a6 a7 27 3d 04 8b 06 be
       -0.08564824 -0.0039200834 0.040931366 -0.13138968
0002c0 cc 61 96 bd b8 d3 ed bd 66 36 05 3e 25 bf 4b 3e
       -0.07342872 -0.11612648 0.13009033 0.19897135
0002d0 96 3f 36 3e 4d 6c 45 3e f9 16 0c 3b 81 57 ee 3c
       0.17797694 0.19279595 0.0021375997 0.02909446
0002e0 3a cb 09 be c5 74 cc bd 32 ad 46 3d 0d 9b 83 be
       -0.13456431 -0.099832095 0.048505016 -0.25704232
0002f0 21 86 e3 bd f5 d8 70 bd a7 e1 c2 bd 06 26 f9 bd
       -0.111095674 -0.058800656 -0.09515696 -0.121654555
000300 c7 2b ee 3c bb f1 03 3e 1c cb cd 3c ed a3 1f 3e
       0.029073609 0.12885182 0.025121264 0.15589876
000310 7c cd 8d 3d 68 13 50 3d 3f c5 82 bd 6e 74 84 3d
       0.06923959 0.050799757 -0.06385278 0.0646752
000320 c8 3a 58 3d 6f 65 c4 3c bd f6 e8 bd c5 a6 b2 bc
       0.052790433 0.023974149 -0.113751866 -0.021808038
000330 60 21 b8 bc 91 46 db 3c a6 06 8c 3d 68 fa 0f 3d
       -0.022476852 0.026767047 0.068372056 0.035150915
000340 5c 02 8b bb 77 f3 c6 3d 7d c7 98 bd 3c c5 b3 bd
       -0.0042422246 0.09714406 -0.07459924 -0.08777854
000350 2a 2f a1 bd 8e f0 87 bc a4 33 82 3d 20 f8 25 bd
       -0.07870324 -0.016594198 0.06357506 -0.040519834
000360 38 fa 1d be e1 4c eb 3d 07 2b 03 be 5b dd 21 bc
       -0.15427482 0.11489273 -0.12809382 -0.009879435
000370 75 02 45 3d e5 a5 e5 bc 9d 23 d5 bb 67 9c 51 be
       0.048098046 -0.028033206 -0.0065044896 -0.20469819
000380 d6 84 dc 3d 27 41 91 bd f5 d0 3d bd 20 49 99 3d
       0.10767524 -0.07092505 -0.046341855 0.074846506
000390 3f de 02 3e 15 54 0a 3d 23 91 89 3c b4 b0 c4 bd
       0.12780093 0.033771593 0.01679284 -0.09604016
0003a0 a9 91 f3 bc 22 06 19 3d bc 5e 0d be 06 cb 03 be
       -0.029732542 0.037359364 -0.1380567 -0.12870416
0003b0 cd 5b 9d 3d cf 76 11 3e d8 87 9e bc 13 8a 43 be
       0.07683525 0.14205478 -0.019351885 -0.1909564
0003c0 6d 3f 32 3b cf 5c 00 3b 27 3e e2 bd a3 e7 ac 3c
       0.002719845 0.0019586568 -0.11047011 0.021106547
0003d0 ca db 7b bd e2 81 05 be fb 35 97 bd 6a db c8 bd
       -0.061488904 -0.13037828 -0.07383343 -0.09807475
0003e0 8d 19 1a be 4b 02 ba bd 90 e8 c8 bd 53 44 49 be
       -0.1504881 -0.090824686 -0.09809983 -0.1965497
0003f0 f5 7d 24 be 70 43 e1 bc 01 e6 8a 3c cf 31 65 bd
       -0.16063674 -0.027497977 0.016955378 -0.055955704

_module.conv2.bias f4 [16]
000000 1a 61 f5 3d 43 d5 99 3d 67 29 d2 3a 70 48 9f bd
       0.11981411 0.075113796 0.0016034067 -0.07777488
000010 fd bf 2b 3d 47 39 22 3e 0b f0 8c 3d 4f fb 13 3d
       0.04193114 0.15842162 0.06881722 0.03612834
000020 f6 04 d5 3b 07 50 10 bd 82 75 26 bd b2 04 52 3e
       0.0065008355 -0.03523257 -0.040639408 0.20509604
000030 58 16 b2 3d b4 8a c2 bd 64 45 ab bd 5f ba 7c 3d
       0.08695668 -0.09499112 -0.083628446 0.061701175

_module.fc1.weight f4 [120, 400]
000000 a0 1c 90 bd f3 5b 88 3d 38 e4 04 3d 08 b2 ae 39
       -0.0703671 0.06658163 0.03244421 0.0003332051
000010 33 29 22 be a6 41 e2 bb 1a f6 e1 3c b8 2b 3f bd
       -0.15836029 -0.0069047986 0.02758317 -0.046672553
000020 41 52 09 3d 31 24 97 bd a5 d3 cb 3d 66 b8 00 be
       0.03352571 -0.0737995 0.09952477 -0.12570342
000030 0c d5 4c bd 48 4a b6 3d ab 62 78 3d f8 0d 43 3e
       -0.050007865 0.08900887 0.060640972 0.19048297
000040 ec 89 83 3d 80 7a 25 bd 3f 55 81 bc 86 3a cc bd
       0.06422791 -0.04040003 -0.015787719 -0.099721
000050 61 22 93 3d a1 10 d6 3d e1 21 b4 bc 49 3b 45 3d
       0.07184292 0.104523905 -0.021988811 0.04815224
000060 ee 0c c5 bd 89 c9 c6 3d 0f d2 ef 3c 21 b2 d7 3c
       -0.09621607 0.097064085 0.029274968 0.026330056
000070 09 0b b8 3d 6c 04 fc bd 75 68 64 bc 4b a0 6c 3d
       0.0898648 -0.12305531 -0.01394092 0.057770055
000080 b5 a7 de bc 59 ae b3 3d c5 0b 06 3d 43 bc 13 bd
       -0.027179578 0.087734886 0.032726068 -0.036068212
000090 21 99 e7 bb 2d b6 de 3c f0 9a d8 bc 90 72 68 bc
       -0.007067815 0.027186478 -0.026441067 -0.01418747
0000a0 36 67 89 3c 52 14 01 be 8d 28 8e be 1a 20 50 3e
       0.016772848 -0.12605408 -0.27765313 0.20324746
0000b0 72 32 d3 3d 5e 61 09 3e 71 7f 6b bd 7c 4c 6b be
       0.10312356 0.13416049 -0.057494584 -0.22978395
0000c0 3b f4 eb 3d 0c 44 a2 3c a9 19 32 be ee cd fd 3b
       0.11521193 0.019807838 -0.17392601 0.007745496
0000d0 d6 11 fd 3a ad c7 09 3e 92 6e 8f 3b dc e6 ae bc
       0.0019307684 0.13455077 0.0043771947 -0.021350317
0000e0 3e 17 2c 3e ec 20 38 bd bf a4 55 bd d8 87 53 3e
       0.16805741 -0.04495327 -0.052159067 0.20657289
0000f0 80 88 bd bc 01 2e c8 3d 91 c7 59 bc ac 66 1b be
       -0.023136377 0.097743995 -0.013292209 -0.15175885
000100 b5 d5 39 3d f4 8a 9f 3b 99 0b 01 ba 09 8f b2 3d
       0.045369823 0.0048688594 -0.00049226877 0.08718688
000110 03 aa b1 3d 02 bb ae 3d d9 4b 3a 3e 7d 41 a6 3d
       0.08675005 0.08531763 0.18192996 0.0811796
000120 35 f7 80 3c be 24 a8 3d 3d 6d 5f bd 41 91 ac bd
       0.015742877 0.08210133 -0.054547537 -0.084261425
000130 cd d5 06 3e 2c 1f d8 bd 3c 06 5d 3e 82 09 ee 3d
       0.13167496 -0.105528206 0.2158441 0.11622907
000140 c6 7e 7e 3d 0e 24 bb bd 11 35 96 3d 03 fc 1d bb
       0.06213262 -0.09137736 0.0733434 -0.002410651
000150 4b 8f 0a 3e b9 45 56 be 47 43 bd 3c 91 59 14 be
       0.13531224 -0.20925035 0.02310337 -0.14487292
000160 be 7f 5c bd 86 95 ed bd 16 63 12 be ab f1 7f bd
       -0.053832762 -0.11600785 -0.14295611 -0.062486332
000170 b9 23 65 3d f1 e0 02 be 28 2a 60 bb 6e 4c 0b 3d
       0.05594227 -0.12781121 -0.0034204815 0.034008436
000180 ff 50 58 3d 60 f1 17 bd e0 f2 ed bc 3b 16 1e 3e
       0.05281162 -0.037095428 -0.029046476 0.15438168
000190 66 cc c4 bb 8b a0 82 3c 5f da 52 be 0c 57 86 bd
       -0.0060058115 0.015945693 -0.20591114 -0.065595716
0001a0 0e 83 d0 3d 82 b4 1b be 01 f0 64 bd c6 d9 18 be
       0.10181247 -0.15205577 -0.055892948 -0.14926824
0001b0 50 c1 f1 3c 8d 3e 55 be 03 80 b1 3d f2 e0 ca bd
       0.029511124 -0.20824642 0.086669944 -0.09906186
0001c0 b9 9a 1f bd 49 de 8c 3d b1 7a bf bb 7e 2a c2 3c
       -0.038965914 0.06878335 -0.0058434834 0.023701902
0001d0 ad 19 aa bc cc c5 b9 3d 54 33 8c 3c 13 b5 99 bd
       -0.020764196 0.0907093 0.017114319 -0.0750524
0001e0 7b 44 e8 3c 93 52 6d bd 13 da ce 3d 33 fd 78 3d
       0.028352967 -0.057940077 0.10100188 0.060788345
0001f0 1e 01 22 bd f4 72 0a 3e ed b1 2a bd 25 e7 61 be
       -0.039551847 0.13520414 -0.04167359 -0.22060831
000200 11 4c 0b be bd 72 c4 3d d5 17 18 3e 2a d2 41 bb
       -0.13603236 0.09592197 0.14852841 -0.002957473
000210 58 67 1f 3e 84 66 49 3d 3b 9f cc 3c 9c ee 74 bc
       0.15566766 0.049170032 0.02497827 -0.014949467
000220 c0 18 64 3d 0b 38 96 3c 3c f2 25 bc b7 f1 e5 bc
       0.055687666 0.01833727 -0.010128554 -0.02806936
000230 1a 06 0d bd c6 7a 16 3e 4f c7 0d 3d e6 8a 4a bd
       -0.034429647 0.14695272 0.034613904 -0.04944887
000240 2a 02 1b 3e 74 07 d0 3c d3 96 99 bd bb 3a 1a 3e
       0.15137544 0.025394179 -0.074994706 0.15061466
000250 4a fc 9f bd d8 dc c5 3d da 9b b7 bd 8e 5a a4 bd
       -0.07811792 0.09661263 -0.08965273 -0.080250844
000260 fb 77 3c 3c a6 70 0e be bd 55 23 3e e6 d3 33 be
       0.011503215 -0.1391016 0.15950675 -0.17561302
000270 01 ee 88 3d 7a 0e 8f 3d a7 40 6b bd 8c 94 72 3e
       0.06686021 0.06985183 -0.057434704 0.23689479
000280 a5 8e 00 be 9f 98 3e 3d 36 63 39 3e 7c ac d3 3d
       -0.12554415 0.04653227 0.18104252 0.10335633
000290 44 25 73 bd d9 e1 22 3d 14 8a 6d 3d 4b 0d 8b bb
       -0.05936171 0.039766166 0.05799301 -0.004243528
0002a0 40 c7 95 bd b0 9b 3a 3d af 80 ea 3d a0 92 05 3e
       -0.073133945 0.04555863 0.11450326 0.13044214
0002b0 1f 5b 77 bc 18 e1 f6 3d ec 53 ad bc 9d 2e d0 bc
       -0.015097409 0.12054652 -0.021158181 -0.025412852
0002c0 af 04 9e bc 4a 4b 9b 3d 18 2f ce 3c 5c 78 ca bb
       -0.019289343 0.075827196 0.02516894 -0.0061788987
0002d0 d7 26 f6 3d 8f 55 3e bd 53 b4 f0 3c 24 ee ed 3d
       0.12019127 -0.046468314 0.02938286 0.11617687
0002e0 d2 40 63 3d eb cd 89 3b ba 16 fa bc 54 86 20 be
       0.05548174 0.0042054555 -0.030528415 -0.15676242
0002f0 cb 8e 14 3e b6 87 a1 3d 94 11 c9 bb 20 dd 84 3d
       0.14507596 0.07887213 -0.0061361287 0.06487489
000300 48 73 5b bc a6 7c 8a 3d 5b 56 c3 ba 87 6b 36 3e
       -0.013394184 0.06762056 -0.0014903055 0.17814456
000310 6c bb 0a bd 80 73 a8 3d 6c da 17 be 3a 41 df bc
       -0.033870146 0.08225155 -0.14829415 -0.027252782
000320 6e b1 44 bd 8c a1 b5 bc ff 19 58 bd 1b d5 b4 bb
       -0.048020773 -0.022171758 -0.052759167 -0.005518568
000330 5d 70 8b bd 8d 84 7f 3d 26 2c d6 bb c9 2b af 3d
       -0.06808541 0.06238227 -0.0065360246 0.08553273
000340 60 7a 58 3d ab fd 0e bd c6 4e a0 3d 22 96 e2 3c
       0.05285108 -0.034909885 0.07827525 0.02765948
000350 52 03 06 bc 97 19 8a 3d 89 ae 96 bd 66 d8 42 3e
       -0.008179503 0.06743162 -0.07357509 0.19027862
000360 6f 3b 47 3c cb ba d1 bd aa e4 b8 bd 8d f5 db 3c
       0.012160166 -0.10240706 -0.09027989 0.026850486
000370 cd ad 9e bd 2e 0a 37 3c b6 73 3f be aa c6 b4 bb
       -0.077479936 0.011171861 -0.18696484 -0.0055168467
000380 bc f1 e3 bc c7 c5 7d bd 20 17 b8 3d 5d a9 37 bd
       -0.027825229 -0.061956193 0.08988786 -0.04483925
000390 05 fc 3f 3c 5e 4e e1 bb 7f c3 28 3e 0a b6 1d bc
       0.011717801 -0.006875797 0.16480826 -0.009625921
0003a0 f0 db 8b bd 27 db d5 bd d2 9b 53 3d 28 ae 85 bd
       -0.06829059 -0.104421906 0.051662274 -0.06527358
0003b0 c0 08 cc 3d e7 c9 76 bd 55 ce ba 3d 66 3f 4d bc
       0.099626064 -0.060251143 0.09121386 -0.012527322
0003c0 07 3e 62 3d 74 b0 96 3c 61 4a a9 38 e8 2c cb bc
       0.055234935 0.018394686 8.072402e-05 -0.024801686
0003d0 26 10 aa 3d 1e 4b d9 3d 20 61 79 3c 13 8a 18 3e
       0.08303861 0.106100306 0.01522091 0.14896421
0003e0 9c a7 bf 3d 2c f1 a3 3d d9 e7 8c bd 28 37 a6 3d
       0.09358141 0.08004984 -0.06880159 0.08115989
0003f0 92 f8 40 3c d9 90 15 3d 35 69 18 bd 4b c7 9d 3d
       0.011778014 0.03651509 -0.03720971 0.07704028

_module.fc1.bias f4 [120]
000000 c3 cb 32 bb b8 b2 48 bd e1 3c 06 be f7 2d 06 3e
       -0.0027282096 -0.048998564 -0.13109161 0.13103472
000010 64 49 70 3c 96 c1 0e 3c 65 a4 1c be c3 02 22 be
       0.014665935 0.008713147 -0.15297087 -0.15821366
000020 eb 91 84 3d af e6 de bd 86 03 4c 3d 16 e8 1e 3e
       0.06473144 -0.10883843 0.049808048 0.15518221
000030 35 f2 42 3d 4b c0 b7 bd 2d c5 96 3c 36 43 af bd
       0.047594268 -0.08972224 0.018404568 -0.08557741
000040 80 9d 6d 3e 34 aa ba 3c 08 84 f7 3d d3 8d 0b 3c
       0.23204613 0.022786237 0.1208573 0.0085177
000050 1c cb 48 bd c2 1f 03 bd 75 5f 9d bd a6 30 d3 bc
       -0.049021825 -0.03201271 -0.076842226 -0.025780033
000060 17 e3 03 be 39 b4 6b 3e a7 b3 d3 bb bf 96 35 3c
       -0.12879597 0.23017968 -0.006460625 0.011083304
000070 ce 6a d3 3d 42 8b b4 3d ec 2c 33 3d a6 c1 5e 3d
       0.10323106 0.08815624 0.043744013 0.054383896
000080 9c e0 47 be a5 04 75 3c c5 cf 97 3c 3a e1 24 bd
       -0.19519275 0.014954721 0.01853169 -0.040253855
000090 65 f0 a2 bc 6d ae 19 3e 47 dd 2c be 8c 91 77 3c
       -0.01989002 0.15007944 -0.16881286 0.015110385
0000a0 9f e2 44 bc 6d 13 68 3e 82 ec 5e 3e c1 aa 58 3c
       -0.012016921 0.2266366 0.21769908 0.013224305
0000b0 eb 30 2a bd fe 38 72 bd e2 75 2d be c4 62 37 bd
       -0.041550558 -0.059136383 -0.169395 -0.044771925
0000c0 28 dc 32 bd f5 24 75 3d c5 94 80 bd 3f 0f 05 3e
       -0.04366699 0.059849698 -0.062783755 0.12994097
0000d0 ba 6d f8 3c 35 90 e8 3b 90 47 08 3e 2c 95 28 3e
       0.03032576 0.007097269 0.13308549 0.16463155
0000e0 8e ea 76 bd 59 a3 40 bd f6 3e 04 3d 1f e2 aa 3d
       -0.060282283 -0.04703078 0.032286607 0.083439104
0000f0 49 6f 59 3e fd 0d 13 be 11 91 ad 3c c9 9d b2 bc
       0.21233858 -0.14360805 0.021187337 -0.021803753
000100 23 f1 fc bd 13 6b 4d bd ba 0a ed 3b e3 60 bf 3d
       -0.12350681 -0.050150942 0.0072339447 0.093446516
000110 5a c1 d7 3d 43 67 37 3d d3 f0 01 bc 94 95 71 bd
       0.10534926 0.044776212 -0.007930952 -0.05898054
000120 59 89 bd 3b 3c 9b 83 bc 28 10 72 be c1 d3 dd 3c
       0.0057841954 -0.016065232 -0.23638976 0.027078511
000130 bd f8 07 3e 0e af ca bd 62 a1 d9 bc bc 5c 5c 3d
       0.1327848 -0.0989667 -0.026566211 0.053799376
000140 4f 66 2d bd 41 e3 0d 3e 24 82 dc bc da 5e b5 3d
       -0.042333897 0.13856222 -0.026917525 0.08855982
000150 1d 52 8b 3d 05 b7 5b bc 02 08 63 3d ce dd 96 3d
       0.06802771 -0.0134103345 0.05542756 0.07366525
000160 ab ce 0c bb 84 72 da 3c 6d 9a 81 bb cf 21 49 3c
       -0.0021485488 0.026665933 -0.0039551766 0.012276127
000170 ad 8e e6 bd 7d b3 3f 3d 16 a7 8f bb c6 1e fb bc
       -0.11257682 0.046802033 -0.004383932 -0.030654322
000180 dc 65 d1 bd 23 bb fe 3c 0d dd 12 be 9a 30 85 3b
       -0.10224506 0.031095093 -0.14342137 0.0040646316
000190 c6 53 10 3d e0 cb 70 3d 95 50 fe 3c ce e5 12 bc
       0.035236143 0.05878818 0.031044284 -0.0089659225
0001a0 ac e9 92 bd b6 f0 e5 3c 38 9a 2d bd ae eb a0 bd
       -0.071734756 0.028068881 -0.042383403 -0.07857452
0001b0 6f 67 4a be e7 c3 97 3d f7 a9 50 3d c4 ae 72 bd
       -0.1976602 0.07410412 0.05094334 -0.0592487
0001c0 58 ba 05 3d 07 9a 94 3c 4a 66 53 bd eb 44 05 be
       0.032648414 0.018139852 -0.051611222 -0.13014571
0001d0 ea 48 cd 3d ca f4 7c bd fd 52 b0 3d 33 df 7b 3d
       0.10023673 -0.061756887 0.08609579 0.061492156

_module.fc2.weight f4 [84, 120]
000000 53 5e 17 be 27 ea 0a 3c 49 34 f5 3c a6 0e a9 3e
       -0.14782076 0.008478678 0.029932158 0.33018988
000010 e8 30 2b 3d c8 bb a6 3b d0 6a ec bd 4b f8 00 3e
       0.041794688 0.0050883032 -0.1154381 0.12594716
000020 9b d9 db 3d 67 c2 99 3c 57 57 78 3d d9 62 c7 3d
       0.10734864 0.018769456 0.06063017 0.097356506
000030 19 5a eb bd 6c b9 10 be 71 61 2f 3e de 2e 00 bd
       -0.11491794 -0.14133233 0.17127015 -0.031294696
000040 9f 38 50 bd 57 c4 bc 3c 57 19 24 3d a2 f5 19 3d
       -0.050835248 0.02304284 0.04006323 0.03758777
000050 0b 09 88 3d 29 dc eb bd 3d 57 fa 3d 7e 09 20 be
       0.0664235 -0.115166016 0.12223671 -0.15628621
000060 9c b5 56 3e a8 ac 11 bd 42 c1 96 3d ed f7 3a 3b
       0.20967716 -0.03556505 0.0736108 0.0028529123
000070 29 c7 cd bd 56 06 13 be 05 52 08 3e fc 8c b5 3d
       -0.100477524 -0.14357886 0.13312538 0.08864781
000080 8b c4 19 be 3f 1b 86 3d 20 4b 51 3e d8 8e 09 be
       -0.15016381 0.065481655 0.20438814 -0.13433397
000090 0e 51 a3 bd 64 98 5b 3e f3 92 f0 bd f1 52 32 3e
       -0.07974444 0.21444851 -0.11746778 0.17414452
0000a0 e7 b3 f1 bd 66 00 be bd 5c 2e 80 bd 10 8a 0a 3c
       -0.11801892 -0.0927742 -0.06258842 0.008455768
0000b0 1b 69 da 3b 63 ca 84 3d 5d 0d f8 bd f2 ca 9f 3d
       0.0066653616 0.06483915 -0.12111924 0.078023806
0000c0 95 9e 8a 3d 90 d9 36 3c 9b 2f 0b be 34 39 8b bd
       0.06768528 0.011160269 -0.13592379 -0.0679802
0000d0 b5 bf fd 3c b9 6e e1 bd ea 41 37 bd d2 a5 0d 3d
       0.030975202 -0.11007447 -0.044740595 0.034581967
0000e0 88 fd 7e bc f6 05 22 3e 45 f5 85 3c 75 31 31 3d
       -0.015563376 0.15822586 0.016352305 0.043260057
0000f0 55 75 6f 3d d2 94 df bd 81 b2 d0 3d 01 bf f5 bd
       0.058461506 -0.10917057 0.10190297 -0.11999322
000100 c4 11 b0 3d ae 28 fc 3d 73 5d 0a 3e bf 1d d3 3d
       0.085971385 0.123124465 0.1351221 0.10308408
000110 86 28 d0 3d e2 93 d0 3d 8e 66 cf bd 85 f1 b9 bb
       0.10163979 0.101844564 -0.10126983 -0.0056745433
000120 36 e6 81 bc e2 28 b2 bd 6f 1c 41 3d 29 1c 0b be
       -0.015856843 -0.08699204 0.047146257 -0.13584961
000130 3e ab d6 bd 4b 07 3b be 7c 8a 73 3d ab 0c b7 3d
       -0.104818806 -0.18264501 0.05945824 0.08937963
000140 85 80 a9 3c 27 91 23 be a2 5a 1d 3d d0 de 78 3c
       0.020691166 -0.1597334 0.038416512 0.015189841
000150 e1 a4 86 3d 26 da 15 be 1c 74 4f bc ef e6 53 3d
       0.06574417 -0.14633998 -0.01266196 0.051733907
000160 91 5f 2d be 5f b9 fd bb 55 9f 28 3e 0d 01 39 be
       -0.16930987 -0.007743045 0.1646703 -0.18066807
000170 e1 c6 3e 3e cb e5 d5 3c 8b ee 5f 3d 83 ab cf 3d
       0.18630554 0.02611055 0.05467085 0.10140135
000180 e9 be 28 3d e3 e0 b7 bd fc 04 f0 3d d7 10 90 be
       0.04119769 -0.089784406 0.11719701 -0.28137848
000190 0c e6 44 bd a6 9f 52 bd 47 65 14 be 2e fb 26 bd
       -0.048070952 -0.051421784 -0.14491759 -0.040766887
0001a0 fe 58 10 3d 5a e5 3f 3e b5 1c 9f 3d 36 8f 0b bd
       0.03524112 0.18739834 0.07769147 -0.034072123
0001b0 ad 50 02 be fb 71 ad bd 1e d1 24 be 96 f8 65 be
       -0.12726088 -0.08469006 -0.16095397 -0.2245811
0001c0 82 a5 86 3d 31 1b 51 3d 2f 8b c0 bd 0a eb 5a bd
       0.06574537 0.051051322 -0.09401547 -0.053446807
0001d0 53 b2 83 be 99 d3 01 be 15 48 56 3e 7c a6 64 bd
       -0.25721988 -0.12678374 0.20925935 -0.055822834
0001e0 4b be 60 bd 45 b2 9f bd 39 ef a3 bd de e5 4a 3c
       -0.054868978 -0.07797674 -0.080046125 0.012383906
0001f0 6d d8 ba bd 7c c0 bd bd d2 e9 eb 3d 02 85 ab bd
       -0.09123311 -0.09265229 0.11519207 -0.083749786
000200 ff 70 fc bb 64 c0 31 3c 31 cf a5 bd 67 13 99 be
       -0.0077039 0.010849092 -0.08096159 -0.29897615
000210 0d 3a 82 be f5 8f 87 bd 50 0d 80 3b 51 11 c4 3b
       -0.25434914 -0.066192545 0.003907837 0.0059835096
000220 e8 b9 10 be ee 8c b0 bd a3 b3 62 3c ed af a7 ba
       -0.14133418 -0.0862063 0.013836774 -0.0012793519
000230 fe 07 d5 3d f7 87 ab 3d af ca 28 be b7 1c 7a 3d
       0.10401915 0.083755426 -0.16483568 0.06106254
000240 6e 57 05 be 57 f9 dd 3d 26 40 86 3c 8c b2 20 bc
       -0.13021633 0.108385734 0.01638801 -0.009808194
000250 6c f6 22 3e 4d 19 fb bd af 9f 1d bc c9 c3 0f be
       0.15914315 -0.12260685 -0.009620591 -0.1403953
000260 ac c1 5b 3b 13 63 33 bd 37 c2 99 3d 69 1a 71 bd
       0.0033532185 -0.043795656 0.07507747 -0.058863077
000270 a6 27 1f 3c 1c 71 95 3d a7 32 17 3e ee 25 75 be
       0.009714043 0.072969645 0.14765416 -0.2394025
000280 6d 3e 25 be a5 31 29 3d 41 1e 09 3e ab 50 d8 bc
       -0.16137095 0.04130711 0.13390447 -0.026405653
000290 d0 e9 d7 3c 1b 3a cb 3d 88 bd 42 bd 76 9b 71 bd
       0.026356608 0.09923192 -0.047544032 -0.05898615
0002a0 bf e7 f0 3c 24 01 02 3e 4f 9d 54 3d 47 fa f7 3d
       0.02940738 0.12695748 0.051907834 0.121082835
0002b0 89 4e 97 3d f9 dc 50 3c ec 3c 09 be 11 f5 2f 3e
       0.07388026 0.0127479965 -0.13402146 0.17183329
0002c0 fc 8e 26 3e d9 17 8a 3d 17 c2 3c 3d 1d 3f ac bd
       0.16265482 0.0674283 0.046083536 -0.084104754
0002d0 7d 0b 80 3e 0e 7c f5 3c a5 79 45 be 9a 08 73 3e
       0.25008765 0.02996638 -0.19284685 0.2373375
0002e0 87 24 59 bc 28 81 a6 bd e3 56 53 be 2a 7c 84 bc
       -0.013253338 -0.08130103 -0.20638613 -0.016172487
0002f0 ed db a6 3d 5d f4 aa 3d 91 7c 16 bd 42 27 39 be
       0.08147416 0.0834739 -0.03673989 -0.18081382
000300 c7 dd 81 3e a7 4d 61 be 1c 67 20 3c 75 a8 68 bd
       0.25364515 -0.22002278 0.009790208 -0.05680128
000310 a7 f0 30 3e 4e 85 cb 3d 97 c7 e5 3d 77 10 3e 3d
       0.17279302 0.09937535 0.11219709 0.04640242
000320 1b a8 48 3d f7 31 16 3e 7b 85 26 be f0 57 80 3b
       0.048988443 0.14667498 -0.16261856 0.003916733
000330 41 4a d6 3d ac fe f4 bd 3f ef 11 3e 54 f7 e1 bd
       0.104633816 -0.11962637 0.14251421 -0.11033502
000340 94 86 d0 3d c0 f7 70 be 2b 4a a0 bc 75 d9 e0 bd
       0.10181919 -0.23532009 -0.019566616 -0.10978977
000350 bf 7e 94 3c e8 50 76 3e 22 c2 b9 bd 32 08 e8 bb
       0.018126843 0.24054301 -0.09070231 -0.007081055
000360 6a 33 d3 bb 1d 9f e6 bd 96 c2 00 3c 02 dc 6f be
       -0.006445338 -0.11260817 0.007858893 -0.2342377
000370 c0 79 79 be f5 41 57 be 47 8f 13 be eb f3 c7 3d
       -0.2436285 -0.21021254 -0.14410125 0.097633205
000380 63 39 41 be 3c 9f bb 3c 83 9a b0 bb ba a3 4d 3d
       -0.18869548 0.022903077 -0.005389513 0.05020497
000390 3b 87 65 3d ac 4d 8b 3d 3b 88 d4 bd 0a ad f7 bb
       0.05603717 0.06801924 -0.103775464 -0.0075584697
0003a0 d1 01 ca 3d dd 46 99 bd 13 de de bd 64 a9 1b 3e
       0.09863628 -0.07484219 -0.10882201 0.15201336
0003b0 e3 61 13 bc 4b 05 fc bc a5 ef 04 bd 89 58 45 bd
       -0.008995506 -0.030764243 -0.032455105 -0.048180137
0003c0 cc 64 65 bd df 55 98 3c bf 5a 26 be 5a b4 55 3d
       -0.05600433 0.018595634 -0.16245554 0.05217395
0003d0 91 f2 cb bd 8e e7 1e 3e 13 38 bb 3d 7c e5 4e bd
       -0.09958375 0.15518019 0.09141555 -0.050511822
0003e0 69 77 23 bd 38 16 48 ba 3a 94 34 be 9c e3 71 3c
       -0.0399088 -0.00076327054 -0.17634669 0.014763739
0003f0 41 5a ff 3c e0 93 61 3d a6 9a 7a 3c 99 a4 c5 3c
       0.031170966 0.055072665 0.01529566 0.024126338

_module.fc2.bias f4 [84]
000000 a4 f0 0c be 07 43 4e 3d 38 e1 03 3e 23 ad f0 3d
       -0.13763672 0.05035689 0.12878883 0.11751773
000010 12 1e 38 bc 51 43 06 3e 18 6e 67 3e 67 92 16 3e
       -0.011237638 0.13111617 0.22600591 0.14704286
000020 6f 4c 8c 3d 31 28 27 3c bf c7 04 3e ae b4 37 bc
       0.06850516 0.0102024535 0.12966822 -0.011212511
000030 5e cb 4e 3e e2 94 d8 bb 74 1c 04 3e 8e 97 36 3c
       0.20194766 -0.006609545 0.12901479 0.011144532
000040 47 d6 89 bc ff 76 b5 3c 2f 30 69 3d a7 a4 47 3e
       -0.016825808 0.022151468 0.056930717 0.19496404
000050 74 92 b8 3d 87 0d 8e bd 6c 70 2d 3d 58 f8 1a 3e
       0.09012309 -0.06936174 0.042343542 0.15133798
000060 9d fd 25 3d ed b3 34 3e 1e 94 d9 bd 43 f6 0b be
       0.040525068 0.17646761 -0.10623954 -0.1366816
000070 eb 41 3c bd 39 9a 0f be 8e 87 1a bd 80 74 36 3e
       -0.0459613 -0.14023675 -0.03772693 0.17817879
000080 cd cd 37 3e 9e 3d 8e bb ec 0f ff bd ed 6f b9 3d
       0.179496 -0.0043408414 -0.12454209 0.09054551
000090 6f 84 fb 3d d9 75 fc 3d 72 a0 ac 3d 00 53 8f 3c
       0.12281119 0.12327165 0.0842904 0.017495632
0000a0 f3 33 20 3d 26 5a 0e 3d 67 6f 05 bd 6e 05 39 3d
       0.039112043 0.03475394 -0.032576945 0.045171194
0000b0 57 ce 16 bd 4a 62 bf be a5 c4 a4 3c 19 29 39 3e
       -0.036817875 -0.37379676 0.020113299 0.18082084
0000c0 ec 80 00 be 1c d2 10 3e de 0b c1 3c 58 d6 d9 bd
       -0.1254918 0.1414265 0.023565229 -0.10636586
0000d0 44 53 a7 3d 03 31 20 3d 8a 51 fc bd 5a 3c 01 bd
       0.081701785 0.03910924 -0.1232024 -0.031551696
0000e0 5b e5 c3 ba 35 6c 19 3d b1 57 c0 bd eb 09 12 3e
       -0.0014945673 0.03745671 -0.09391726 0.14261596
0000f0 ef fe 85 bd 9d 79 51 bd 2a bf 1d 3e 4c 97 2f be
       -0.06542765 -0.05114137 0.15404955 -0.17147559
000100 5b 55 96 bd ec 74 8f bd 1d 08 55 3d 0a 70 a6 bc
       -0.07340499 -0.07004723 0.05200969 -0.020317096
000110 e1 a0 6f bd 76 a0 10 3e df 9c 4b bd 00 81 ed 3d
       -0.058503035 0.14123711 -0.04971015 0.115968704
000120 d9 24 13 3d 55 c1 8e bd 72 1d a9 3c 97 f5 79 3d
       0.035923813 -0.06970469 0.020643923 0.06102523
000130 71 9a c1 3c fe 5d b1 bd 12 07 0d bd 07 ca d6 3d
       0.023633214 -0.08660506 -0.03443057 0.104877524
000140 d4 5b ac bd f4 fd 1f 3d e1 87 89 3d df 0d 11 bd
       -0.08415952 0.039060548 0.0671537 -0.03541362

_module.fc3.weight f4 [10, 84]
000000 23 b1 57 3d 2e ad 9c 3d 07 7f 92 bd 0c 31 c2 3b
       0.052659165 0.07650219 -0.07153135 0.005926257
000010 69 4c a3 bb e0 e0 83 be 53 06 cb 3d d9 29 09 be
       -0.004983474 -0.25757504 0.099133156 -0.1339487
000020 5e 01 a2 3d ee 10 72 3c 70 92 7b bd 11 89 80 3d
       0.07910417 0.014774544 -0.06141895 0.06276143
000030 6d da 45 be de 46 f2 bd f1 af b0 bd d5 5a 69 bd
       -0.19321604 -0.11829923 -0.08627308 -0.05697139
000040 e2 c9 61 3d 28 dd 2d be c6 59 0f bd 87 06 13 3e
       0.05512417 -0.16978896 -0.034997724 0.14357959
000050 ab 35 75 be 9e 81 2e bd e9 de 67 3e e5 c2 b2 be
       -0.23946254 -0.04260408 0.22643627 -0.34914318
000060 dc dc 16 3e 3f 90 7c 3d 84 5a a7 bd f0 d0 82 3e
       0.14732689 0.061661 -0.08171561 0.25550032
000070 8e d3 1b be 6a 61 e4 bd 00 de 7e bc 21 ca 86 3c
       -0.1521742 -0.11151393 -0.015555859 0.016453804
000080 f8 24 1f 3e 03 71 04 be df b7 e4 3c b5 be 13 be
       0.15541446 -0.12933736 0.027919708 -0.14428218
000090 b8 9c 32 3c 60 5e fe 3d 84 ef 1c 3e ca 6e 2a bd
       0.0109016225 0.12420344 0.15325743 -0.041609563
0000a0 5e ac 21 bd e7 96 7b 3e bd 4e e7 bd 9a a0 5a 3e
       -0.039471023 0.24569283 -0.11294315 0.21350327
0000b0 a2 2c c5 bd a5 14 37 bc 0a 89 14 3e 52 d8 cc bd
       -0.09627654 -0.011174356 0.14505401 -0.10002197
0000c0 ec 51 13 bd b7 0e d7 bd 6d 56 2d bc 06 34 90 3c
       -0.0359668 -0.105008535 -0.010579688 0.017602932
0000d0 bf 9c 0d 3e df 6e 27 bd c2 2d b9 bd 73 8d 91 3d
       0.13829325 -0.04087722 -0.09041931 0.071070574
0000e0 e0 4c 15 be c3 95 64 3d e1 74 67 be d8 7b 90 bc
       -0.14580107 0.055806886 -0.2260318 -0.017637178
0000f0 6e 81 45 3e e1 5d 68 3c 9b 27 4c bd 13 94 99 3c
       0.19287655 0.014182539 -0.04984246 0.018747365
000100 c1 6f a0 3d f0 0a a8 bd d3 08 17 3c 42 21 9e 3d
       0.07833815 -0.08205211 0.009218412 0.07721187
000110 b7 a8 17 be cf 94 00 be 9f 6f 3f 3d 51 d0 b5 3c
       -0.14810453 -0.12556766 0.04673731 0.02219406
000120 e9 24 34 bd 15 40 56 bd fa be 86 be 5a 7f 52 be
       -0.043980513 -0.052307207 -0.2631758 -0.20556393
000130 0b 0d ca 3d b5 38 3d bd 4b ba 02 3e 18 90 43 be
       0.09865769 -0.04619666 0.12766378 -0.19097936
000140 75 f9 bb 3d a4 62 4c bc 20 55 6c bd 8e fa 0a be
       0.091784395 -0.01247469 -0.05769837 -0.13572142
000150 d8 cd d8 bb 3c ad 8c be 5c 91 85 3d 04 80 ca 3c
       -0.0066163354 -0.27475917 0.06521866 0.024719246
000160 5d e8 10 3d a2 d9 78 bd 72 ce 5b bc a3 d0 11 3e
       0.03537785 -0.060754426 -0.01341592 0.14239745
000170 a1 3c 9a bc b7 4e 3f be 33 4c 52 3c 3c c6 39 3e
       -0.018827738 -0.18682371 0.01283555 0.18142027
000180 08 15 97 3e 5a cb 28 3e b0 77 57 bd 97 3d 23 bd
       0.29508233 0.16483822 -0.052604377 -0.03985366
000190 cf 8d 8d 3d 3b c4 54 bd 97 a1 8b 3e 0c 61 72 3d
       0.069118135 -0.051944952 0.2727172 0.059174582
0001a0 d0 95 01 bc 8a 7c 37 3d f4 c4 aa bd d3 26 4e be
       -0.007909253 0.044796504 -0.08338347 -0.20131998
0001b0 0c fa 09 bd 19 e7 b3 3d cb 12 6a be 71 f7 8b 3d
       -0.03368573 0.08784313 -0.22858731 0.06834305
0001c0 42 61 89 3e 12 c2 88 3e c3 ef ff 3c 97 15 9f bd
       0.26832014 0.26710564 0.031242257 -0.0776779
0001d0 66 67 35 bc f6 e3 2f 3d a9 ed 72 be 97 34 30 3d
       -0.011072015 0.04294201 -0.23723473 0.043018904
0001e0 cf 1d 73 bd 2b e9 bd be 58 2c e4 bd aa 6c e5 3b
       -0.0593546 -0.37091956 -0.111412704 0.007001479
0001f0 f9 f4 24 be 92 38 51 3d 5d 2f b7 3d b8 44 a5 bb
       -0.16109075 0.05107934 0.08944581 -0.0050435923
000200 ea cd 05 3e 58 3f 41 bd 06 bb b6 3d bd 5e c8 bc
       0.13066831 -0.04717955 0.08922391 -0.024459237
000210 63 e2 70 3d 73 ce 5a 3e 91 8a f7 3b 9b 6a c7 bd
       0.05880965 0.21367817 0.00755436 -0.0973713
000220 ef 58 f9 3c 7c bc 3d be 4d 73 10 be 39 f7 02 3d
       0.030437915 -0.18528932 -0.14106484 0.03197405
000230 ad d8 73 3d af fb 73 3e 5b fb 45 be 89 5b 30 3d
       0.05953281 0.23826478 -0.19334166 0.043056045
000240 39 17 5a be 6a 9e 18 3d f3 55 d6 3b 50 46 9c be
       -0.21297921 0.03726045 0.0065410077 -0.30522394
000250 b8 bc de 3c 7c fa f3 3c fb 36 d6 bd 06 35 bb 3d
       0.027189597 0.029782526 -0.104597054 0.09140973
000260 df f8 1b be 24 f5 c2 bb c7 ff ae bd 33 e1 49 3e
       -0.15231656 -0.005949633 -0.085448794 0.19714813
000270 f7 79 ae 3d 3f b2 4e bd 5f a3 b6 3e 95 27 8b 3e
       0.08519357 -0.050462957 0.35671517 0.27178636
000280 dc e1 c3 3c 87 35 ca 3d 87 19 e4 3d 32 4c db 3d
       0.02391141 0.09873491 0.111376815 0.107078925
000290 03 50 8a 3d d1 43 fd 3d c7 72 e6 bc 0c 63 14 3e
       0.06753542 0.123664506 -0.028130902 0.14490908
0002a0 10 eb 25 be c7 bf 6f be 17 e7 a9 3e 0a 93 af bb
       -0.1620295 -0.23413001 0.3318412 -0.0053581046
0002b0 6d e1 55 3d a2 07 e6 bd d4 81 00 bc 15 b7 9d 3d
       0.052216936 -0.112319246 -0.007843453 0.07700936
0002c0 42 7b 29 3e 8f 2c c9 bc f9 4d 04 be f1 ac 82 bd
       0.16550925 -0.02455738 -0.12920369 -0.06380642
0002d0 ec ca 8a 3d 04 f1 b6 3c 4e a9 5b be eb 48 36 3e
       0.067769855 0.022331722 -0.21451303 0.17801253
0002e0 bd 31 83 bd ee 6d 1e be 68 82 1a 3e 75 1c ac 3d
       -0.06405971 -0.15471622 0.15088809 0.08403865
0002f0 e0 3b 04 3e 05 dc 8b 3d 8a ec de 3a 91 7e 93 bc
       0.12913465 0.06829075 0.001700775 -0.018004688
000300 1c 56 11 3d a4 ab 4e be 25 f1 7e bd 49 40 67 bd
       0.03548251 -0.20182663 -0.062241692 -0.05645779
000310 12 39 21 3d a2 87 39 bd d2 c6 c9 3d b5 d6 0a be
       0.039361067 -0.045295365 0.09852375 -0.13558467
000320 6c b9 ca 3b ca 6a 0c 3e e3 ec 9c 3e 2b 4f 26 3e
       0.006186655 0.13712612 0.3064948 0.16241138
000330 8b 26 de 3b d8 42 6c 3e 46 cc 0b be 5e 7c a6 3e
       0.006779497 0.23072374 -0.13652143 0.3251676
000340 3c 83 63 3e a3 78 62 3d 33 69 43 be 6a 08 fa 3c
       0.2221803 0.05529083 -0.19083099 0.03052159
000350 ed d6 0a bd 90 fc 43 be 3c e9 5c bd e5 63 4f be
       -0.033896375 -0.19139314 -0.053933367 -0.2025295
000360 ed 20 fa bc 7f 87 e4 bc 7c 04 2a 3d 1d 4c ca bd
       -0.030533278 -0.02789664 0.041508183 -0.09877799
000370 0a 11 c2 3d b7 a6 eb bd 13 81 50 3d 8c c6 b3 bd
       0.09475906 -0.11506408 0.050904345 -0.08778104
000380 bd c3 83 3d 4a d4 23 3d 00 06 10 3e cb f7 4f be
       0.064338185 0.039997377 0.14064789 -0.2030937
000390 e3 d9 c9 bc 09 20 73 3d 44 95 94 3b e2 e9 49 be
       -0.02464003 0.059356723 0.0045343954 -0.19718125
0003a0 86 81 05 be 10 38 46 3e 6a 47 c7 3b 82 26 5f 3e
       -0.1303769 0.19357324 0.0060815113 0.21792033
0003b0 5d e1 c1 3d 36 4c 49 3e 80 25 eb bc cf 22 02 bc
       0.09466813 0.19657978 -0.028704405 -0.007942869
0003c0 d5 41 bc bb 2a 6e 94 bd 32 b7 32 be 82 3b a5 bd
       -0.0057451525 -0.072475746 -0.17452696 -0.08067991
0003d0 6f a6 e6 bd 09 0f 9f 3c ed b1 bd bc b8 1d 1b be
       -0.112622134 0.019416349 -0.02315613 -0.15148056
0003e0 f1 0f 36 be 11 53 7e 3d a4 73 7b 3e c6 02 06 3e
       -0.17779519 0.062090937 0.24555832 0.13086995
0003f0 ac 0e fe 3d 75 2b 77 be 75 48 db bd 0a be 84 bc
       0.12405142 -0.24137671 -0.107071795 -0.016203899

_module.fc3.bias f4 [10]
000000 58 44 af 3d 08 f7 9e 3d b5 23 ec 3c cb 03 f0 bd
       0.085579574 0.07761961 0.02882562 -0.117194735
000010 5b 2b 02 bd 2b 90 5f bc 79 84 22 be 67 7d ab bd
       -0.03177963 -0.013645212 -0.15870847 -0.08373528
000020 85 50 8f 3d 42 35 ad bd
       0.0699778 -0.08457424
