dp_lenet_code/dp_lenet_plots_fixed_epsilon/lenet_epsilon_13.14_gradnorm_1.1.pt (torch, 251158 bytes, 10 tensors)

_module.conv1.weight f4 [6, 1, 5, 5]
0	0x3ec68dc6	0.3878004
1	0x3ee938f9	0.4555128
2	0x3e8964d9	0.26834753
3	0x3ed068d4	0.40704978
4	0x3d8cf7d5	0.06883208
5	0x3ebf6807	0.37384054
6	0x3eb416ae	0.35173553
7	0x3f33af6a	0.70189536
8	0x3f1f4355	0.62212116
9	0x3dff8287	0.12476068
10	0x3f0ae7b0	0.5425978
11	0x3f2109a5	0.6290534
12	0x3f1d85ea	0.6153246
13	0x3ec3fb71	0.38277772
14	0x3eb82c3f	0.35971257
15	0x3e82864a	0.2549308
16	0x3f1b8875	0.6075509
17	0x3eb28b5b	0.34871945
18	0x3d7f9eec	0.06240742
19	0x3e37cd4d	0.1794941
20	0xbdb5884f	-0.088638894
21	0x3cff41e1	0.031159343
22	0xbc17c796	-0.009263894
23	0x3e200e50	0.1563046
24	0xbe1b1c60	-0.15147543
25	0xbb7ac9dc	-0.003826729
26	0xbdd35df8	-0.103206575
27	0x3de97329	0.11398918
28	0x3e0a1262	0.13483575
29	0xbe4b40e6	-0.19848976
30	0x3e4ed93a	0.20200053
31	0xbe1b84a1	-0.15187313
32	0x3e7076cf	0.23482822
33	0x3d9020e8	0.07037526
34	0x3c5d4e98	0.013507508
35	0x3e85cc2f	0.26132342
36	0x3e5e3aea	0.21702161
37	0x3f1207fb	0.5704343
38	0x3ec56f86	0.38561648
39	0x3e05946f	0.13044904
40	0x3e805a15	0.25068727
41	0x3e9f78a4	0.3114673
42	0x3f10a444	0.5650065
43	0x3f1a21d7	0.60207886
44	0x3ed90abb	0.42391
45	0x3df383b0	0.11890352
46	0x3e971a7b	0.2951239
47	0x3e5b4db1	0.21416356
48	0x3e8617b4	0.2618996
49	0xbd8cf282	-0.06882192
50	0xbd5a8d65	-0.0533575
51	0x3d10257e	0.035192005
52	0x3d3225f3	0.043493222
53	0x3eae8248	0.34083772
54	0x3e2a0c5d	0.16606279
55	0x3dd8d508	0.105875075
56	0x3e8196d3	0.25310382
57	0x3e65513c	0.2239427
58	0x3e641481	0.22273447
59	0xbe644a31	-0.22293927
60	0x3e13bd80	0.14427757
61	0x3e13b567	0.14424668
62	0x3e9032dc	0.28163803
63	0x3c9ea73b	0.019366851
64	0xbdee2c0c	-0.11629495
65	0x3e117eba	0.14208499
66	0x3ef5384f	0.47894523
67	0x3d877a2a	0.06615098
68	0xbe1ff760	-0.1562171
69	0xbea27e6a	-0.3173707
70	0x3ebf50b1	0.3736625
71	0x3e6b34ab	0.2296931
72	0x3ec2854c	0.37992322
73	0xbe7371c4	-0.23773867
74	0xbe4e04d8	-0.20119035
75	0xbe3e74ac	-0.18599194
76	0xbe5c36cd	-0.2150528
77	0x3db14801	0.08656312
78	0x3e315a62	0.17319635
79	0x3e8b3f64	0.271968
80	0xbdeb921f	-0.1150248
81	0x3d5bed04	0.053692833
82	0x3e7c594a	0.24643436
83	0x3d8746bb	0.06605288
84	0x3e715c1e	0.23570296
85	0x3d2a3e1c	0.04156314
86	0x3e8e59c9	0.27802876
87	0x3d7ddba1	0.061977033
88	0xbe03c67b	-0.12868683
89	0x3cd21eca	0.025649447
90	0x3da7a657	0.08186024
91	0xbd9e7ac6	-0.07738261
92	0x3e2506c8	0.16115868
93	0x3ded9449	0.11600549
94	0xbda335cd	-0.07969246
95	0xbe426f90	-0.1898787
96	0x3e0cd5fd	0.13753505
97	0xbd06bb68	-0.03289357
98	0xbe342b65	-0.17594679
99	0xbe7e54af	-0.24836992
100	0xbe815056	-0.25256604
101	0xbd044ea0	-0.032301545
102	0xbe37c75e	-0.17947146
103	0xbe602994	-0.21890861
104	0xbda64ba8	-0.08119899
105	0xbe1410c2	-0.14459518
106	0xbe219052	-0.1577771
107	0xbe96b683	-0.2943612
108	0xbe1563c3	-0.14588837
109	0xbe800584	-0.25004208
110	0x3dc0ea5c	0.094197005
111	0xbd5faaf3	-0.05460639
112	0xba937539	-0.0011250145
113	0xbe276181	-0.16345789
114	0xbe7c655e	-0.24648044
115	0xbd477fd5	-0.048705895
116	0x3d3d5f7d	0.046233643
117	0xbe2213a3	-0.15827803
118	0xbe18da8e	-0.14927122
119	0xbe35fa4f	-0.17771266
120	0x3cc6078f	0.024173526
121	0xbcd9f001	-0.0266037
122	0xbd8986b5	-0.067151465
123	0xbe3444f0	-0.17604423
124	0xbe2d2afc	-0.16910928
125	0xbc7a99ab	-0.015295426
126	0xbc448e24	-0.01199678
127	0xbd5bc1e7	-0.053651717
128	0x3e4ebf2b	0.20190112
129	0xbc02aebb	-0.007976229
130	0x3d7dc56e	0.06195586
131	0x3d075081	0.03303576
132	0xbe0c1a18	-0.13681829
133	0x3bffea81	0.0078099375
134	0xbdad007b	-0.08447357
135	0xbc362cd3	-0.011119085
136	0xbe21d921	-0.15805484
137	0xbe82db35	-0.25557867
138	0x3cff2af9	0.03114842
139	0xbc53da98	-0.012930535
140	0x3d9648a0	0.07338071
141	0xbe28da59	-0.16489543
142	0x3cbd92be	0.023141261
143	0xbe170f3f	-0.1475191
144	0x3d4a1014	0.04933174
145	0x3d780261	0.060549144
146	0x3e5ef7fe	0.21774289
147	0x3e858864	0.2608062
148	0x3e95a254	0.2922541
149	0xbc748995	-0.01492538

_module.conv1.bias f4 [6]
0	0x3e7db1d9	0.24774875
1	0x3d901d90	0.070368886
2	0x3c563d87	0.013076193
3	0xbe286ce4	-0.16447788
4	0x3e1657e5	0.14681967
5	0xbddba879	-0.10725493

_module.conv2.weight f4 [16, 6, 5, 5]
0	0x3da83bcc	0.0821453
1	0x3c7adc63	0.015311333
2	0x3e4e8ae3	0.20170169
3	0xbc201fa4	-0.009773169
4	0x3e28ecd3	0.16496591
5	0x3d466ccc	0.0484436
6	0x3d8ddfe0	0.069274664
7	0x3cfb71d5	0.030693928
8	0x3de07820	0.10960412
9	0xbdf78b12	-0.120870724
10	0x3b88ba8b	0.0041726283
11	0x3e1e9ffc	0.15490717
12	0x3e6e1675	0.23250754
13	0xbdcc1420	-0.09964776
14	0xbd1cc35b	-0.038272243
15	0x3c569248	0.0130964
16	0x3e27d1e7	0.16388665
17	0x3de453c8	0.111487925
18	0xbd17cc0d	-0.037059832
19	0xbca8a4a3	-0.020586317
20	0xbd042954	-0.032265976
21	0x3e1fa3f1	0.15589882
22	0x3dad8111	0.08471883
23	0xbe0f027d	-0.13965793
24	0xbdcfa676	-0.10139172
25	0x3e126aeb	0.14298598
26	0x3d3a6437	0.04550573
27	0x3d217f3e	0.03942799
28	0x3dc90dcb	0.09817084
29	0x3dd2a703	0.10285761
30	0xbdad57c5	-0.08464006
31	0xbcee3515	-0.029078046
32	0x3d57a149	0.052644048
33	0x3d2c3ec8	0.04205206
34	0x3c11d4bd	0.008900818
35	0xbdeeb2cd	-0.11655197
36	0x3d40d696	0.047079645
37	0x3dbd2d38	0.092371404
38	0xbda2c3cd	-0.07947502
39	0xbdf1d224	-0.11807659
40	0x3cf176ca	0.029475588
41	0xbce1d361	-0.027566614
42	0x3d167581	0.036733154
43	0xbdc77968	-0.09739953
44	0xbe277278	-0.1635226
45	0xbc7ce139	-0.015434557
46	0x3e26bc94	0.16282874
47	0x3d480b21	0.04883874
48	0xbd3f196a	-0.046655096
49	0xbdbd42f7	-0.09241288
50	0xbe2dd5a2	-0.16976026
51	0xbe31b5cc	-0.17354506
52	0xbd3a43fb	-0.045474987
53	0x3d1b7929	0.037957344
54	0x3e1547c7	0.14578162
55	0x3d06de9e	0.032927148
56	0xbdc12cc9	-0.0943237
57	0xbd17dc8d	-0.037075568
58	0x3de7c5c6	0.11317019
59	0x3dae7756	0.08518855
60	0x3d446dfc	0.04795645
61	0x3d9e1c96	0.07720296
62	0x3db00496	0.08594625
63	0x3d36dab5	0.04464217
64	0xbddbe52b	-0.1073707
65	0x3d37a9fa	0.044839837
66	0x3dfb8b0e	0.12282382
67	0x3df44135	0.119265
68	0xbd6a7022	-0.057235844
69	0x3cad6e1e	0.021170672
70	0x3dc21889	0.09477336
71	0x3c48a03f	0.012245237
72	0x3d9ba559	0.07599897
73	0xbc3be6c4	-0.011468593
74	0xbdbf0568	-0.09327203
75	0x3c7bd562	0.015370699
76	0x3dad53b5	0.084632315
77	0x3dd2a1fd	0.10284803
78	0x3de614e6	0.11234455
79	0xbd9cb462	-0.07651593
80	0xbb04f61c	-0.0020288294
81	0xbd83e583	-0.0644026
82	0xbdfb46c6	-0.12269358
83	0xbd83fb24	-0.06444386
84	0x3da4934f	0.080359094
85	0xbd8d2b0e	-0.06892978
86	0x3ca75e44	0.020430692
87	0xbd90ef22	-0.07076861
88	0xbdb687e3	-0.08912637
89	0xbdb16efc	-0.08663747
90	0xbdf00454	-0.117195755
91	0x3bab0609	0.0052192253
92	0xbd6fe89e	-0.05857145
93	0xbd3c24bb	-0.045933466
94	0xbdced85a	-0.100998595
95	0x3cf22f3e	0.029563542
96	0xbd2bad33	-0.041913223
97	0xbdce7042	-0.10080005
98	0xbd6c68ba	-0.057717063
99	0x3c482d48	0.012217827
100	0x3ca8778a	0.020564813
101	0x3d90ee2a	0.07076676
102	0x3da087c6	0.07838397
103	0x3dc209a8	0.09474498
104	0x3d1785f7	0.036992993
105	0x3c331209	0.010929593
106	0x3d571a0b	0.05251507
107	0xbd6d14e2	-0.057881244
108	0x3e4cbe03	0.19994359
109	0x3df06081	0.11737157
110	0x3b8b1d98	0.004245471
111	0xbdbd48af	-0.09242379
112	0xbc842512	-0.016130958
113	0x3d8c35ca	0.06846197
114	0x3bf4446b	0.007454445
115	0xbdee509a	-0.11636467
116	0x3a71d1fd	0.0009224711
117	0x3dfc5591	0.12321008
118	0x3e240e82	0.1602116
119	0xbc6c7848	-0.014432974
120	0xbdd9722c	-0.1061748
121	0x3d5d359c	0.054006204
122	0x3ddc320b	0.107517324
123	0xbc2bcce8	-0.010485865
124	0xbc760ffd	-0.01501846
125	0xbbf57504	-0.007490756
126	0x3d558fa9	0.052138958
127	0xbc8115a9	-0.015757399
128	0xbdc23484	-0.09482673
129	0xbdd3efd2	-0.103484765
130	0xbd24ecab	-0.040264767
131	0x3de13004	0.109954864
132	0x3d77cbda	0.060497142
133	0xbdd66a11	-0.10469449
134	0x3cc83f04	0.02444411
135	0x3d8058a9	0.062669106
136	0xbd8398ae	-0.06425606
137	0xbe7961f5	-0.24353774
138	0x3d87a882	0.06623937
139	0xbe16cf9e	-0.14727637
140	0x3cc101bf	0.023560403
141	0xbd9f5f7b	-0.07781883
142	0xbe2dd71d	-0.1697659
143	0xbd1a1753	-0.0376199
144	0xbd623d2a	-0.05523411
145	0xbd12644b	-0.035740178
146	0x3de60b10	0.11232579
147	0xbe07255c	-0.13197845
148	0xbde5e99a	-0.112261966
149	0x3d56f901	0.052483562
150	0x3b268baf	0.0025412848
151	0x3c4750ab	0.012165229
152	0xbde0f03f	-0.10983323
153	0x3c940917	0.01807074
154	0x3dbd9d0f	0.09258472
155	0x3d9a5b68	0.075369656
156	0xbcd44e47	-0.025916232
157	0x3e92e734	0.2869202
158	0x3e2f92a2	0.1714578
159	0x3dc18814	0.09449783
160	0xbd144f4a	-0.03620843
161	0x3db50fc5	0.088408984
162	0x3cefc659	0.029269384
163	0x3d4662f8	0.048434228
164	0x3d34c717	0.04413518
165	0xbd2bd047	-0.041946676
166	0x3da36015	0.079773106
167	0x3d54c53a	0.051945902
168	0xbcac8b8e	-0.021062639
169	0xbdd8a431	-0.10578192
170	0xbdd1e456	-0.1024863
171	0xbd9cca6d	-0.07655797
172	0xbdc308f6	-0.095231935
173	0xbcf42a49	-0.02980532
174	0x3cd80ede	0.026374277
175	0xbda3d6f4	-0.079999834
176	0xbd723b54	-0.05913861
177	0xbd97f0f8	-0.07419008
178	0x3dfac7d8	0.122451484
179	0x3de3faa4	0.1113179
180	0x3df4d0b5	0.1195387
181	0x3e2580b4	0.16162378
182	0x3cb4c4bc	0.022066467
183	0x3d22ac1d	0.03971492
184	0xbdaef331	-0.08542479
185	0xbd908dc6	-0.07058291
186	0x3c03e8cc	0.008051109
187	0xbe4c23f8	-0.19935596
188	0xbddc6a9c	-0.107625216
189	0xbd8b283f	-0.06794786
190	0xbd0e0088	-0.034668475
191	0xbdd95447	-0.10611778
192	0xbcb1afc8	-0.021690264
193	0x3d92345d	0.07138894
194	0x3c26510c	0.010151159
195	0x3de1cf32	0.110258475
196	0x3d7a34c3	0.061085474
197	0x3d2d6ba5	0.042338986
198	0xbd9d726e	-0.07687841
199	0x3d15a33f	0.036532637
200	0x3d508223	0.050905358
201	0x3c03ed10	0.008052126
202	0xbdb8d495	-0.09024922
203	0x3cde9e64	0.027175136
204	0xbc6b0824	-0.014345203
205	0xbb358d6a	-0.0027702698
206	0x3c612cec	0.01374362
207	0x3cf33ead	0.029692972
208	0x3cdc57c0	0.026897311
209	0x3d9b1c75	0.07573787
210	0xbd1fa98e	-0.03898006
211	0xbd9af8f8	-0.07567018
212	0xbd986227	-0.07440596
213	0xbbddc026	-0.0067672906
214	0x3d7b8f49	0.061415944
215	0xbc3eb338	-0.011639409
216	0xbdfa49ef	-0.12221133
217	0x3d802a72	0.06258096
218	0xbdd8bd97	-0.105830364
219	0xbcce8a0e	-0.025212314
220	0x3cf42a30	0.029805273
221	0xbbc7620e	-0.006084687
222	0x3c96dcb9	0.018415796
223	0xbe24cae9	-0.16093029
224	0x3dab515a	0.08365126
225	0xbd82e3b2	-0.06391086
226	0xbc96851f	-0.018374024
227	0x3d92116f	0.071322314
228	0x3dabac37	0.08382457
229	0x3d47132b	0.048602264
230	0xbc570f99	-0.013126277
231	0xbd88e13b	-0.06683584
232	0x3bedc56f	0.007256202
233	0x3cc4a7d2	0.024005804
234	0xbdc1d280	-0.09463978
235	0xbdb4d4d7	-0.088296585
236	0x3d9cc75d	0.07655213
237	0x3ddd7712	0.108137265
238	0xbb789dac	-0.0037935777
239	0xbe10cf08	-0.14141476
240	0xbcbfd8fc	-0.023418896
241	0xba44a0bb	-0.00075007573
242	0xbd85fee8	-0.0654276
243	0xbb76dd4f	-0.0037668531
244	0xbd48f4f8	-0.049061745
245	0xbd88e481	-0.06684209
246	0xbd496168	-0.04916516
247	0xbd81cc80	-0.063378334
248	0xbdda6c0a	-0.10665138
249	0xbdb2a06e	-0.08722006
250	0xbdc0fbe7	-0.094230466
251	0xbe149f45	-0.14513882
252	0xbdfcc04e	-0.12341367
253	0xbc3cfc84	-0.011534814
254	0x3b4bb9e2	0.0031086137
255	0xbd5ea14f	-0.054353055

_module.conv2.bias f4 [16]
0	0x3da868b4	0.082230955
1	0x3d69138a	0.0569034
2	0x3cd08020	0.02545172
3	0xbd3b59ec	-0.045740053
4	0x3cb4fdf9	0.02209376
5	0x3e045523	0.12923102
6	0x3d87479f	0.066054575
7	0x3cfa914b	0.03058686
8	0xbbf3eec1	-0.007444233
9	0xbc81fc6b	-0.015867433
10	0xbca820aa	-0.020523388
11	0x3e2cb6ae	0.16866562
12	0x3d823690	0.06358063
13	0xbd346bb0	-0.04404801
14	0xbd41ec36	-0.04734441
15	0x3d6b21ec	0.057405397

_module.fc1.weight f4 [120, 400]
0	0xbd3ac957	-0.04560217
1	0x3d650084	0.055908695
2	0x3d03c2dc	0.032168254
3	0xbc45b685	-0.012067442
4	0xbdcbe4d6	-0.09955756
5	0xbcc30f62	-0.023811046
6	0x3bc87d09	0.006118421
7	0xbccf37a5	-0.025295088
8	0x3cc90bd1	0.024541767
9	0xbd48d1b2	-0.049028106
10	0x3d9a7600	0.07542038
11	0xbdbd9e59	-0.09258718
12	0xbd2eb67d	-0.042654503
13	0x3d40715f	0.04698312
14	0x3d24a397	0.040195074
15	0x3de9a2ba	0.11407991
16	0x3d5443d6	0.051822506
17	0xbd29c410	-0.041446745
18	0xbc911e76	-0.01771472
19	0xbd64a438	-0.055820674
20	0x3d6fc08f	0.058533248
21	0x3d9445ef	0.07239901
22	0xbb90b4b7	-0.004416074
23	0x3d1ce7ff	0.038307186
24	0xbd30f5b6	-0.04320308
25	0x3d93f243	0.07223942
26	0x3cfffae0	0.031247556
27	0x3c876d83	0.016531711
28	0x3d372e3d	0.04472183
29	0xbdadae5e	-0.084805235
30	0xbb7588f1	-0.0037465657
31	0x3d4d221b	0.050081354
32	0xbcc7cbab	-0.024389109
33	0x3d8c414f	0.06848394
34	0x3cbe87d6	0.023258131
35	0xbcae1a6e	-0.021252837
36	0xbb29a1d8	-0.002588382
37	0x3c824719	0.015903043
38	0x3aadc954	0.0013258853
39	0xbc02be6a	-0.007979969
40	0x3cc28bba	0.023748267
41	0xbdbf6865	-0.093460836
42	0xbe3ef5a1	-0.18648387
43	0x3e02e85c	0.1278395
44	0x3d9e7eb6	0.07739012
45	0x3dc6229e	0.096745715
46	0xbd01f600	-0.031728745
47	0xbe282622	-0.16420797
48	0x3d9565de	0.0729482
49	0x37f46894	2.9135765e-05
50	0xbe023ec7	-0.1271926
51	0x3c30abf6	0.010783186
52	0x39f37332	0.000464344
53	0x3de8a44c	0.11359462
54	0xbaabbb23	-0.0013102036
55	0xbac4890f	-0.001499446
56	0x3df85f09	0.121275015
57	0xbd41c275	-0.04730459
58	0xbd2ad483	-0.041706573
59	0x3df4e223	0.11957195
60	0xbbaca638	-0.0052688383
61	0x3d9c8618	0.07642764
62	0xbc34db6a	-0.0110386405
63	0xbdc8b116	-0.097994015
64	0x3d29c8d3	0.041451287
65	0x3c8c3d94	0.017119206
66	0x3c3f8616	0.011689683
67	0x3d97634f	0.073919885
68	0x3d4563d5	0.04819091
69	0x3d7a1a02	0.06105996
70	0x3e110d64	0.14165264
71	0x3d830d22	0.06398989
72	0x3b05644d	0.0020353973
73	0x3d787261	0.060655955
74	0xbd3d49fd	-0.04621314
75	0xbd7f68b6	-0.06235572
76	0x3dbd7486	0.09250741
77	0xbd94ae29	-0.07259781
78	0x3dffb0a9	0.12484867
79	0x3d91d4ea	0.07120688
80	0x3d2ff92f	0.04296225
81	0xbd8c7029	-0.0685733
82	0x3cd2cadb	0.025731495
83	0xbce23556	-0.027613323
84	0x3db3083f	0.08741807
85	0xbe136efa	-0.14397803
86	0x3c712c64	0.014720056
87	0xbde0f6b6	-0.109845564
88	0xbd428da4	-0.04749836
89	0xbdacf61e	-0.08445381
90	0xbddba4bb	-0.10724779
91	0xbd4c5ea7	-0.049894955
92	0x3cfe2bed	0.031026805
93	0xbdbb49a5	-0.09144906
94	0xbc922e94	-0.017844476
95	0x3d04ab51	0.032389943
96	0x3cecabb7	0.028890474
97	0xbd0cb8a0	-0.03435576
98	0xbc3b45f6	-0.011430254
99	0x3deb6c70	0.11495292
100	0xbc9f18c3	-0.019420987
101	0x3a2d34da	0.0006607302
102	0xbe182928	-0.1485945
103	0xbd3ef96a	-0.04662458
104	0x3d8066c1	0.06269599
105	0xbde3547d	-0.11100099
106	0xbcc1790f	-0.023617296
107	0xbded4511	-0.11585439
108	0x3d0ba5a3	0.03409351
109	0xbe155990	-0.14584947
110	0x3d4185cb	0.047246736
111	0xbd893e43	-0.067013286
112	0xbd1d64c4	-0.038426176
113	0x3d81e99f	0.06343388
114	0xbc8b8057	-0.01702897
115	0x3c491b8b	0.012274633
116	0xbd0ed184	-0.03486778
117	0x3d7a6c64	0.061138526
118	0x3cd25144	0.025673516
119	0xbcfdc65f	-0.03097838
120	0x3ce6202f	0.028091518
121	0xbd29da89	-0.041468177
122	0x3daf1547	0.0854898
123	0x3d235b2a	0.039881863
124	0xbc4b11fe	-0.012394426
125	0x3d9c4456	0.076302215
126	0xbd147a60	-0.03624952
127	0xbe230c82	-0.1592274
128	0xbd8d2b2c	-0.06893
129	0x3d8378f3	0.064195536
130	0x3da3cd28	0.07998115
131	0xba9b4508	-0.0011846134
132	0x3db94ce0	0.09047866
133	0x3cf58ea9	0.029975252
134	0x3c9f258c	0.019427083
135	0xbc9fe260	-0.019517124
136	0x3d1d4fec	0.038406298
137	0xba13588e	-0.00056208007
138	0x39ebaf17	0.00044953145
139	0xbd10f22c	-0.035387203
140	0xbca15911	-0.01969579
141	0x3de47b3d	0.11156318
142	0x3d1a031e	0.03760063
143	0xbcdcc2e2	-0.026948396
144	0x3de2b76a	0.1107014
145	0x3d0594f0	0.03261274
146	0xbd346cf4	-0.04404922
147	0x3dcff77c	0.10154626
148	0xbd3a49c3	-0.0454805
149	0x3da2dbde	0.079520926
150	0xbd2c39c5	-0.04204728
151	0xbd5c9020	-0.053848386
152	0x3c0f38d2	0.008741574
153	0xbdc5d5cf	-0.096599214
154	0x3ddd29ab	0.10798963
155	0xbe02d99d	-0.12778325
156	0x3d438c7b	0.047741394
157	0x3d0d6013	0.03451545
158	0xbd2053a2	-0.03914226
159	0x3e18a998	0.14908445
160	0xbdbb37b4	-0.09141484
161	0x3d08d65d	0.033407558
162	0x3dee8e85	0.11648277
163	0x3d4cf1f5	0.050035436
164	0xbc64361c	-0.013928916
165	0x3d3497b3	0.044089984
166	0x3d5175db	0.051137786
167	0xbb8e523d	-0.0043432997
168	0xbd238183	-0.039918434
169	0x3cc4d0ce	0.024025347
170	0x3d9a7b22	0.07543017
171	0x3dca9b8f	0.09892952
172	0x3b64619f	0.0034848226
173	0x3db33523	0.087503694
174	0xbceacaaa	-0.02866109
175	0xba8a5fa5	-0.0010557069
176	0xbca9da32	-0.020733926
177	0x3d87acf2	0.066247836
178	0x3cf51867	0.029918863
179	0x3ade313c	0.0016951929
180	0x3dbc5330	0.09195554
181	0xbc87e099	-0.016586589
182	0x3d01e311	0.031710688
183	0x3d8804a0	0.06641507
184	0x3d4ed6f7	0.050497975
185	0x3bef3aad	0.007300696
186	0xbc294204	-0.010330681
187	0xbddabae3	-0.10680177
188	0x3dbc6040	0.09198046
189	0x3d7e664c	0.062109277
190	0xbca5a337	-0.020219428
191	0x3d577982	0.052606113
192	0xbd02d7f6	-0.031944238
193	0x3cc3227b	0.023820153
194	0xbc74b7c3	-0.01493639
195	0x3df7b828	0.12095672
196	0xbd10cd07	-0.03535178
197	0x3d1b6384	0.037936702
198	0xbdd5455e	-0.10413621
199	0xbbc692ff	-0.006060004
200	0xbd445231	-0.047929946
201	0xbcbc9499	-0.023020076
202	0xbd08a7ef	-0.03336328
203	0xb9ae0204	-0.00033189368
204	0xbd5dae99	-0.054121587
205	0x3d3ab188	0.045579463
206	0xbc9c70c3	-0.019096738
207	0x3d10c7a1	0.03534663
208	0x3cf262d0	0.029588133
209	0xbd0818f0	-0.033226907
210	0x3d73042b	0.059330147
211	0x3a586e5b	0.00082561903
212	0xbbe4e381	-0.0069851284
213	0x3d548aed	0.051890302
214	0xbd83bdc5	-0.0643268
215	0x3e09eceb	0.13469283
216	0xba4d1ee2	-0.00078247313
217	0xbd8d4bb8	-0.06899208
218	0xbd84d3b0	-0.06485689
219	0x3c4f7cb6	0.012664011
220	0xbd61b7eb	-0.05510704
221	0xbc04f5bf	-0.008115231
222	0xbddfcd07	-0.10927778
223	0xbba550bd	-0.005045025
224	0xb7e52055	-2.7313983e-05
225	0xbcd9fcc8	-0.026609793
226	0x3d939ffa	0.072082475
227	0xbcc49623	-0.023997372
228	0x3c42e835	0.011896183
229	0x3c3ccc40	0.011523306
230	0x3df2aa5e	0.11848901
231	0xbcb91cbd	-0.022596711
232	0xbd44ae66	-0.04801788
233	0xbdb3b82d	-0.08775363
234	0x3cf596c0	0.02997911
235	0xbd47195c	-0.04860817
236	0x3d9cc942	0.076555744
237	0xbd0200d7	-0.031739082
238	0x3d4db2c7	0.050219323
239	0xbcba6d89	-0.022757309
240	0x3c9e8a9d	0.019353205
241	0x3c11d060	0.008899778
242	0xbc32292b	-0.010874073
243	0xbd1784c8	-0.036991864
244	0x3d8db302	0.06918909
245	0x3d671304	0.05641462
246	0xbc09d54c	-0.00841267
247	0x3dca8100	0.09887886
248	0x3d811dde	0.06304525
249	0x3d36132a	0.04445187
250	0xbd1f0bfe	-0.038829796
251	0x3d728b3a	0.059214808
252	0xbc013abc	-0.0078875385
253	0x3cdc7433	0.026910877
254	0xbca0596b	-0.019573888
255	0x3d32dc58	0.043667167

_module.fc1.bias f4 [120]
0	0xbc60d42d	-0.013722462
1	0xbce541a2	-0.027985398
2	0xbdb31c1f	-0.08745598
3	0x3dc00f31	0.093778975
4	0x3c91f2e7	0.01781602
5	0x3c8bcf39	0.017066585
6	0xbdc8f78c	-0.09812841
7	0xbddd2fca	-0.10800131
8	0x3d32973c	0.04360126
9	0xbd966caf	-0.073449485
10	0x3d1b2de0	0.037885547
11	0x3dc69369	0.09696085
12	0x3ce2556f	0.027628629
13	0xbd166343	-0.036715757
14	0xbbaaf8c0	-0.0052176416
15	0xbd21afe0	-0.039474368
16	0x3e1d95b5	0.1538914
17	0x3b9a4324	0.004707711
18	0x3dbda326	0.09259634
19	0xbabfffd5	-0.0014648387
20	0xbd2ca824	-0.04215254
21	0xbccad7a2	-0.024761025
22	0xbd34066e	-0.043951444
23	0xbd0a7f24	-0.033812657
24	0xbda3b076	-0.07992642
25	0x3e2104db	0.15724508
26	0xbca6564f	-0.020304827
27	0x3c96fbae	0.018430557
28	0x3d937392	0.07199778
29	0x3d9b2c0b	0.0757676
30	0x3d3d8b4b	0.04627542
31	0x3d02d5d7	0.031942215
32	0xbe0579a3	-0.13034682
33	0xbbdff004	-0.006834032
34	0x3c23c706	0.009996181
35	0xbca8ad38	-0.02059041
36	0xbb15c1f5	-0.0022851203
37	0x3de09f10	0.10967839
38	0xbdc9f521	-0.09861208
39	0x3bfc28fe	0.0076953163
40	0xbb2b7984	-0.0026164958
41	0x3e1db7d6	0.15402159
42	0x3e1ab3ef	0.15107702
43	0x3caae6ea	0.020862062
44	0xbd17ba26	-0.03704276
45	0xbd3a173f	-0.045432325
46	0xbddc4f77	-0.10757344
47	0xbcd0071d	-0.025394017
48	0xbd2a63f0	-0.041599214
49	0x3d4bd3e9	0.04976264
50	0xbce65234	-0.02811537
51	0x3dcf427b	0.10120102
52	0x3cf56c1a	0.029958773
53	0x3cc42517	0.023943467
54	0x3daed3d6	0.08536498
55	0x3dd31e81	0.103085525
56	0xbd0db80d	-0.034599353
57	0xbcc94329	-0.024568157
58	0x3cd1c431	0.025606247
59	0x3d5fa78b	0.05460314
60	0x3e085d00	0.13316727
61	0xbdd648d0	-0.10463107
62	0x3c5687b9	0.013093882
63	0xb9a951d5	-0.00032295162
64	0xbd9c0b49	-0.0761934
65	0xbd4be721	-0.04978097
66	0x3b43d6fe	0.0029882784
67	0x3d58ca2e	0.05292719
68	0x3da239f0	0.07921207
69	0x3d2099b7	0.039209094
70	0xbc58bbc0	-0.013228357
71	0xbcf93803	-0.030422216
72	0x3c4348dc	0.0119192265
73	0xbcc1da8f	-0.023663787
74	0xbe1f58a4	-0.15561157
75	0x3ca5e69e	0.020251568
76	0x3dc25952	0.09489693
77	0xbd91385e	-0.07090829
78	0xbc26a5e0	-0.010171384
79	0x3d221f96	0.039580904
80	0xbd2ae6f1	-0.04172415
81	0x3dad969a	0.084759906
82	0xbc410a30	-0.011782214
83	0x3d8e0e1e	0.069362864
84	0x3d41270e	0.047156386
85	0xbc3fed8a	-0.011714349
86	0x3cf4dfee	0.029891934
87	0x3d5ce147	0.05392578
88	0x3c34df21	0.011039526
89	0x3c6c3ccd	0.014418793
90	0x3c8b16c2	0.016978625
91	0x3c38ece4	0.011286948
92	0xbdb0ad33	-0.08626785
93	0x3cf7af2f	0.030234901
94	0xbb1a8afe	-0.002358138
95	0xbcb79047	-0.022407664
96	0xbd7d01a0	-0.061769128
97	0x3c7009bc	0.014650758
98	0xbdcbb2a0	-0.099461794
99	0x3c64d55f	0.013966887
100	0x3d19ce1d	0.03755008
101	0x3ce6861c	0.02814012
102	0x3cd49256	0.025948685
103	0x39a7a600	0.00031976402
104	0xbd42df93	-0.0475765
105	0x3cb859a7	0.022503687
106	0xbd018855	-0.031624157
107	0xbd5141ca	-0.051088132
108	0xbe0ec5a8	-0.13942587
109	0x3d83a538	0.06427997
110	0x3d4b3a79	0.04961631
111	0xbce3d98b	-0.027813694
112	0x3c5e4774	0.01356684
113	0x3bc3babd	0.0059731887
114	0xbcd69ba6	-0.026197266
115	0xbd916883	-0.07100012
116	0x3d7c6e82	0.061628826
117	0xbd1db302	-0.038500793
118	0x3d2a25e7	0.041540053
119	0x3cde18d8	0.027111456

_module.fc2.weight f4 [84, 120]
0	0xbdbb2ffe	-0.09140013
1	0x3b7daa18	0.003870612
2	0x3ca2173f	0.019786475
3	0x3e7405ef	0.23830388
4	0x3d1937c5	0.0374067
5	0xbcba6f58	-0.022758171
6	0xbdd2f11e	-0.10299896
7	0x3daaf48c	0.08347425
8	0x3db43d2b	0.08800729
9	0xbca3dc3b	-0.020002475
10	0x3d6076c2	0.054800756
11	0x3d3e4fdd	0.046462882
12	0xbd783ec6	-0.06060674
13	0xbde0acba	-0.10970445
14	0x3e0c5998	0.13706052
15	0x3c663eaa	0.014053026
16	0xbd5905c5	-0.052984018
17	0xbc7fc37c	-0.015610572
18	0x3d1d1228	0.038347393
19	0x3d4c2834	0.04984303
20	0x3d4b9257	0.049700107
21	0xbdb437a7	-0.08799677
22	0x3dcf6c1d	0.10128043
23	0xbe0725c5	-0.13198002
24	0x3e250776	0.16116127
25	0xbd26c7dd	-0.04071795
26	0x3d40cf78	0.047072858
27	0xb9242ec4	-0.0001565768
28	0xbd9b3b28	-0.075796425
29	0xbdcf6df4	-0.10128394
30	0x3dbfaebc	0.093595
31	0x3d84cefc	0.06484792
32	0xbdb9bdf2	-0.09069432
33	0x3d939d16	0.07207696
34	0x3df66d59	0.12032575
35	0xbddcce3e	-0.10781525
36	0xbda430d9	-0.080171295
37	0x3e245463	0.16047816
38	0xbdcdba0c	-0.10045251
39	0x3e032feb	0.12811248
40	0xbdc0c97f	-0.09413432
41	0xbdaaa26d	-0.083317615
42	0xbd0d0aac	-0.034434006
43	0x3cffb838	0.031215772
44	0xbcd3e403	-0.02586556
45	0x3d7e40d9	0.062073562
46	0xbde2aa9c	-0.110676974
47	0x3d2e76a9	0.042593632
48	0x3d0f468c	0.034979388
49	0xbc857bfa	-0.016294468
50	0xbde49db7	-0.11162894
51	0xbd6fba94	-0.058527544
52	0xbc356db7	-0.011073521
53	0xbd90c6bc	-0.070691556
54	0xbd5555e7	-0.052083876
55	0x3a2323af	0.0006223274
56	0xbcd6518f	-0.026161937
57	0x3ddc1790	0.10746682
58	0x3acf9af8	0.0015839031
59	0x3d3b2f1e	0.04569923
60	0x3d6141a2	0.054994233
61	0xbdbbb0e8	-0.091646016
62	0x3d6ae8d4	0.05735095
63	0xbded4f2b	-0.11587366
64	0x3d90307a	0.07040496
65	0x3d921b24	0.07134083
66	0x3dc6c509	0.0970555
67	0x3d9839a8	0.07432872
68	0x3dc15eeb	0.09441932
69	0x3d740dcf	0.05958348
70	0xbd90c148	-0.070681155
71	0x3cdd2875	0.02699683
72	0xbc93e769	-0.01805468
73	0xbd56df5b	-0.052459102
74	0x3d14872c	0.036261722
75	0xbdd8da40	-0.10588503
76	0xbd48d2c4	-0.049029127
77	0xbe12a843	-0.14321999
78	0x3d5900d6	0.052979313
79	0x3d968bb8	0.07350868
80	0x3d03c1c8	0.032167226
81	0xbdf89093	-0.1213695
82	0x3d41f8d5	0.047356445
83	0x3d2c377d	0.042045105
84	0x3d27653a	0.04086802
85	0xbe030424	-0.12794548
86	0xbc59420a	-0.013260374
87	0x3d03217c	0.032014355
88	0xbe0b944d	-0.13630791
89	0xbc116256	-0.008873543
90	0x3dc6d228	0.09708053
91	0xbe139825	-0.14413507
92	0x3e0ed551	0.13948561
93	0x3c9b6ad5	0.01897184
94	0x3c5aca2f	0.013353868
95	0x3dc08502	0.09400369
96	0x3cb1cf59	0.021705316
97	0xbd6154c0	-0.055012465
98	0x3da01af7	0.07817643
99	0xbe5262ed	-0.2054555
100	0xbd2d40f3	-0.04229827
101	0xbd10f114	-0.03538616
102	0xbdd7d61f	-0.10538887
103	0xbc29000b	-0.010314952
104	0x3cc4abb2	0.024007652
105	0x3df5020b	0.1196328
106	0x3da343a6	0.07971887
107	0xbd131d37	-0.035916533
108	0xbdae5004	-0.085113555
109	0xbd9ab5bc	-0.07554194
110	0xbe08e001	-0.133667
111	0xbe0951f8	-0.13410175
112	0x3d84038a	0.064459875
113	0x3d32b2c4	0.043627515
114	0xbdb4c28e	-0.08826171
115	0xbc47f6b8	-0.012204818
116	0xbe423e35	-0.18969043
117	0xbdd25246	-0.10269599
118	0x3e26f391	0.1630385
119	0xbd4ca4c3	-0.049961817
120	0xbd832b36	-0.06404726
121	0xbd82c64b	-0.06385478
122	0xbd9a7d70	-0.075434566
123	0x3c82a867	0.015949441
124	0xbd9a18b0	-0.0752424
125	0xbdbbf2af	-0.091771476
126	0x3dc4436a	0.09583171
127	0xbcf1171b	-0.029429963
128	0xbb97cfed	-0.004632941
129	0x3b8791b5	0.0041372427
130	0xbdc3d1f6	-0.09561531
131	0xbe4a0dc7	-0.19731818
132	0xbe504b5f	-0.20341252
133	0xbd2d3788	-0.042289287
134	0xbc822d2d	-0.015890682
135	0xbbadf6f5	-0.0053089806
136	0xbdeefaef	-0.116689555
137	0xbdab5a1c	-0.083667964
138	0x3d67eae2	0.056620486
139	0x3c68a4ea	0.014199475
140	0x3d7a296b	0.061074656
141	0x3d80515c	0.06265518
142	0xbde7d20d	-0.11319361
143	0x3d39a66f	0.04532474
144	0xbdfeac1a	-0.124351695
145	0x3de1daca	0.11028059
146	0x3d0f2385	0.034945983
147	0xbc9c5c99	-0.019087123
148	0x3e31ae15	0.17351563
149	0xbdbaeaa6	-0.09126787
150	0xbcebbf70	-0.028777808
151	0xbdd95fe2	-0.10613991
152	0xbc89e4bb	-0.0168327
153	0xbcd38ea7	-0.025824858
154	0x3dafe082	0.08587743
155	0xbd3be7ad	-0.04587524
156	0xbb508d57	-0.0031822526
157	0x3d220566	0.03955593
158	0x3d85a6af	0.06525933
159	0xbe2e21df	-0.17005108
160	0xbdf5baca	-0.11998518
161	0x3ba61ee7	0.005069602
162	0x3d8e053f	0.06934594
163	0xbc405994	-0.011740107
164	0x3ba55e3a	0.005046633
165	0x3d5eb340	0.054370165
166	0x3a88d37c	0.0010439004
167	0xbd2dadcf	-0.042402085
168	0x3d83b948	0.06431824
169	0x3de6b244	0.1126447
170	0x3cd45874	0.025921084
171	0x3de3241f	0.11090874
172	0x3db21af3	0.086965464
173	0xbd0a16cf	-0.03371316
174	0xbdd87ce5	-0.10570697
175	0x3e2cca09	0.16873945
176	0x3e1c0c4c	0.15239066
177	0x3d4bb7f0	0.049735963
178	0x3d37f5f2	0.044912286
179	0xbdbfe03a	-0.0936894
180	0x3e51d915	0.20492966
181	0x3b78f84b	0.003798979
182	0xbdeeff87	-0.11669832
183	0x3e4e447c	0.20143312
184	0x3bd84422	0.006599919
185	0xbd1fc54d	-0.03900652
186	0xbe183451	-0.14863707
187	0xbd042c2c	-0.032268688
188	0x3d8ade37	0.06780665
189	0x3d946c92	0.07247271
190	0xbd13539f	-0.03596842
191	0xbe1a1422	-0.15046743
192	0x3e6589bf	0.22415827
193	0xbe2e366f	-0.17012952
194	0x3d13d4c6	0.03609159
195	0xbd069076	-0.032852612
196	0x3e1d1b78	0.1534251
197	0x3d98ed42	0.07467128
198	0x3d8af321	0.067846544
199	0x3ba71567	0.005098987
200	0x3cdc5301	0.026895048
201	0x3e020dc3	0.12700562
202	0xbdf50928	-0.11964637
203	0x3c909266	0.017647933
204	0x3d898717	0.067152195
205	0xbdd8fe61	-0.10595394
206	0x3d86a204	0.06573871
207	0xbde4df0a	-0.11175354
208	0x3da63e8d	0.08117399
209	0xbe27ad9e	-0.16374823
210	0x3c103bbf	0.008803307
211	0xbd904f32	-0.07046355
212	0x3cef158e	0.029185083
213	0x3e514c5c	0.20439285
214	0xbdbe694a	-0.09297426
215	0xbd0108d6	-0.031502567
216	0x3d229e36	0.039701663
217	0xbda7703a	-0.081757024
218	0xbcc415c4	-0.02393616
219	0xbe2b5ac3	-0.16733842
220	0xbe67a4dd	-0.22621484
221	0xbe241c73	-0.16026478
222	0xbdc82a42	-0.09773685
223	0x3dd07762	0.101790205
224	0xbdef0787	-0.116713576
225	0x3ca4be78	0.020110354
226	0x39e8e4f0	0.0004442106
227	0x3c3c337e	0.011486886
228	0x3d6008a4	0.05469574
229	0x3d8e9b56	0.06963222
230	0xbd9f07c5	-0.07765154
231	0x3cda56bf	0.026652692
232	0x3dc9c8a6	0.09852724
233	0xbd31f354	-0.043444946
234	0xbe04e3d4	-0.12977535
235	0x3e13c7f0	0.14431739
236	0xbbfeb9bd	-0.0077736066
237	0x3b16e85c	0.002302668
238	0xbcd6c01c	-0.026214652
239	0xbd186338	-0.037203997
240	0xbd45c72f	-0.04828566
241	0x3d06617a	0.032807805
242	0xbe0411c1	-0.12897398
243	0x3d02445c	0.031803474
244	0xbdc4fc7c	-0.0961847
245	0x3de69a71	0.11259926
246	0x3d0283fd	0.031864155
247	0xbce22ff0	-0.027610749
248	0x3bdf7fb4	0.0068206433
249	0x3a40de89	0.0007357379
250	0xbdddb4e9	-0.108255215
251	0x3ccacbd5	0.024755398
252	0x3d15860c	0.03650479
253	0x3d97a960	0.074053526
254	0x3c1b0733	0.009462166
255	0x3c78d95e	0.015188543

_module.fc2.bias f4 [84]
0	0xbdf6b4a8	-0.12046176
1	0x3d80e938	0.06294483
2	0x3dded33a	0.10880132
3	0x3db53ea9	0.08849842
4	0xbb500d31	-0.0031746144
5	0x3db32792	0.08747782
6	0x3e163b87	0.14671145
7	0x3df43291	0.11923707
8	0x3d6d1736	0.057883464
9	0xbc1bdcc9	-0.0095130885
10	0x3dcd4c26	0.1002429
11	0xbc655079	-0.013996237
12	0x3e22530c	0.15851992
13	0xbc9df564	-0.01928205
14	0x3dd20455	0.102547325
15	0x3c851bad	0.016248548
16	0xbb109f4e	-0.002206761
17	0x3ccf4c10	0.025304824
18	0x3d67d850	0.056602776
19	0x3e24e852	0.16104248
20	0x3dc8bd3d	0.09801719
21	0xbd510b64	-0.051036254
22	0x3d5afbd9	0.053462837
23	0x3dfc533b	0.123205625
24	0x3d7d2256	0.061800323
25	0x3e0715b6	0.13191876
26	0xbdcd397a	-0.100207284
27	0xbe007a3a	-0.12546626
28	0xbd2c82ec	-0.042117044
29	0xbdde027e	-0.10840319
30	0xbd657772	-0.056022115
31	0x3def758d	0.11692343
32	0x3e14f81d	0.14547773
33	0xbc289e1f	-0.010291605
34	0xbd703eec	-0.058653757
35	0x3d86ecad	0.06588111
36	0x3db33006	0.08749394
37	0x3da0e64f	0.07856428
38	0x3d97a14d	0.074038126
39	0x3cb67754	0.022273697
40	0x3cef200f	0.029190091
41	0x3d1c0844	0.03809382
42	0xbd579068	-0.05262795
43	0xbae35df7	-0.0017346729
44	0xbb91cc14	-0.004449377
45	0xbe8982bb	-0.26857552
46	0x3ca741e2	0.020417158
47	0x3e086bef	0.13322423
48	0xbdd8c266	-0.105839536
49	0x3deef7e8	0.11668378
50	0xbc10d5b4	-0.008840013
51	0xbdb9052e	-0.09034191
52	0x3d898616	0.06715028
53	0x3d531b3c	0.051539645
54	0xbdada47d	-0.08478639
55	0xbcf70d20	-0.030157626
56	0x3b9150a7	0.0044346633
57	0x39b1c930	0.00033909967
58	0xbdaf95c7	-0.0857349
59	0x3d95cd00	0.07314491
60	0xbd3d1e95	-0.046171743
61	0xbd3f7414	-0.04674156
62	0x3e0c9d6e	0.1373193
63	0xbdb92b25	-0.09041432
64	0xbd29d5cf	-0.04146367
65	0xbcc032e2	-0.023461763
66	0x3c7ac2e7	0.015305257
67	0x3b804ca2	0.0039153853
68	0xbd573cbb	-0.05254815
69	0x3d647a39	0.055780623
70	0xbcb416be	-0.0219835
71	0x3da2b800	0.079452515
72	0x3c89d8ec	0.01682707
73	0xbcc5127b	-0.024056664
74	0x3cbecb98	0.02329044
75	0x3d7b9010	0.061416686
76	0x3c6dc0d3	0.014511305
77	0xbdadb3df	-0.08481573
78	0xbd623161	-0.055222873
79	0x3d8c456e	0.0684918
80	0xbd37221a	-0.044710256
81	0x3bb20c7d	0.0054336176
82	0x3d638fa1	0.055556897
83	0xbcf795da	-0.030222822

_module.fc3.weight f4 [10, 84]
0	0x3cbf359c	0.023340993
1	0x3db60085	0.08886818
2	0xbd08363f	-0.033254858
3	0xbcd71302	-0.02625418
4	0x3b3be5bd	0.002867087
5	0xbe82749b	-0.25479588
6	0x3e1024c9	0.14076532
7	0xbe0aa2cb	-0.13538663
8	0x3dce52b7	0.1007437
9	0x3ca8ab0e	0.020589378
10	0xbd61be8a	-0.055113353
11	0x3dd31b89	0.10307986
12	0xbe3d59f2	-0.18491343
13	0xbdd97540	-0.10618067
14	0xbdba51cc	-0.09097633
15	0xbd7bd272	-0.061479993
16	0x3dd7b828	0.10533172
17	0xbe0c455d	-0.13698335
18	0x3c35d173	0.0110973
19	0x3dffcb33	0.12489929
20	0xbe50f618	-0.20406377
21	0xbd7ee8f8	-0.062233895
22	0x3e4473cf	0.19184802
23	0xbea621c9	-0.3244765
24	0x3daff002	0.085907
25	0x3d6bbb69	0.057551775
26	0xbdc37f79	-0.09545798
27	0x3e6413c9	0.22273172
28	0xbd961834	-0.07328835
29	0xbe0e6fc0	-0.13909817
30	0xbc4f3e38	-0.012649111
31	0x3be82a45	0.007085117
32	0x3e24c087	0.16089068
33	0xbddc12b1	-0.107457526
34	0x3d83bb2a	0.06432183
35	0xbda89846	-0.08232169
36	0x3d806357	0.062689476
37	0x3dc23800	0.094833374
38	0x3e0a0d60	0.13481665
39	0xbd68c017	-0.056823816
40	0xbd0d4e7c	-0.034498677
41	0x3e459246	0.1929408
42	0xbdc74df5	-0.09731666
43	0x3e47711e	0.19476745
44	0xbdd33be2	-0.10314156
45	0x3c41178e	0.011785401
46	0x3e0b2962	0.13590005
47	0xbdc58505	-0.09644512
48	0xbc0f2f4b	-0.008739303
49	0xbdc61215	-0.096714176
50	0xbcf86330	-0.030320734
51	0x3b3f8ded	0.0029228881
52	0x3db78b8b	0.089621626
53	0xbd1d578a	-0.038413562
54	0xbd6b29ae	-0.057412796
55	0x3d86f460	0.065895796
56	0xbe1afb22	-0.15134862
57	0x3d7fa511	0.06241328
58	0xbe47d6d2	-0.19515541
59	0xbb860b96	-0.0040907366
60	0x3e11d576	0.14241585
61	0xbb412371	-0.0029470588
62	0xbd8231da	-0.06357165
63	0x3c0fa73d	0.0087679
64	0x3d40afb2	0.047042556
65	0xbd9838bb	-0.074326955
66	0x3ca5f656	0.020259064
67	0x3d689d95	0.056790907
68	0xbe1bd930	-0.15219569
69	0xbd86613b	-0.06561514
70	0x3d4ac5c6	0.049505018
71	0x3d317fae	0.043334655
72	0xbc2f02ef	-0.010681852
73	0xbcc8d416	-0.024515193
74	0xbe61687c	-0.22012514
75	0xbe6189b7	-0.2202519
76	0x3db2c8fc	0.08729741
77	0xbcca7f9a	-0.024719048
78	0x3db7a8ae	0.0896772
79	0xbe36e084	-0.17859083
80	0x3d873a2b	0.066028915
81	0xbcecc2c9	-0.028901475
82	0xbda4c381	-0.08045102
83	0xbdeceec2	-0.11568977
84	0x3bf65180	0.00751704
85	0xbe87feba	-0.26561528
86	0x3dc93256	0.09824054
87	0x3d599c1e	0.0531274
88	0x3d4eaac0	0.05045581
89	0xbd7479d1	-0.059686486
90	0xbaa4c5c3	-0.0012571145
91	0x3dd39e26	0.10332899
92	0xbd0302ab	-0.031984966
93	0xbe22dd11	-0.15904643
94	0xbcad32ec	-0.021142446
95	0x3e2fdcc0	0.17174053
96	0x3e85cfe9	0.26135185
97	0x3e12e2c7	0.14344321
98	0xbd263f41	-0.040587667
99	0xbd387262	-0.04503096
100	0x3db436c4	0.08799508
101	0xbce5896e	-0.028019633
102	0x3e651ffc	0.22375482
103	0x3ccab007	0.02474214
104	0x3c749966	0.014929151
105	0x3d677a6c	0.056513235
106	0xbdcd349f	-0.10019802
107	0xbe10996c	-0.14121026
108	0x3ae09447	0.0017134034
109	0x3ce85133	0.028359031
110	0xbe355416	-0.17707857
111	0x3d8a51a3	0.06753852
112	0x3e7c3b8c	0.2463209
113	0x3e65875b	0.22414915
114	0x3c997f22	0.01873738
115	0xbd96781f	-0.0734713
116	0xbca1518f	-0.01969221
117	0x3d889873	0.066697024
118	0xbe37b8d7	-0.17941605
119	0x3b4045b5	0.0029338424
120	0xbd87bbcb	-0.066276155
121	0xbe8e0729	-0.27739838
122	0xbde74d15	-0.11293999
123	0xbca710cb	-0.02039375
124	0xbdbcaca6	-0.092126176
125	0x3d81a75e	0.06330751
126	0x3d88b68d	0.06675444
127	0xbbc43bbe	-0.005988567
128	0x3dba817b	0.09106728
129	0xbd8746ad	-0.06605277
130	0x3da87267	0.082249455
131	0x3caaf542	0.020868901
132	0x3d8ec5ab	0.06971296
133	0x3e58bf00	0.2116661
134	0xbc6eb09e	-0.014568476
135	0xbdbff769	-0.093733616
136	0x3d81b653	0.06333604
137	0xbe3a2b1a	-0.18180504
138	0xbe0e34b3	-0.1388729
139	0x3cfa014d	0.030518198
140	0x3d60fb3e	0.054927103
141	0x3e1937e2	0.14962724
142	0xbe0f7bab	-0.1401202
143	0x3d196ad1	0.037455384
144	0xbe43e877	-0.19131647
145	0x3d74a93d	0.05973171
146	0x3c710c3e	0.014712391
147	0xbe8978df	-0.2685003
148	0xbd5f02ec	-0.054446146
149	0xbc7aa5da	-0.015298331
150	0xbdc97f9c	-0.09838793
151	0x3d84162d	0.06449542
152	0xbde00420	-0.10938287
153	0xbbfa4867	-0.0076380256
154	0xbdc6e04d	-0.09710751
155	0x3e0bafc7	0.13641272
156	0x3d3eab3c	0.04655002
157	0xbd2cd664	-0.042196646
158	0x3e9d1698	0.306813
159	0x3e458bb4	0.19291574
160	0x3d145616	0.03621491
161	0x3d74ed4a	0.05979661
162	0x3dc767b1	0.097365744
163	0x3e144acc	0.14481658
164	0x3d0981de	0.033571117
165	0x3e2529c2	0.1612921
166	0xbcf39d0a	-0.029737968
167	0x3e026ae7	0.12736093
168	0xbe00cf4e	-0.1257908
169	0xbe80ad72	-0.25132328
170	0x3e8649cd	0.2622818
171	0xbc8625d4	-0.01637546
172	0x3ca87fc9	0.020568745
173	0xbdb83083	-0.08993628
174	0xbc91387d	-0.017727131
175	0x3ddc17f3	0.107467555
176	0x3e55c305	0.20875175
177	0xbce2157b	-0.027598133
178	0xbe1adc95	-0.15123208
179	0xbd81bafa	-0.06334491
180	0x3d3041ac	0.04303138
181	0x3cad51ea	0.021157224
182	0xbe0a7fbf	-0.13525294
183	0x3e0ee08b	0.13952844
184	0xbd6410fd	-0.055680264
185	0xbd984a1f	-0.074360125
186	0x3e074784	0.13210875
187	0x3de82234	0.11334649
188	0x3e1525ca	0.14565197
189	0x3d9c741a	0.07639332
190	0xbc3c7c8e	-0.0115043055
191	0x3adedee4	0.0017003682
192	0x3ca5d87c	0.02024483
193	0xbe3df412	-0.18550137
194	0xba8333d4	-0.0010009953
195	0x3b02022f	0.0019837727
196	0x3cb83fa9	0.022491293
197	0xbd296bc8	-0.041362554
198	0x3d583574	0.052785352
199	0xbdf3901e	-0.118927225
200	0xbc6b7e05	-0.014373307
201	0x3dae485e	0.08509897
202	0x3e9e7041	0.30945018
203	0x3df917b5	0.12162725
204	0x3ceabd8e	0.02865484
205	0x3e4e6a34	0.20157701
206	0xbe0d148d	-0.13777371
207	0x3e94395f	0.2895002
208	0x3e322ce4	0.17399937
209	0x3db57539	0.08860249
210	0xbe24b4fd	-0.16084667
211	0x3cbd2179	0.02308725
212	0xbcb6a37a	-0.022294749
213	0xbe3f810e	-0.18701574
214	0xbd4aee10	-0.04954344
215	0xbe3a4688	-0.18190968
216	0xbd6b477b	-0.057441216
217	0x3cf983b5	0.03045831
218	0x3d50ceaf	0.05097836
219	0xbd87edff	-0.06637191
220	0x3d4c5fe6	0.049896143
221	0xbe0abbce	-0.13548204
222	0x3c4516b9	0.012029343
223	0xbcf33a34	-0.02969084
224	0x3c7bcc0e	0.015368475
225	0x3b03cd72	0.0020111469
226	0x3ddf42ee	0.10901438
227	0xbdfaaa11	-0.12239469
228	0xbc94e5f1	-0.01817605
229	0x3d94acf6	0.07259552
230	0xbccc4e85	-0.024939785
231	0xbe2f39e4	-0.17111927
232	0xbe0ff38b	-0.14057748
233	0x3e2962a4	0.16541535
234	0x3cf50a3c	0.029912107
235	0x3e1b7135	0.15179904
236	0x3dcb00a3	0.09912231
237	0x3e14699a	0.14493409
238	0xbd91c9a9	-0.07118542
239	0xbd40fe60	-0.04711759
240	0x3ad53437	0.0016266172
241	0xbd7e57d6	-0.062095486
242	0xbe40ba5a	-0.18821087
243	0xbdc2de18	-0.09515017
244	0xbdc75ef1	-0.097349055
245	0xb939f766	-0.00017735138
246	0xbd3b02fb	-0.04565714
247	0xbe0ca997	-0.13736568
248	0xbe3efaa9	-0.18650307
249	0x3d457b7e	0.048213474
250	0x3e5809c0	0.2109747
251	0x3db067de	0.08613561
252	0x3dda6313	0.10663428
253	0xbe382bdf	-0.17985485
254	0xbdd645cf	-0.10462534
255	0x3ce392b8	0.027779922

_module.fc3.bias f4 [10]
0	0x3d8a8e86	0.067654654
1	0x3d308ef5	0.043105084
2	0xbc672522	-0.014107974
3	0xbda9d721	-0.08292986
4	0x3b6bc62f	0.003597628
5	0xbc88e3b9	-0.01671015
6	0xbe003383	-0.1251965
7	0xbd2853bc	-0.04109548
8	0x3cb5af59	0.022178339
9	0xbc9dfaa3	-0.019284552
